Assets/Result/SelfPlayEx-1/SelfPlayEx/SelfPlayEx-169148.pt (torch, 455607 bytes, 41 tensors)

network_body.observation_encoder.processors.0.normalizer.running_mean f4 [10]
0	0xb1800000	-3.7252903e-09
1	0x32400000	1.1175871e-08
2	0x304cb0fb	7.446627e-10
3	0xb1823c69	-3.790366e-09
4	0xbd142db2	-0.03617639
5	0x31000000	1.8626451e-09
6	0xb1800000	-3.7252903e-09
7	0x32b6c9ae	2.1279302e-08
8	0xb23b9056	-1.0917651e-08
9	0xbcd87224	-0.026421614

network_body.observation_encoder.processors.0.normalizer.running_variance f4 [10]
0	0x49d18c36	1.7166148e+06
1	0x4a4f0c07	3.3922578e+06
2	0x4a7b8f0f	4.1215398e+06
3	0x4ad17509	6.8634925e+06
4	0x498e0b64	1.1636285e+06
5	0x49d5625e	1.7480438e+06
6	0x4a59cc2b	3.5683948e+06
7	0x4a805d63	4.2062575e+06
8	0x4adb47e7	7.1853955e+06
9	0x49909ede	1.1847318e+06

network_body.processors.0.normalizer.running_mean f4 [10]
0	0xb1800000	-3.7252903e-09
1	0x32400000	1.1175871e-08
2	0x304cb0fb	7.446627e-10
3	0xb1823c69	-3.790366e-09
4	0xbd142db2	-0.03617639
5	0x31000000	1.8626451e-09
6	0xb1800000	-3.7252903e-09
7	0x32b6c9ae	2.1279302e-08
8	0xb23b9056	-1.0917651e-08
9	0xbcd87224	-0.026421614

network_body.processors.0.normalizer.running_variance f4 [10]
0	0x49d18c36	1.7166148e+06
1	0x4a4f0c07	3.3922578e+06
2	0x4a7b8f0f	4.1215398e+06
3	0x4ad17509	6.8634925e+06
4	0x498e0b64	1.1636285e+06
5	0x49d5625e	1.7480438e+06
6	0x4a59cc2b	3.5683948e+06
7	0x4a805d63	4.2062575e+06
8	0x4adb47e7	7.1853955e+06
9	0x49909ede	1.1847318e+06

network_body._body_endoder.seq_layers.0.weight f4 [128, 10]
0	0x3b807216	0.00391985
1	0x3e8ad0e7	0.27112505
2	0x3f0b88bf	0.5450553
3	0xbd877915	-0.066148914
4	0x3e555502	0.20833209
5	0xbe13a6ce	-0.144191
6	0x3ebf84ce	0.3740601
7	0xbe4ff51b	-0.20308344
8	0xbe21598f	-0.1575682
9	0xbf4adbdf	-0.79241747
10	0xbe9313f3	-0.28726158
11	0x3e50a30f	0.20374702
12	0xbe257628	-0.16158354
13	0xbe9e4f5b	-0.30919918
14	0xbec43681	-0.38322833
15	0xbe1ae087	-0.15124713
16	0x3d007a13	0.03136642
17	0x3ec33318	0.3812492
18	0xbe86cfe7	-0.26330492
19	0x3f32e64f	0.69882673
20	0xbe924b80	-0.28573227
21	0x3edb72d2	0.42861038
22	0xbe553218	-0.2081989
23	0x3eb88f79	0.3604696
24	0x3e7e28d3	0.2482026
25	0xbdb92aa4	-0.09041336
26	0xbe01ccff	-0.12675856
27	0xbe7d044b	-0.24708669
28	0x3e8508df	0.2598333
29	0xbe91dc60	-0.28488445
30	0xbd1e689a	-0.038673975
31	0xbe1dfd1f	-0.1542859
32	0xbedd6c8f	-0.43246886
33	0x3ce51a8f	0.027966766
34	0xbe45fbb4	-0.19334298
35	0xbef58674	-0.47954142
36	0x3d28acb4	0.041180328
37	0x3f07acf3	0.52998275
38	0x3f0745e4	0.5284102
39	0xbe90a78d	-0.2825283
40	0xbe537d28	-0.20653212
41	0xbf120b62	-0.5704862
42	0x3beee998	0.00729103
43	0xbe84d98e	-0.2594723
44	0xbefced8b	-0.4939998
45	0x3e0e742c	0.13911504
46	0xbeb2f167	-0.349498
47	0xbed69c8c	-0.4191631
48	0x3c8b425c	0.016999416
49	0xbbe8d7ca	-0.007105802
50	0xbd9c6034	-0.07635537
51	0xbf116a76	-0.5680307
52	0xbc4cadbf	-0.012492596
53	0xbe18e50d	-0.14931126
54	0x3e0b16a1	0.13582851
55	0x3d6b3441	0.05742288
56	0xbf3a6dfe	-0.72824085
57	0x3e55a780	0.20864677
58	0x3cf07ec0	0.029357314
59	0x3eb59db6	0.35471886
60	0x3e0da5ad	0.13832732
61	0xbeb2e167	-0.34937593
62	0xbe99d522	-0.3004542
63	0xbdc86177	-0.09784215
64	0xbd10ad88	-0.035321742
65	0x3f034134	0.5127137
66	0xbd0c0c8a	-0.034191646
67	0x3d85f323	0.06540515
68	0x3d58c47d	0.05292176
69	0xbf0e4762	-0.5557767
70	0x3e9679a5	0.29389682
71	0x3d597483	0.05308963
72	0x3efebe36	0.49754494
73	0x3f0a03a4	0.53911805
74	0x3e72c0e5	0.23706396
75	0xbe4d97e4	-0.20077473
76	0xbe74c186	-0.23901948
77	0xbe0415bb	-0.12898915
78	0x3eb77428	0.35830808
79	0xbe1eeda1	-0.15520336
80	0x3f0207ad	0.5079296
81	0xbe9fdc1d	-0.3122262
82	0x3ddc555c	0.107584685
83	0x3dadc8ff	0.084856026
84	0xbd7c17e5	-0.061546225
85	0xbdeb2721	-0.114820726
86	0x3e5bda3d	0.2146997
87	0x3dd1a22a	0.102360085
88	0xbd978028	-0.07397491
89	0xbc8fba38	-0.01754485
90	0xbe4efd96	-0.20213923
91	0xbe4ec5af	-0.20192598
92	0x3e617c54	0.22020084
93	0xbe1c2814	-0.15249664
94	0xbd0e0727	-0.03467479
95	0xbef97300	-0.4872055
96	0x3d634087	0.05548146
97	0xbe6eac91	-0.23308016
98	0x3dce0ae5	0.10060672
99	0xbf52385d	-0.82117254
100	0x3e2db747	0.16964446
101	0x3d945099	0.07241935
102	0xbe8597b6	-0.2609231
103	0xbf2b1715	-0.66832095
104	0xbf0239f4	-0.5086968
105	0x3e2188fc	0.15774912
106	0xbf01c29d	-0.5068758
107	0x3db9c028	0.09069854
108	0x3ee42946	0.4456274
109	0x3eac2ac8	0.3362639
110	0xbf42058c	-0.75789714
111	0x3ed5140a	0.4161685
112	0xbe32589e	-0.17416617
113	0xbd83c74f	-0.064344995
114	0x3dba604c	0.091003984
115	0x3f0a4191	0.54006296
116	0xbe0348bd	-0.12820716
117	0x3ee3faae	0.4452719
118	0xbee238fb	-0.44184098
119	0x3e7135bb	0.23555653
120	0x3f0b91d8	0.54519415
121	0xbe9a5ab0	-0.30147314
122	0x3e8908d3	0.26764545
123	0xbd90e39b	-0.07074662
124	0xbddff75f	-0.10935854
125	0x3db6ff74	0.089354426
126	0x3e3448b6	0.17605862
127	0xbe9c2384	-0.30495846
128	0x3e615283	0.22004132
129	0xbe855b46	-0.260462
130	0xbd56ecaa	-0.052471794
131	0x3e853c6c	0.2602266
132	0x3e958979	0.29206446
133	0xbe950450	-0.29104853
134	0xbed9e6d4	-0.4255892
135	0x3e9c64bd	0.30545607
136	0x3cdbc4a1	0.026827158
137	0x3e1e03df	0.15431164
138	0x3e98d84a	0.29852515
139	0xbf009afe	-0.502365
140	0xbd6ef456	-0.058338486
141	0x3df31557	0.118693046
142	0x3ea2e934	0.31818545
143	0x3e4e0810	0.20120263
144	0xbeafbc70	-0.34323454
145	0xbdd53422	-0.10410334
146	0xbdcabff8	-0.098998964
147	0xbd6d2775	-0.057898957
148	0x3f07f125	0.5310233
149	0xbe4c75f8	-0.19966877
150	0x3e69bae9	0.22825207
151	0xbcf83dc2	-0.030302886
152	0x3ea31cc9	0.318579
153	0x3d2d548e	0.042316966
154	0xbd21b18c	-0.039475963
155	0x3e4ab136	0.19794163
156	0xbedba3d3	-0.42898425
157	0xbcefe804	-0.029285438
158	0xbe3d4d58	-0.18486536
159	0xbd46e0e6	-0.048554324
160	0x3d17b02a	0.037033238
161	0xbda31476	-0.07962887
162	0xbb99687a	-0.004681644
163	0xbe709b68	-0.23496783
164	0xbcfdd1a3	-0.030983752
165	0x3e44c32b	0.19215076
166	0x3cd9e934	0.026600458
167	0xbeaa4a2c	-0.33259714
168	0xbd1a4f7f	-0.03767347
169	0x3e576f61	0.21038581
170	0x3e639614	0.22225219
171	0xbeae6f3f	-0.3406925
172	0xbc72dca3	-0.014823112
173	0xbec07320	-0.37587833
174	0xbdfe7270	-0.12424171
175	0xbe2245ba	-0.15846911
176	0xbe78f3f8	-0.24311817
177	0x3ee6599c	0.44990242
178	0x3e198a38	0.14994133
179	0xbe13c592	-0.14430836
180	0xbe42e965	-0.19034345
181	0x3e5f22bb	0.21790592
182	0x3e0e2636	0.13881764
183	0x3f17a13c	0.592304
184	0x3e0be667	0.1366211
185	0x3ec8b614	0.39201415
186	0x3e2c7575	0.16841681
187	0x3cdc46fb	0.026889315
188	0x3c087cd8	0.008330546
189	0x3dfc2299	0.123112865
190	0x3d66d1e5	0.056352515
191	0xbcd60e77	-0.026129944
192	0xbdabb33b	-0.08383795
193	0xbe57be77	-0.2106875
194	0x3ee8f3a0	0.4549837
195	0x3b552073	0.0032520562
196	0xbe9c3707	-0.30510733
197	0xbc9fec55	-0.019521872
198	0x3e22fc1a	0.15916482
199	0x3e56e95e	0.2098746
200	0xbbd7c308	-0.006584529
201	0x3f01d595	0.50716525
202	0xbe658bc8	-0.22416604
203	0xbd60d6a1	-0.054892186
204	0xbd26bc17	-0.04070672
205	0xbe444bf3	-0.19169597
206	0xbe9b37ae	-0.30315918
207	0xbe0cf4ec	-0.13765305
208	0x3eaadb79	0.3337057
209	0xbe2921ec	-0.16516846
210	0xbe19e964	-0.15030438
211	0x3e890615	0.26762453
212	0x3e7805c6	0.24220952
213	0xbf11bffa	-0.5693356
214	0xbebc180c	-0.36737096
215	0x3e3ca987	0.18424045
216	0xbbef6f33	-0.007306957
217	0x3e0e4f4a	0.13897434
218	0x3e96b8e8	0.29437947
219	0xbec80733	-0.39067993
220	0xbd045849	-0.032310758
221	0x3ef14613	0.47123775
222	0x3ec6ff11	0.38866475
223	0xbef05849	-0.46942356
224	0xbc46107b	-0.01208889
225	0x3e6d42c8	0.23170006
226	0xbf46d07e	-0.77661884
227	0x3ddfd05a	0.10928412
228	0xbe5c7047	-0.21527205
229	0xbeee3b59	-0.46529654
230	0xbd1f114c	-0.038834855
231	0xbdb6aa2d	-0.08919177
232	0xbd934300	-0.071905136
233	0xbe9b3243	-0.30311784
234	0x3d7f46d1	0.062323395
235	0xbded853c	-0.11597678
236	0xbe864175	-0.26221815
237	0xbf3b9ac3	-0.7328302
238	0xbde6e3cf	-0.1127392
239	0x3e528382	0.20557979
240	0xbe7c45de	-0.24636027
241	0x3dbe7a9a	0.09300728
242	0xbf73a3b7	-0.95171684
243	0xbe8dc66b	-0.27690443
244	0x3e3e0cf6	0.18559632
245	0x3ed54f81	0.4166222
246	0x3eac0a8d	0.336018
247	0xbea40269	-0.3203309
248	0xbe8e32c7	-0.27773115
249	0x3f022264	0.50833726
250	0xbe833f69	-0.25634316
251	0xbf1f5d53	-0.62251776
252	0x3c2d8e40	0.010592997
253	0xbee88261	-0.4541197
254	0x3e728576	0.23683724
255	0x3db0c88c	0.08632001

network_body._body_endoder.seq_layers.0.bias f4 [128]
0	0x3c7fe73f	0.015619098
1	0x3d613b5d	0.054988254
2	0x3c0b687b	0.008508797
3	0xbcdf6506	-0.027269851
4	0x3d84ba77	0.06480878
5	0x3d59433f	0.053042646
6	0x3d2502e7	0.04028597
7	0xbc7527f9	-0.0149631435
8	0xbd0a520e	-0.03376966
9	0x3cc72a34	0.024312116
10	0x3cfa4e82	0.030555014
11	0x3c3d690a	0.011560688
12	0x3cc175bc	0.02361571
13	0x3cf19d4c	0.02949395
14	0xbb9cbe2c	-0.0047834124
15	0x3bd74f10	0.0065707043
16	0x3d3e74a5	0.04649796
17	0x3cd28439	0.025697814
18	0xbca69e10	-0.020339042
19	0x3c5bc73e	0.013414202
20	0x3c9cc172	0.01913521
21	0x3cfbfc72	0.030760024
22	0x3bee4548	0.0072714426
23	0x3d167298	0.03673038
24	0x3cae526e	0.02127954
25	0x3c950015	0.018188516
26	0x3d5eb577	0.054372277
27	0x3c9f1312	0.019418273
28	0xbc07d25b	-0.008289899
29	0xbc0f9068	-0.0087624565
30	0x3c930f63	0.017951673
31	0x3b5c41a5	0.0033608463
32	0x3d2bb1d7	0.04191765
33	0x3c3d4980	0.011553168
34	0x3d0ae26b	0.033907335
35	0x3d0fb39d	0.035083402
36	0x3b8ba17a	0.004261193
37	0xbce983fd	-0.02850532
38	0x3d78936a	0.06068746
39	0x3c4b6faa	0.0124167595
40	0x3d1046b5	0.03522368
41	0xbc831519	-0.016001271
42	0x3c903e8b	0.017607948
43	0x3d0b1c1f	0.033962365
44	0x3d2534f8	0.040333718
45	0xbcc6c413	-0.024263417
46	0xbc9bb5c0	-0.019007564
47	0xbbc416f9	-0.005984184
48	0x3d0aa2e9	0.03384677
49	0xbca621ff	-0.020279882
50	0x3d086fce	0.03330975
51	0x3c018e72	0.007907497
52	0x3c610101	0.0137331495
53	0x3d07a47d	0.033115853
54	0xbc890247	-0.016724719
55	0x3d621e72	0.055204816
56	0x3ab55565	0.0013834654
57	0x3d086fd0	0.033309758
58	0xbbf0fce6	-0.0073543666
59	0xbb65c36e	-0.0035059112
60	0x3bce7c9d	0.006301476
61	0xbc48c9bb	-0.012255128
62	0x3c811282	0.015755896
63	0x3aecad0e	0.0018056945
64	0x3ce19594	0.027537145
65	0xbba43b64	-0.0050119627
66	0xbc5a6964	-0.013330791
67	0x3b8ab2ea	0.004232754
68	0x3d604d16	0.054761015
69	0x3c0615c3	0.008183899
70	0x3cd89bff	0.026441572
71	0x3d62a511	0.0553332
72	0xbb85878c	-0.0040749963
73	0x3c9787d9	0.018497394
74	0x3d2e2f79	0.042525742
75	0xbcc3a7b7	-0.023883684
76	0x3cc473fb	0.023981085
77	0xbcbe96fa	-0.02326535
78	0x3d398d34	0.045300677
79	0x3d312c72	0.043255277
80	0x3d6f164c	0.058370873
81	0xbc7a9990	-0.015295401
82	0x3d67e953	0.056619
83	0xbcac0976	-0.021000605
84	0x3cca61fc	0.024704926
85	0x3c0cffc6	0.008605903
86	0x3d0fe45e	0.035129897
87	0x3cd3cc33	0.025854206
88	0x3c8f1186	0.01746441
89	0xba331ec4	-0.00068328925
90	0xbd635169	-0.05549756
91	0xbcc67008	-0.024223343
92	0x3d37f4ac	0.04491107
93	0x3d9047f0	0.07044971
94	0x3d163f22	0.036681302
95	0xbc57d810	-0.013174072
96	0xbc911f73	-0.017715191
97	0x3d1f5d8e	0.03890758
98	0x3d3a2410	0.045444548
99	0x3cf5a66a	0.029986579
100	0x3d4b7f82	0.049682148
101	0xbc337ff9	-0.010955804
102	0xbca6042e	-0.020265665
103	0xbc84d5b2	-0.01621518
104	0x3c5909bb	0.013246949
105	0xbcd37a55	-0.025815168
106	0x3caeb2e4	0.021325536
107	0x3cab221f	0.020890294
108	0x3c2c5f0b	0.010520707
109	0x3c2a80da	0.010406697
110	0x3d4a9b4e	0.049464516
111	0x3ce3e5cd	0.027819538
112	0x3b120dcb	0.0022286053
113	0xbd172705	-0.036902446
114	0x3d42f1af	0.04759377
115	0xbb251e3a	-0.0025195018
116	0x3d190e97	0.03736743
117	0xbce8c154	-0.028412499
118	0x3d5814ed	0.05275433
119	0x3cf32a61	0.029683294
120	0xbc765670	-0.015035257
121	0xbca1c883	-0.019748932
122	0x3d3aa99c	0.04557191
123	0x3c8c74c5	0.017145524
124	0x3cd7322d	0.026269043
125	0x3d1c0938	0.03809473
126	0xbbb154a8	-0.005411703
127	0x3cac0fc4	0.021003611

network_body._body_endoder.seq_layers.2.weight f4 [128, 128]
0	0x3d00afaf	0.031417545
1	0x3da1c741	0.07899333
2	0xbda3a3ca	-0.07990225
3	0x3d45cb9f	0.04828989
4	0x3d9a857f	0.075449936
5	0xbd3d8f98	-0.04627952
6	0xbd330f8a	-0.04371599
7	0x3d0d5619	0.034505937
8	0x3d969211	0.07352079
9	0xbdfdc330	-0.12390745
10	0xbe01726a	-0.12641302
11	0xbd909713	-0.07060065
12	0x3d2d3dd9	0.04229531
13	0xbe016ff7	-0.12640367
14	0xbddc4308	-0.10754973
15	0x3d98b5fe	0.07456587
16	0xbd708a4f	-0.05872565
17	0xbb8a5193	-0.00422115
18	0xbd43034e	-0.047610573
19	0x3ddddcea	0.10833152
20	0x3e11c3f6	0.1423491
21	0x3963237b	0.00021661624
22	0xbd1c1c4d	-0.038112927
23	0xbd014c2e	-0.03156679
24	0x3d6c564f	0.057699498
25	0x3d811639	0.06303067
26	0x3c19c967	0.009386397
27	0x3d197522	0.037465222
28	0x3d8b8a08	0.06813437
29	0x3d291488	0.041279346
30	0x3e192ff0	0.14959693
31	0x3cae1fed	0.021255458
32	0x3e5a0db1	0.21294285
33	0x3d150607	0.0363827
34	0xbdc0dadc	-0.09416744
35	0xbe1ad9b6	-0.15122113
36	0xbcff57d9	-0.031169819
37	0x3cbd10b1	0.023079248
38	0x3d94a09a	0.07257195
39	0xbbc14d56	-0.0058991117
40	0x3e1ecdd4	0.15508205
41	0xbe256c86	-0.1615468
42	0xbd67969b	-0.056540113
43	0x3d020875	0.031746347
44	0x3d93cdb7	0.07216971
45	0xbcdbb0b7	-0.026817663
46	0xbde2b71a	-0.1107008
47	0xbd8a64fe	-0.06757544
48	0x3cd80cf8	0.026373371
49	0xbe071d9c	-0.13194889
50	0x3d90461a	0.07044621
51	0x3dd83ab1	0.105580695
52	0xbd2816d8	-0.04103741
53	0x3dee63af	0.11640107
54	0xb9a36db6	-0.00031171524
55	0x3d8a12b2	0.06741847
56	0xbd260492	-0.040531702
57	0x3e7ada50	0.24497342
58	0x3cd70b52	0.026250515
59	0xbd36990a	-0.044579543
60	0x3db03262	0.0860336
61	0x3c4db7aa	0.012555996
62	0xbcddc594	-0.027071752
63	0xbdf23f99	-0.118285365
64	0x3c104db5	0.008807589
65	0x3dee90f8	0.11648744
66	0x3c413cba	0.0117942635
67	0xbdd3a9ac	-0.10335097
68	0xbe173029	-0.14764465
69	0xbe9bd62f	-0.30436847
70	0xbdd367b1	-0.10322512
71	0x3db1f92e	0.086901054
72	0xbc5ac736	-0.01335316
73	0x3ba4962a	0.0050227838
74	0x3e0f72e7	0.14008676
75	0x3e367f24	0.17821938
76	0x3ce1121e	0.02747446
77	0xbd3fe124	-0.04684557
78	0x3d1bbad1	0.03801996
79	0x3c232e0c	0.009959709
80	0x3e866541	0.26249126
81	0x3d9fee57	0.078091316
82	0xbd0f114f	-0.034928616
83	0xbd4fcdf3	-0.050733518
84	0x3ccafdbc	0.024779193
85	0xbd4262fa	-0.047457673
86	0xbc6f3881	-0.014600874
87	0xbc95dbbe	-0.018293258
88	0xbd0a7f65	-0.0338129
89	0x3e2cb522	0.16865972
90	0x3d2152bf	0.039385553
91	0xbd324f49	-0.043532643
92	0xbdaef5a1	-0.08542944
93	0xbd5b94c6	-0.05360868
94	0x3c8b898c	0.01703336
95	0x3e18d161	0.14923622
96	0xbd0bc239	-0.034120772
97	0xbb9369bb	-0.004498688
98	0x3d84af04	0.06478694
99	0x3da181fe	0.07886122
100	0x3e2005c9	0.15627207
101	0x3d81c8a7	0.063370995
102	0xbdbc976e	-0.092085704
103	0xbd4e2add	-0.050333846
104	0x3a488d17	0.00076504186
105	0xbd1e860e	-0.038702063
106	0x3c3f47f3	0.011674869
107	0x3e209705	0.1568261
108	0x3d1d18d6	0.038353764
109	0xbc9c0108	-0.01904346
110	0x3e35a4b9	0.17738618
111	0xbd43a377	-0.047763314
112	0xbd66beb2	-0.056334205
113	0x3e20c754	0.15701038
114	0x3d34581a	0.044029333
115	0xbe3a02f0	-0.18165183
116	0x3cb7c6fb	0.022433748
117	0xbd50ff65	-0.051024813
118	0x3dfc4175	0.123171724
119	0x3de21744	0.11039594
120	0x3da425a5	0.080149926
121	0xbd5907a0	-0.052985787
122	0x3d76505e	0.060135238
123	0xbd003d2a	-0.03130833
124	0x39d6090a	0.00040823995
125	0x3dbd8098	0.09253043
126	0xbe203951	-0.15646864
127	0xbd1919d6	-0.037378155
128	0xbd258d56	-0.04041799
129	0xbb927428	-0.0044694133
130	0x3d7edf8e	0.062224917
131	0xbda03b4f	-0.07823812
132	0xbd90fd98	-0.07079619
133	0xbc581469	-0.01318846
134	0xbdfaf8b1	-0.12254465
135	0xbd0904e6	-0.033451937
136	0xbe1db0b2	-0.15399435
137	0x3ccc1a1d	0.024914796
138	0x3e15c721	0.14626743
139	0x3d09bce9	0.033627424
140	0xbdcc481f	-0.099746935
141	0xbbbdeb8d	-0.005795902
142	0x3de36162	0.11102559
143	0x3d8c396c	0.0684689
144	0x3e2ca124	0.16858345
145	0xbdd0cb68	-0.10195047
146	0x3d387186	0.04503014
147	0xbe2859ed	-0.16440554
148	0x3d9167fc	0.070999116
149	0xbd90b54b	-0.07065829
150	0x3c7cfb77	0.015440813
151	0x3ca5781d	0.020198876
152	0x3e57b01c	0.21063274
153	0xbcb3acc5	-0.021932969
154	0x3d5e001b	0.05419932
155	0x39713872	0.00023004579
156	0xbe2dacb4	-0.16960412
157	0xbc2da721	-0.010598929
158	0xbded75fe	-0.11594771
159	0x3d34d546	0.044148706
160	0xbd9b1982	-0.075732246
161	0xbd77a070	-0.06045574
162	0x3c822e7a	0.015891302
163	0xbddb4209	-0.107059546
164	0xba2a029c	-0.0006485374
165	0xbc214dba	-0.009845192
166	0x3e4fa4da	0.2027773
167	0xbda20c96	-0.07912557
168	0xbe2f5515	-0.171223
169	0xbd6507d4	-0.05591567
170	0xbdbeec36	-0.093223974
171	0x3d458717	0.048224535
172	0xbd948f3f	-0.072538845
173	0x3ae90a4f	0.0017779561
174	0x3dc45a42	0.09587528
175	0x3dfc81d5	0.12329451
176	0x3cb5a808	0.02217485
177	0xbe051986	-0.12998018
178	0x3e1a5bd0	0.15074086
179	0x3d63cb47	0.055613782
180	0xbe17779c	-0.14791721
181	0x3c961b3e	0.018323537
182	0xbd849327	-0.064733796
183	0x3ce1aae4	0.027547307
184	0xbcae11c4	-0.021248706
185	0xbbdeab36	-0.0067953123
186	0x3cc22d2a	0.023703177
187	0x3dae7891	0.0851909
188	0xbd25b854	-0.040458992
189	0x3d98ecba	0.07467027
190	0x3d174781	0.036933426
191	0xbdd7f6d5	-0.10545126
192	0x3db8342d	0.08994327
193	0x3df05c1d	0.11736319
194	0xbd482be8	-0.048869997
195	0xbc911002	-0.017707828
196	0x3dd1c97e	0.1024351
197	0xbdc2a44b	-0.09503993
198	0x3e17d27f	0.14826392
199	0x3cc4aaf3	0.024007296
200	0xbd98fd69	-0.07470209
201	0x3a49d951	0.0007699924
202	0x3d1a2a5f	0.037638064
203	0xbe2afe38	-0.1669854
204	0xbdc7568f	-0.097333066
205	0xbcfa30e0	-0.030540884
206	0xbc13293b	-0.008981998
207	0xbd9368ab	-0.07197698
208	0xbd8f0d13	-0.069849156
209	0x3e0b6550	0.13612866
210	0x3d84e0d3	0.06488194
211	0x3cb14161	0.02163762
212	0x3dfd9012	0.12380995
213	0xbe2520df	-0.1612582
214	0xbc78a4ac	-0.01517598
215	0x3d193082	0.037399776
216	0x3c306517	0.010766289
217	0xbb148f92	-0.0022668582
218	0x3dc547be	0.09632824
219	0xbdc24709	-0.09486205
220	0x3c6d65ef	0.014489635
221	0x3db92f5d	0.09042237
222	0x3e0d2a57	0.13785683
223	0x3bae9556	0.005327861
224	0xbe2241f3	-0.1584547
225	0x3d12a61d	0.03580295
226	0xbdf703a0	-0.12061238
227	0xbda9abfd	-0.08284757
228	0x3cb20ffd	0.02173614
229	0x3cb40240	0.02197373
230	0x3c0dc406	0.008652693
231	0xbcc3dfb1	-0.023910375
232	0x3d972278	0.07379621
233	0x3d8a6e06	0.067592666
234	0xbd827b69	-0.06371195
235	0x3cee6720	0.029101908
236	0xbda0a3a9	-0.07843716
237	0xbd821ff7	-0.06353753
238	0xbca1cd20	-0.019751132
239	0x3da39374	0.07987109
240	0x3d403deb	0.04693405
241	0xbe01d873	-0.12680225
242	0x3dccb553	0.09995522
243	0xbdafff04	-0.08593562
244	0xbc05fffa	-0.008178705
245	0x3e015161	0.126287
246	0xbce26b7e	-0.027639147
247	0x3d353a12	0.044244833
248	0x3c64b444	0.013958994
249	0xbe296a39	-0.16544427
250	0x3ce5b796	0.028041642
251	0xbb99e4c2	-0.0046964595
252	0xbdb73eb0	-0.089475036
253	0x3d2a0a24	0.041513577
254	0x3e16051d	0.14650388
255	0x3dbfb606	0.0936089

network_body._body_endoder.seq_layers.2.bias f4 [128]
0	0x3c94be38	0.01815711
1	0x3cefaa95	0.029256145
2	0x3c93270f	0.01796296
3	0x3d16e358	0.036837906
4	0x3d0c7100	0.034287453
5	0xb9136620	-0.00014057057
6	0x3cbb6c68	0.02287884
7	0x3c9f97ce	0.019481566
8	0x3bc08eaf	0.005876384
9	0x3bf7c567	0.007561374
10	0xbb95a661	-0.004566953
11	0x3c4dc673	0.012559521
12	0x3b8441b2	0.004036152
13	0x3cadad20	0.021200716
14	0x3d3d589e	0.04622709
15	0x3c97d736	0.018535238
16	0x3c4cb567	0.012494422
17	0x3b5f04a2	0.003402986
18	0xbcc5c463	-0.024141496
19	0x3c5b629d	0.01339021
20	0xbbf1f84b	-0.007384335
21	0x3c430f7d	0.011905548
22	0xbb2f62b5	-0.0026761715
23	0xbb02e78d	-0.001997444
24	0xbb235fba	-0.0024928884
25	0x3ce60843	0.028080111
26	0xbb89cf89	-0.0042056483
27	0x3ced281d	0.028949792
28	0x3cedecc6	0.029043566
29	0xbbc25fb8	-0.0059318207
30	0xbc44228e	-0.011971129
31	0x3c8fb263	0.017541116
32	0x3ae97d3b	0.0017813811
33	0x3b75c69b	0.0037502411
34	0x3d2c9b86	0.042140506
35	0x3d290ed8	0.04127392
36	0x3c7ad3e9	0.015309312
37	0x3cf8cba1	0.030370535
38	0x3cadbd57	0.021208448
39	0xbba87a50	-0.005141534
40	0x3ca46845	0.02006925
41	0x3ce12947	0.027485503
42	0x3bd35c09	0.0064501804
43	0x3ccb693d	0.024830455
44	0xbc484335	-0.012223055
45	0x3d349eb7	0.044096675
46	0x3d1eb7aa	0.038749374
47	0x3cea2a09	0.028584497
48	0x3ce09850	0.027416378
49	0x3c861d0a	0.016371269
50	0xbbb6265e	-0.005558773
51	0x3d1a3e48	0.037657052
52	0x3cc0092c	0.023441873
53	0x3c55776d	0.013028962
54	0xbc04f4cb	-0.008115004
55	0xbc81478c	-0.015781187
56	0x3d3214f2	0.043477006
57	0x3d2a98d4	0.041649655
58	0x3c802212	0.015641246
59	0x3b0fa6b2	0.0021919427
60	0x3d176917	0.036965456
61	0x3d39c831	0.045356933
62	0x3c2a4bee	0.01039408
63	0x3cae7340	0.02129519
64	0x3cbf019c	0.023316197
65	0x3ca9ab96	0.020711701
66	0xbc37299e	-0.011179356
67	0x3c943bc1	0.0180949
68	0x3d25c2fe	0.040469162
69	0x3d07a3e6	0.03311529
70	0x3cff6136	0.031174283
71	0x3ceba8ff	0.028767107
72	0x3d1c1571	0.038106386
73	0x3d04cedc	0.03242384
74	0x3d016780	0.031592846
75	0x3b7d136f	0.003861632
76	0xbb57da3a	-0.003293647
77	0x3ce35958	0.027752563
78	0x3cb4217e	0.021988627
79	0x3d3d57d1	0.046226326
80	0x397e65de	0.00024261276
81	0x3ae589c4	0.0017512371
82	0x3cf4efbd	0.029899472
83	0x3cdbf608	0.026850715
84	0x3cfc19a5	0.030773947
85	0x3cb4b7d3	0.02206031
86	0x3baa7cd3	0.0052028685
87	0x3cb459ec	0.022015534
88	0x3d1414d0	0.03615266
89	0x3aa0bca8	0.0012263255
90	0x3b8ceef6	0.0043009473
91	0x3c5ff4c8	0.0136692
92	0x3d304e05	0.043043155
93	0x3c8f5385	0.01749588
94	0x3c9b433d	0.01895296
95	0x3ce0d92d	0.027447307
96	0x3b87a460	0.004139468
97	0x3b27806b	0.002555872
98	0x3c858b59	0.016301798
99	0x3c0d6cf3	0.008631933
100	0xbba2ab88	-0.004964296
101	0x3cb5e01e	0.022201594
102	0xbbf738f1	-0.0075446297
103	0x3c6de5fa	0.014520163
104	0x3d0c33ea	0.034229197
105	0x3d13d064	0.03608741
106	0xbb5f904d	-0.003411311
107	0x3d4b9010	0.049697936
108	0x3d268a66	0.04065933
109	0x3c30d79b	0.010793592
110	0x3cdcda7c	0.02695965
111	0x3c9d5669	0.019206243
112	0x3d0de4d3	0.034642052
113	0x3c084d04	0.008319143
114	0x3cb760c6	0.022385012
115	0x3c7662f4	0.015038241
116	0x3d36c270	0.044619024
117	0x3c2c7db4	0.010528017
118	0x3cd8dd02	0.026472572
119	0x3ca757a6	0.020427536
120	0x3b96c05d	0.004600568
121	0x3ca94cca	0.020666499
122	0xbc871002	-0.016487125
123	0x3c91471a	0.0177341
124	0xbbc63127	-0.00604834
125	0xbb96a267	-0.0045969966
126	0x3c20071f	0.009767323
127	0x3c4c701a	0.012477899

action_model._discrete_distribution.branches.0.weight f4 [3, 128]
0	0xbc25c943	-0.010118785
1	0xbc38e48b	-0.011284958
2	0xbc85b2cb	-0.016320607
3	0x3ad30e74	0.001610233
4	0x3be1d3a1	0.006891683
5	0x3c8be14a	0.0170752
6	0xbc82cb8f	-0.015966205
7	0xbca8ca63	-0.020604318
8	0xbc0abe6e	-0.008468254
9	0x3a8eded4	0.0010900148
10	0xbb901079	-0.004396495
11	0xbd08160b	-0.033224147
12	0x3a2e58b8	0.00066507934
13	0xbc28192b	-0.010259907
14	0xbc96871e	-0.018374976
15	0xbc52a4a5	-0.012856637
16	0xbc43faa7	-0.011961616
17	0xba900a63	-0.0010989424
18	0x3c61aea3	0.013774547
19	0xbd0f258c	-0.034947917
20	0x3c90f4d0	0.01769486
21	0xba639c8a	-0.0008682689
22	0x3c6e9600	0.01456213
23	0xbb5d5ec8	-0.0033778418
24	0x3bdfb686	0.0068271784
25	0xbc89b1fd	-0.016808504
26	0x3c131974	0.0089782365
27	0x3c8aa6a9	0.016925173
28	0xbc631425	-0.013859783
29	0x3c9989f3	0.018742537
30	0x3b27f8a0	0.002563037
31	0x3a7cc09e	0.00096417393
32	0x3b3d701b	0.0028905931
33	0xb92a6836	-0.00016251285
34	0xbc71ddfe	-0.0147624
35	0xbc95cfc2	-0.018287543
36	0xbbadf668	-0.005308915
37	0xbc222f18	-0.009898923
38	0xbcc2b344	-0.023767121
39	0xbc93dea3	-0.018050497
40	0xbb5d45d2	-0.003376354
41	0xbcf93b49	-0.030423777
42	0xbccc15fd	-0.024912829
43	0xbce0e2a4	-0.02745182
44	0xbc546917	-0.0129645085
45	0xbc363edf	-0.011123388
46	0xbc40556d	-0.011739117
47	0x3c00e205	0.007866387
48	0xbc4384cb	-0.011933516
49	0xbd18713c	-0.037217364
50	0x3c2c6ba6	0.010523712
51	0xbca4ec4c	-0.020132206
52	0x3b744b0b	0.0037276174
53	0xbad5579d	-0.0016276721
54	0x3ced7ab0	0.028989166
55	0x3c95d2a3	0.018288916
56	0xbc4395f9	-0.011937612
57	0xbc47b84e	-0.012189938
58	0xbb726b37	-0.0036990175
59	0xbc92889a	-0.017887402
60	0xbc9ea984	-0.01936794
61	0x3beaa82f	0.0071611623
62	0xbc75218d	-0.014961612
63	0xba7153bc	-0.0009205898
64	0xbc831cb8	-0.016004905
65	0xbc7e89c8	-0.015535779
66	0x3d1565e0	0.03647411
67	0xbc14abaf	-0.009074136
68	0xbcb13855	-0.021633307
69	0xbc948522	-0.018129889
70	0xbcd67270	-0.026177615
71	0xbc9464be	-0.018114444
72	0xbcfcd3ee	-0.030862775
73	0xbd260b7e	-0.040538304
74	0xbc5ddf2a	-0.013541976
75	0xbb38524c	-0.0028125225
76	0x3c15fae4	0.009154055
77	0xbb2a801d	-0.0026016303
78	0x3b970d10	0.0046097115
79	0xbb11e627	-0.0022262426
80	0x3c6fa7dd	0.014627424
81	0x3c7ff274	0.01562177
82	0xbb853be6	-0.0040659783
83	0xbb7cb30f	-0.0038558876
84	0xbd26943e	-0.04066872
85	0xbc3f19de	-0.011663882
86	0x3c8f8923	0.017521447
87	0xbc089004	-0.008335117
88	0xbc61ddda	-0.013785804
89	0xbae20e74	-0.0017246739
90	0xbc1fc646	-0.009751862
91	0x3bdf99c9	0.0068237525
92	0xbcbd4be3	-0.023107475
93	0xbc6cfb0b	-0.01446415
94	0xbc2cfccb	-0.010558317
95	0xbcd9ae80	-0.026572466
96	0xbc6bfdc9	-0.014403769
97	0xbabaabe4	-0.0014241901
98	0xbb7ae881	-0.0038285556
99	0xbc2f6463	-0.010705086
100	0xba9f1d50	-0.0012139473
101	0xbc685ced	-0.0141823115
102	0x3ba41606	0.005007508
103	0xbbdca277	-0.0067332345
104	0xbcd8367c	-0.026393168
105	0xbc8d8279	-0.017274128
106	0xbc8fd26d	-0.017556394
107	0xbcbddfe2	-0.023178045
108	0xbc133079	-0.008983725
109	0x3c1825cd	0.009286356
110	0x3b8ed357	0.0043586898
111	0xbbfc7167	-0.0077039483
112	0xbd403d0a	-0.04693321
113	0xbd026347	-0.03183296
114	0xbb81bdbf	-0.003959387
115	0xbc2ac5b2	-0.010423111
116	0xbd140123	-0.036133897
117	0xbc1ed0e7	-0.009693361
118	0x3b07a2f0	0.0020696484
119	0xbb1e7086	-0.0024175956
120	0xbc242b64	-0.010020111
121	0xbcdba28a	-0.026810903
122	0x3c8ab9be	0.016934272
123	0xbab1d660	-0.0013567917
124	0x3c4911d5	0.012272318
125	0xbc157118	-0.009121202
126	0xbc2d5281	-0.0105787525
127	0x3ba521c8	0.0050394274
128	0x3cc06fdd	0.02349084
129	0x3d156b12	0.036479063
130	0x3d03b9e0	0.032159686
131	0x3d850374	0.06494799
132	0x3cbd3813	0.023098027
133	0xbcf18177	-0.029480679
134	0x3d175e97	0.036955442
135	0x3d19e500	0.037571907
136	0xbd10a5aa	-0.03531424
137	0xbd0e6791	-0.034766737
138	0xbbed462c	-0.007241031
139	0xbd07b134	-0.03312798
140	0xbd3bfa58	-0.045893043
141	0xbd7ed713	-0.06221683
142	0x3d6fd9a7	0.05855718
143	0xbd860c40	-0.06545305
144	0xbceca9ae	-0.028889503
145	0x3cbaa6fe	0.022784706
146	0xbc727ef0	-0.014800772
147	0x3a97c40a	0.001157881
148	0xbca6a92c	-0.02034434
149	0xbd604342	-0.054751642
150	0xbc5c574e	-0.013448549
151	0xbaffdb0b	-0.0019520236
152	0xbd650f09	-0.05592254
153	0x3cb555f3	0.02213571
154	0xbc8908c2	-0.016727809
155	0x3d5bf535	0.053700645
156	0x3d09a15c	0.03360115
157	0xbd257b7a	-0.04040096
158	0xbc805494	-0.01566533
159	0xbd93d7c8	-0.072188914
160	0x3aa310c3	0.0012440908
161	0xbd082f86	-0.033248447
162	0x3d5c5d6e	0.05380004
163	0x3d97cefc	0.07412526
164	0xbd734535	-0.059392173
165	0x3d5b1dbe	0.05349516
166	0xbd8b0cf9	-0.06789584
167	0xbc8ec070	-0.017425746
168	0x3d12c8f9	0.035836194
169	0x3d32676e	0.04355567
170	0xb9b808c9	-0.0003510176
171	0x3cf6586f	0.030071465
172	0xbceb2c7f	-0.02870774
173	0x3d79922c	0.060930416
174	0xbdab73c1	-0.08371688
175	0x3d617c1e	0.055050008
176	0xbd8e6120	-0.06952119
177	0x3aca3c3c	0.0015429328
178	0xbb64b3ca	-0.0034897202
179	0x3d4cd138	0.050004214
180	0xbd89eb69	-0.06734354
181	0xbd119f7d	-0.03555249
182	0xbc349933	-0.011022854
183	0xbc4ae966	-0.012384748
184	0x3d2b82a5	0.04187264
185	0x3d55b3d1	0.05217344
186	0xbd80a9d3	-0.062823914
187	0xbb7c30b9	-0.003848119
188	0x3d223f07	0.03961089
189	0x3d5dc89c	0.054146394
190	0xbc551472	-0.013005363
191	0x3c8869db	0.016652038
192	0x3c30ae56	0.010783752
193	0x3c927068	0.017875865
194	0xbd1b9134	-0.037980273
195	0xbd8d75a7	-0.06907206
196	0x3d57cd03	0.05268575
197	0x3d404326	0.046939038
198	0x3d23aaac	0.039957687
199	0x3d078740	0.03308797
200	0x3d7de88f	0.061989363
201	0x3cc2fc20	0.023801863
202	0x3cd8929f	0.026437102
203	0x39c2103f	0.00037014668
204	0xbcf04478	-0.029329523
205	0x3d13c034	0.03607197
206	0xbd573dbf	-0.05254912
207	0x3d6681a2	0.05627597
208	0xbc4f583e	-0.012655316
209	0xbd66bb6d	-0.056331087
210	0x3ca45d38	0.020063981
211	0x3d1cee92	0.038313456
212	0x3d71a0eb	0.058991354
213	0x3ccc69d4	0.024952807
214	0xbd4174f3	-0.047230672
215	0xbd18b0c6	-0.03727796
216	0x3d187213	0.037218165
217	0x3b447c00	0.0029981136
218	0xbab1088e	-0.0013506578
219	0x3c8f97ca	0.017528433
220	0x3d5f7095	0.054550726
221	0xbd4cdb7b	-0.050014
222	0x3d387da9	0.045041714
223	0x3c7de1bc	0.015495714
224	0xbc96da27	-0.01841457
225	0xbd68bd11	-0.056820933
226	0xbd80b03f	-0.06283616
227	0xba294a04	-0.00064578676
228	0xbcca9a52	-0.024731789
229	0x3d21ada0	0.039472222
230	0xbbeb70b4	-0.007185066
231	0xbd2b22f2	-0.041781373
232	0x3d5084df	0.050907966
233	0x3d5bac92	0.053631373
234	0xbcc1b7b3	-0.023647165
235	0x3d83a423	0.06427791
236	0x3d38d53d	0.045125235
237	0xbd648094	-0.055786684
238	0x3cb9dc10	0.022687942
239	0xbd0c9a74	-0.034326985
240	0x3d8e13a1	0.06937338
241	0xbc686dad	-0.014186305
242	0x3d0904d3	0.033451866
243	0xbd8e3cc5	-0.069451846
244	0x3d72f994	0.059320047
245	0x3a18924f	0.00058201415
246	0xbd796481	-0.060886864
247	0xbd817ba9	-0.063224144
248	0xbbe09404	-0.0068535823
249	0x3b5c428b	0.0033608999
250	0xbbed25f3	-0.00723719
251	0xbd54232b	-0.05179135
252	0xbb9886e9	-0.0046547544
253	0xbc09fec8	-0.008422561
254	0xbd3f727d	-0.046740044
255	0xbd132f8e	-0.035934024

action_model._discrete_distribution.branches.0.bias f4 [3]
0	0xbc82064b	-0.015872141
1	0x3c6441fa	0.013931746
2	0x3a660834	0.0008775026

exp_avg f4 [128, 10]
0	0x3a65d66d	0.00087676087
1	0x3a6665ee	0.00087889924
2	0xb3105c98	-3.3611826e-08
3	0x3195b92e	4.3575232e-09
4	0x3a879033	0.0010342657
5	0x3a5d82e7	0.0008449987
6	0x3a59fc65	0.0008315503
7	0xb2fc4754	-2.9369097e-08
8	0x31ffab80	7.440974e-09
9	0x3aaec5fa	0.0013334148
10	0x39ef5689	0.00045650106
11	0x39efef9f	0.00045764164
12	0x338c1652	6.523318e-08
13	0xb280a534	-1.4976287e-08
14	0x398f3951	0.0002731779
15	0x39ee9f61	0.00045513644
16	0x39ead1d7	0.000447883
17	0x3376b574	5.744137e-08
18	0xb2a0bc72	-1.8712146e-08
19	0xb9ef54bd	-0.00045648767
20	0xb8ee38ca	-0.00011359302
21	0xb8eecb8e	-0.000113866394
22	0x326de72f	1.3847781e-08
23	0xafc1416c	-3.515298e-10
24	0xb911aaa4	-0.00013891846
25	0xb8e7677c	-0.00011034214
26	0xb8e3bbd9	-0.00010859193
27	0x32368baf	1.0625555e-08
28	0x2f9e0024	2.8740132e-10
29	0xb926df1d	-0.0001591411
30	0x38319b6e	4.2344844e-05
31	0x383243c8	4.2501633e-05
32	0x31256d83	2.407291e-09
33	0x2f21d678	1.4719059e-10
34	0x388decc8	6.767508e-05
35	0x3831222d	4.2231917e-05
36	0x382e7778	4.1596097e-05
37	0x31b47c8b	5.2528484e-09
38	0x302ce11d	6.289314e-10
39	0x38e17b94	0.00010751854
40	0x39d9b3d7	0.00041523456
41	0x39da4c65	0.0004163712
42	0xb1a8cdd8	-4.9128452e-09
43	0xb0d78540	-1.5681181e-09
44	0x39c5ed13	0.00037751402
45	0x39d7eaac	0.0004118284
46	0x39d488d4	0.00040537736
47	0x3097f3f5	1.1056033e-09
48	0xb0db614e	-1.5962003e-09
49	0x393ceeee	0.00018018085
50	0x398127b0	0.00024634367
51	0x398174b7	0.00024691757
52	0xb1fab7c4	-7.2968493e-09
53	0xb1c69f9d	-5.7807044e-09
54	0x3924829b	0.00015688913
55	0x3982bdb1	0.00024936863
56	0x3980a340	0.00024535693
57	0xb2a62f06	-1.9346327e-08
58	0xb1c6d69e	-5.7869576e-09
59	0xb94cab33	-0.00019518733
60	0x3adffe58	0.001708935
61	0x3ae0aaec	0.0017140782
62	0xb3d33db9	-9.8366804e-08
63	0x3272bcb2	1.4129158e-08
64	0x3b099ca2	0.0020997901
65	0x3ada71c7	0.0016665988
66	0x3ad71608	0.0016409764
67	0xb251c46b	-1.2210061e-08
68	0x329b50f5	1.808119e-08
69	0x3b4ae815	0.0030961086
70	0x395c6ee1	0.0002102214
71	0x395d2fe9	0.0002109405
72	0xb313c4db	-3.4405144e-08
73	0xb008193a	-4.951236e-10
74	0x39a57b4c	0.00031563116
75	0x39461670	0.0001889111
76	0x39432cf3	0.00018613394
77	0xb1231a61	-2.3734616e-09
78	0x304a63a8	7.362879e-10
79	0x3a2ad837	0.0006517204
80	0x3928f6f8	0.00016113732
81	0x3929aefc	0.00016182283
82	0xb349affe	-4.6959023e-08
83	0x2e534493	4.803675e-11
84	0x39851958	0.0002538662
85	0x391e6e45	0.00015109133
86	0x391c3480	0.00014896877
87	0xb1e68d69	-6.7099575e-09
88	0x305eb265	8.1016643e-10
89	0x3a03700a	0.00050139485
90	0x393a2275	0.00017751179
91	0x393aa0f8	0.00017798308
92	0x3182a77d	3.802539e-09
93	0xb220f28b	-9.368374e-09
94	0x38ef98aa	0.00011424844
95	0x39405dd5	0.00018345502
96	0x393d4bca	0.00018052678
97	0x31fca002	7.352356e-09
98	0xb23aafe3	-1.0866617e-08
99	0xb979b7e6	-0.00023814998
100	0x39780d8b	0.00023656168
101	0x3978efbc	0.00023740431
102	0xb3222399	-3.775094e-08
103	0x3192c71b	4.271795e-09
104	0x3994bce3	0.0002836949
105	0x397014ef	0.00022895982
106	0x396c8b5f	0.00022558634
107	0xb1b4b44a	-5.259186e-09
108	0x31c05aa5	5.5982405e-09
109	0x39cb7e92	0.0003881348
110	0xb80dab60	-3.3776625e-05
111	0xb80e5aa1	-3.3939843e-05
112	0x322a362e	9.907621e-09
113	0xb0583a17	-7.8662893e-10
114	0xb863e7fd	-5.4337073e-05
115	0xb80d89a8	-3.3745222e-05
116	0xb80b952a	-3.3279102e-05
117	0x31aa5735	4.9575655e-09
118	0xb04360ef	-7.107834e-10
119	0xb8a30722	-7.773774e-05
120	0x3a2a4c23	0.00064963306
121	0x3a2adc8d	0.000651785
122	0xb39799f6	-7.059491e-08
123	0xb027df64	-6.1071703e-10
124	0x3a5cc223	0.00084212626
125	0x3a24d108	0.00062872516
126	0x3a2254be	0.0006192437
127	0xb1640516	-3.3181258e-09
128	0x30a14582	1.1734047e-09
129	0x3aa08ee3	0.0012249615
130	0x3a8de431	0.0010825453
131	0x3a8e40f6	0.00108531
132	0xb38570b1	-6.2137936e-08
133	0x32742443	1.4210914e-08
134	0x3aaf5910	0.0013377983
135	0x3a8a010c	0.0010528876
136	0x3a87d2b5	0.0010362478
137	0xb37e5fdf	-5.9226178e-08
138	0x329db6bb	1.8360302e-08
139	0x3b07f8ab	0.0020747583
140	0x39cc185b	0.00038928058
141	0x39ccaa07	0.00039036592
142	0xb28f91a9	-1.671363e-08
143	0x3135ef9b	2.6475167e-09
144	0x39fd5ffa	0.00048327429
145	0x39c583f1	0.00037673072
146	0x39c2703d	0.00037086188
147	0xb24acc19	-1.1804354e-08
148	0x31a48875	4.7885416e-09
149	0x3a4625cc	0.0007558733
150	0x39eef301	0.0004557595
151	0x39efcef0	0.00045739813
152	0xb3993c69	-7.135606e-08
153	0x3120515a	2.3329307e-09
154	0x3a1d1af8	0.00059930934
155	0x39e4f6d5	0.00043671453
156	0x39e197e6	0.00043028517
157	0xb28233f3	-1.5157616e-08
158	0x314d24eb	2.9852412e-09
159	0x3a83000d	0.0009994522
160	0x381ebb18	3.784438e-05
161	0x381ecd95	3.78616e-05
162	0x31ef0541	6.956413e-09
163	0xb11a0138	-2.2410642e-09
164	0x36c190c4	5.768701e-06
165	0x38233fab	3.8921524e-05
166	0x38205a56	3.8231105e-05
167	0xb1986fa2	-4.4364734e-09
168	0xb1044528	-1.9247839e-09
169	0xb8f2e295	-0.000115816634
170	0x3a80a3d1	0.0009814446
171	0x3a810641	0.0009843783
172	0xb38c6e1e	-6.539288e-08
173	0x328b0e02	1.61881e-08
174	0x3a998f85	0.0011715746
175	0x3a793496	0.0009506432
176	0x3a7561bf	0.00093605736
177	0xb29b3d71	-1.8072315e-08
178	0x329f6e02	1.8560062e-08
179	0x3af1ad5e	0.0018438508
180	0xb7470025	-1.1861358e-05
181	0xb747bedb	-1.1905761e-05
182	0x30b6a310	1.3288588e-09
183	0x2f810c56	2.3473729e-10
184	0xb7819195	-1.544579e-05
185	0xb745f8ec	-1.1800072e-05
186	0xb7430cef	-1.1625917e-05
187	0x30825d48	9.485257e-10
188	0x300c204f	5.0977617e-10
189	0xb7211095	-9.600209e-06
190	0x389d189a	7.490926e-05
191	0x389d4e8d	7.5009746e-05
192	0x30e64936	1.675551e-09
193	0xb0b61932	-1.3249404e-09
194	0x382aa448	4.0684157e-05
195	0x38a3683c	7.791861e-05
196	0x38a0a077	7.6592834e-05
197	0xb1eddd0a	-6.922737e-09
198	0xb0fb657c	-1.8291497e-09
199	0xb82224fa	-3.8658247e-05
200	0xb9f2b326	-0.00046291313
201	0xb9f35958	-0.00046415138
202	0x3319d799	3.5819173e-08
203	0xb1bf24d6	-5.5630194e-09
204	0xba225ec3	-0.000619393
205	0xb9e63a44	-0.0004391243
206	0xb9e2a1e2	-0.0004322669
207	0x32e4d1c9	2.6638093e-08
208	0xb2222b4e	-9.439487e-09
209	0xba851a83	-0.0010154996
210	0x3a9e3315	0.0012069667
211	0x3a9e995c	0.0012100148
212	0xb3a47ef4	-7.659938e-08
213	0x32a7a078	1.9514331e-08
214	0x3ac564e6	0.0015059977
215	0x3a996661	0.0011703485
216	0x3a96f930	0.0011518355
217	0xb39f73ca	-7.4250764e-08
218	0x32d8c8f4	2.5237092e-08
219	0x3b1a4bb8	0.0023543667
220	0x3aa1e609	0.0012351881
221	0x3aa25bcc	0.0012386977
222	0xb3aebfc1	-8.137386e-08
223	0x32d17025	2.43818e-08
224	0x3ac59e12	0.0015077016
225	0x3a9b8160	0.0011864118
226	0x3a9919b3	0.0011680633
227	0xb318f769	-3.5615276e-08
228	0x32ebbff2	2.7444887e-08
229	0x3b1a820e	0.0023576054
230	0xb91ee690	-0.00015153945
231	0xb91f917a	-0.00015217616
232	0x32a4d626	1.9189496e-08
233	0xb23df397	-1.1056634e-08
234	0xb99495cc	-0.00028340367
235	0xb9103e02	-0.0001375601
236	0xb90e3afe	-0.00013564152
237	0xb244fd4d	-1.14662955e-08
238	0xb2518cdb	-1.2197428e-08
239	0xba4c05ae	-0.0007782829
240	0x389b83a5	7.415497e-05
241	0x389b569e	7.40711e-05
242	0x332a36ac	3.9630933e-08
243	0x31d51e8a	6.2025878e-09
244	0xb612a64e	-2.1852497e-06
245	0x389393e9	7.037057e-05
246	0x3890d2aa	6.905694e-05
247	0x303b6a6b	6.818143e-10
248	0x31d351b3	6.1501964e-09
249	0x387bca16	6.003127e-05
250	0x3a1bcabe	0.00059429917
251	0x3a1c3d1b	0.0005960033
252	0xb2d142d3	-2.436119e-08
253	0x321f9c98	9.290623e-09
254	0x3a2e2402	0.0006642939
255	0x3a177c6f	0.0005778735

exp_avg_sq f4 [128, 10]
0	0x36054e57	1.9864144e-06
1	0x36047550	1.9737818e-06
2	0x331ca313	3.6469896e-08
3	0x3372f9ff	5.6572386e-08
4	0x3603e4c1	1.9653673e-06
5	0x3601a04d	1.9315805e-06
6	0x35f98008	1.8589208e-06
7	0x33145a9c	3.4541344e-08
8	0x336b69d1	5.481144e-08
9	0x360a7fab	2.0637915e-06
10	0x3669ae0d	3.4821016e-06
11	0x366c5ef4	3.522201e-06
12	0x33e5a18f	1.0693031e-07
13	0x34a93f45	3.1524738e-07
14	0x3667d397	3.4544844e-06
15	0x3663c727	3.3941558e-06
16	0x3661ae17	3.3628946e-06
17	0x33ca5806	9.4223694e-08
18	0x34ac6909	3.211392e-07
19	0x36615ef3	3.358288e-06
20	0x3326130a	3.8667203e-08
21	0x33253c77	3.847205e-08
22	0x31d4968c	6.1871273e-09
23	0x321c2a54	9.090019e-09
24	0x33237418	3.805698e-08
25	0x33213b47	3.7539646e-08
26	0x3320e8e6	3.7464723e-08
27	0x31ee6e56	6.9392554e-09
28	0x320f0cb1	8.326581e-09
29	0x3323a6df	3.8103163e-08
30	0x33e41dde	1.062251e-07
31	0x33e3bbb8	1.0604657e-07
32	0x314df3dd	2.9970046e-09
33	0x319133b4	4.2259334e-09
34	0x33dcaa63	1.02755415e-07
35	0x33ddb548	1.0324089e-07
36	0x33d69994	9.993087e-08
37	0x314c86f3	2.9762617e-09
38	0x318dbe9e	4.1253108e-09
39	0x33dd137d	1.0294659e-07
40	0x33c17f69	9.0104386e-08
41	0x33b9b36e	8.647372e-08
42	0x31f58bcf	7.146333e-09
43	0x324584af	1.1497078e-08
44	0x33afe022	8.189842e-08
45	0x33bd654b	8.8194234e-08
46	0x33b0439d	8.2079374e-08
47	0x31ebb961	6.8604753e-09
48	0x32456f92	1.1492277e-08
49	0x33a31fd5	7.596069e-08
50	0x354469e5	7.3169787e-07
51	0x35498b34	7.50809e-07
52	0x32b7fd8a	2.14193e-08
53	0x32d108da	2.4334827e-08
54	0x3539d21f	6.9223637e-07
55	0x353f2f15	7.122156e-07
56	0x353e8dec	7.098704e-07
57	0x32b7397b	2.1330143e-08
58	0x32c90d3e	2.3405502e-08
59	0x353b6e2a	6.982324e-07
60	0x37964d58	1.791741e-05
61	0x37977e43	1.8059398e-05
62	0x34846d5c	2.4666485e-07
63	0x34f73c26	4.60511e-07
64	0x37944017	1.7672819e-05
65	0x3792ab76	1.7484399e-05
66	0x378f228c	1.7063016e-05
67	0x346a8395	2.1840818e-07
68	0x34f3c132	4.5402845e-07
69	0x3798ed7c	1.82304e-05
70	0x35e57bb1	1.7097829e-06
71	0x35e6436c	1.7155958e-06
72	0x33618fb3	5.251759e-08
73	0x33ab44a1	7.9752915e-08
74	0x35df205d	1.6624214e-06
75	0x35df2c16	1.6627625e-06
76	0x35d8b97f	1.614724e-06
77	0x33688217	5.4135025e-08
78	0x33a8bf70	7.857932e-08
79	0x35e4450d	1.700742e-06
80	0x356bdb3c	8.786335e-07
81	0x356c8365	8.8108055e-07
82	0x332ae6db	3.979117e-08
83	0x33a18776	7.521787e-08
84	0x356bc4ef	8.78309e-07
85	0x35640f9e	8.4959345e-07
86	0x35610032	8.3819316e-07
87	0x3326f9d7	3.8877115e-08
88	0x339a9829	7.1988616e-08
89	0x356c4bd5	8.80272e-07
90	0x3589f827	1.0279517e-06
91	0x358b7d40	1.039276e-06
92	0x333dd554	4.4199012e-08
93	0x33761ede	5.7304412e-08
94	0x3585dafb	9.973004e-07
95	0x35874241	1.0077566e-06
96	0x35845f1c	9.862447e-07
97	0x332d5b4c	4.0362735e-08
98	0x337d8f42	5.9036445e-08
99	0x35861e33	9.992567e-07
100	0x34f5d3e6	4.5788983e-07
101	0x34fc51f9	4.69983e-07
102	0x3313ca52	3.4410114e-08
103	0x33955789	6.954276e-08
104	0x34f99a68	4.649221e-07
105	0x34f130da	4.4925292e-07
106	0x34f65321	4.5881555e-07
107	0x330c1112	3.2611815e-08
108	0x338e2df8	6.620752e-08
109	0x34f95f0b	4.6449017e-07
110	0x32d69896	2.4982267e-08
111	0x32c47445	2.2870276e-08
112	0x31a27b80	4.728861e-09
113	0x32381d35	1.07168505e-08
114	0x32c48671	2.287854e-08
115	0x32ca4010	2.3545027e-08
116	0x32c7485a	2.319955e-08
117	0x31a34502	4.7517696e-09
118	0x322e6ed2	1.0153331e-08
119	0x32c02acf	2.2371209e-08
120	0x3638e4c7	2.7551303e-06
121	0x36384816	2.7460096e-06
122	0x33bc6ad6	8.7738655e-08
123	0x341ed12f	1.4790997e-07
124	0x3637a28f	2.7363747e-06
125	0x3633a3c0	2.6768394e-06
126	0x362e7585	2.5996426e-06
127	0x33aa21a7	7.922363e-08
128	0x34162082	1.3981665e-07
129	0x363ba3c5	2.7960498e-06
130	0x3709f69c	8.223255e-06
131	0x370a5fea	8.247773e-06
132	0x33d2f74d	9.823871e-08
133	0x341f5de1	1.4842182e-07
134	0x3708913c	8.140047e-06
135	0x3706a9b3	8.026534e-06
136	0x37026936	7.7731e-06
137	0x33b9b075	8.646831e-08
138	0x341df546	1.4710994e-07
139	0x370c242e	8.353074e-06
140	0x35ce7d82	1.5384724e-06
141	0x35cfefff	1.549255e-06
142	0x320d47cb	8.223604e-09
143	0x32433acb	1.1363862e-08
144	0x35c8d361	1.496268e-06
145	0x35c980fb	1.5013205e-06
146	0x35c344a6	1.4548611e-06
147	0x31f342b6	7.079815e-09
148	0x3247eeba	1.1637605e-08
149	0x35cd2477	1.5284303e-06
150	0x3647a542	2.9749503e-06
151	0x364956a7	3.0001772e-06
152	0x33ba9d7a	8.689945e-08
153	0x34360d5d	1.6954932e-07
154	0x3645c8aa	2.947209e-06
155	0x36426e8e	2.8972604e-06
156	0x363f2bb9	2.8486668e-06
157	0x33afcac4	8.1859554e-08
158	0x342e137e	1.6212104e-07
159	0x3648b8b0	2.9909825e-06
160	0x346915cd	2.1707747e-07
161	0x3458ddc0	2.019724e-07
162	0x3391b730	6.78541e-08
163	0x339be735	7.259806e-08
164	0x3473805a	2.2677833e-07
165	0x3454d67f	1.9822072e-07
166	0x3455c3ff	1.9908474e-07
167	0x338ea8d3	6.643099e-08
168	0x3396f0fc	7.028754e-08
169	0x3465d536	2.1404853e-07
170	0x3718ccae	9.107562e-06
171	0x371b23bf	9.247043e-06
172	0x345f511b	2.0798e-07
173	0x34b64c4b	3.3955652e-07
174	0x37163f34	8.955412e-06
175	0x37151e66	8.88817e-06
176	0x37130b83	8.764563e-06
177	0x344b08eb	1.8909093e-07
178	0x34b49b32	3.3640532e-07
179	0x371911b5	9.123633e-06
180	0x32056011	7.763462e-09
181	0x32177819	8.816664e-09
182	0x31cde69a	5.9925016e-09
183	0x31c19c16	5.634784e-09
184	0x3201ae52	7.548424e-09
185	0x31fd5daa	7.3739175e-09
186	0x321ab8b6	9.005978e-09
187	0x31ca3b2d	5.8857013e-09
188	0x31c3a797	5.6942997e-09
189	0x31fa470f	7.284036e-09
190	0x33934ee7	6.859573e-08
191	0x339392ac	6.8719004e-08
192	0x3254d850	1.2389208e-08
193	0x32492083	1.1707132e-08
194	0x3392b7bf	6.832078e-08
195	0x338e66e4	6.631106e-08
196	0x338e96d9	6.639829e-08
197	0x3259078c	1.2632778e-08
198	0x324c84a3	1.1904521e-08
199	0x338f9e2f	6.68773e-08
200	0x3650df08	3.1124237e-06
201	0x3650e5ee	3.1128252e-06
202	0x33d797c4	1.0039324e-07
203	0x340c9223	1.309168e-07
204	0x364e9ea1	3.0788726e-06
205	0x364bc94d	3.036653e-06
206	0x36452f7c	2.9382927e-06
207	0x33cb6395	9.471038e-08
208	0x340df601	1.3221144e-07
209	0x36530583	3.1444658e-06
210	0x3745bad6	1.1785616e-05
211	0x37468e14	1.18348e-05
212	0x345b6bad	2.0435137e-07
213	0x34a89670	3.1401896e-07
214	0x3743fbca	1.168153e-05
215	0x3740e486	1.1497299e-05
216	0x373b6a3f	1.1170806e-05
217	0x34405635	1.7912755e-07
218	0x34a923d1	3.1504763e-07
219	0x37489fb1	1.195811e-05
220	0x37599a4b	1.2970132e-05
221	0x375b50b5	1.3072208e-05
222	0x34967219	2.8022694e-07
223	0x351418ee	5.5170574e-07
224	0x37550fb2	1.2699444e-05
225	0x37547d8f	1.2665419e-05
226	0x37502bf2	1.2407998e-05
227	0x3483804e	2.4494005e-07
228	0x3513296b	5.482204e-07
229	0x375b1886	1.3059127e-05
230	0x36473fc3	2.9690425e-06
231	0x364786a0	2.9731673e-06
232	0x33b0e7ce	8.237804e-08
233	0x340f33d9	1.3336775e-07
234	0x3641a096	2.8852714e-06
235	0x3641c5b4	2.887432e-06
236	0x363ccc9f	2.8133288e-06
237	0x33a39180	7.616745e-08
238	0x341100d8	1.3504484e-07
239	0x36440192	2.920719e-06
240	0x350687f7	5.0116745e-07
241	0x34d14159	3.897683e-07
242	0x33b4a45d	8.411801e-08
243	0x3426a83f	1.5521162e-07
244	0x34d9963c	4.052871e-07
245	0x34f6aa53	4.5944998e-07
246	0x34d013b8	3.8757366e-07
247	0x33b6ecd6	8.5181156e-08
248	0x3418cbf5	1.4230302e-07
249	0x34c344ad	3.637155e-07
250	0x3615b1f7	2.230632e-06
251	0x361793df	2.2586826e-06
252	0x337f9913	5.9511034e-08
253	0x33b1fc23	8.288068e-08
254	0x3612a924	2.1854148e-06
255	0x36123423	2.1786043e-06

exp_avg f4 [128]
0	0xba18f01a	-0.0005834118
1	0xb9beaf5a	-0.0003637027
2	0x38ad83c4	8.273826e-05
3	0xb8051e1c	-3.1737713e-05
4	0xb9918c2b	-0.00027760988
5	0xb92d7a59	-0.00016544144
6	0xba9b8abb	-0.0011866906
7	0xb8b1d3f6	-8.4794985e-05
8	0xb858c09a	-5.1677787e-05
9	0xb9031ab7	-0.00012503086
10	0xb944c582	-0.00018765594
11	0xb7840972	-1.5740025e-05
12	0xb9d6f28a	-0.00040997966
13	0xba4c32a6	-0.00077895296
14	0xb98ca415	-0.00026825131
15	0xb98903ea	-0.00026133592
16	0xb8ccd7e3	-9.76769e-05
17	0xba2d1f7c	-0.0006604118
18	0x3762e00c	1.3522815e-05
19	0xb828e969	-4.02717e-05
20	0x3992e898	0.00028020586
21	0xba653def	-0.00087448856
22	0xba5dbba6	-0.0008458443
23	0x386cc388	5.6448887e-05
24	0xb885bb9a	-6.376878e-05
25	0xb9cd2747	-0.0003912991
26	0xb91a10eb	-0.00014692887
27	0xb7895ff3	-1.6376353e-05
28	0xb9b4e6d0	-0.00034504244
29	0xb80193c1	-3.0893603e-05
30	0xb82dd99f	-4.144909e-05
31	0xb6a03eae	-4.7756685e-06
32	0x39dcb474	0.00042096118
33	0xb9b48d21	-0.00034437425
34	0xba391f93	-0.0007061895
35	0xb94cd74f	-0.00019535165
36	0x380e0b86	3.386617e-05
37	0xb49779b3	-2.821449e-07
38	0x391f4324	0.00015188433
39	0x38b9706d	8.842428e-05
40	0xb93ce735	-0.00018015208
41	0x367338bd	3.6242848e-06
42	0x37d81411	2.575855e-05
43	0xba2f19d8	-0.0006679571
44	0xb7b06fcd	-2.1032896e-05
45	0xb9156a07	-0.00014249246
46	0x37e9c43b	2.7867141e-05
47	0x3785f728	1.5969927e-05
48	0x3962f3f6	0.00021643922
49	0xb8058417	-3.183269e-05
50	0x35c10ffd	1.4384274e-06
51	0xb942b991	-0.0001857041
52	0xb4067d9c	-1.2525419e-07
53	0xb90234bc	-0.00012417411
54	0x36783b55	3.6989416e-06
55	0xb914df6a	-0.00014197608
56	0x35857e19	9.945971e-07
57	0x39307a2c	0.0001683018
58	0xb7f57616	-2.9261264e-05
59	0xba0cfbc1	-0.00053780904
60	0x398463ae	0.0002525127
61	0x38504782	4.965766e-05
62	0x398100b7	0.0002460533
63	0xb8f1c182	-0.00011527819
64	0xb8b03b7c	-8.403414e-05
65	0xb70980f8	-8.195864e-06
66	0xb9dd1812	-0.0004217034
67	0xb9dcba0e	-0.00042100291
68	0xb637a50f	-2.7365202e-06
69	0xb8ee29e5	-0.00011356528
70	0x36fdb50d	7.5610646e-06
71	0xb8a19f5a	-7.70676e-05
72	0x3801e17d	3.0966e-05
73	0xba515051	-0.00079846854
74	0x371992b9	9.153672e-06
75	0xb985a9fc	-0.00025494385
76	0x39d1e5d5	0.00040034825
77	0x37cd5ef6	2.4482124e-05
78	0x392f1384	0.0001669657
79	0xb7b9f914	-2.2169705e-05
80	0xb9211986	-0.00015363665
81	0xb9471a67	-0.00018987955
82	0x38be055f	9.0609065e-05
83	0x384dae78	4.9038295e-05
84	0xba39ea50	-0.0007092105
85	0xb8436ab6	-4.6591005e-05
86	0xb89000ba	-6.8665904e-05
87	0xb8e0d96a	-0.00010721649
88	0x38918bbd	6.940167e-05
89	0x38bcd366	9.0039146e-05
90	0x388aa34e	6.610771e-05
91	0xb894c099	-7.093064e-05
92	0xb861eef4	-5.3866723e-05
93	0x3895b19b	7.137955e-05
94	0xb750bf23	-1.2442269e-05
95	0x38e5c03d	0.00010955378
96	0xb96da817	-0.000226647
97	0x39009687	0.00012263107
98	0xb9357aa5	-0.00017307194
99	0x378ea46c	1.7004284e-05
100	0x3952c36b	0.0002009996
101	0x37da6d27	2.6038453e-05
102	0xb7d27ed6	-2.5093013e-05
103	0x37e077b9	2.6758631e-05
104	0x37d0a3b6	2.4871766e-05
105	0x34a614ca	3.0935036e-07
106	0xb980a1bf	-0.00024534573
107	0x3984230b	0.0002520311
108	0xba1d9a8f	-0.0006012106
109	0x38c9552c	9.6002914e-05
110	0xb91ae377	-0.00014771322
111	0xb90c13c0	-0.00013358798
112	0x37f327d8	2.8986411e-05
113	0xb8c2c327	-9.286991e-05
114	0x39732f34	0.0002319187
115	0x373896a1	1.1002326e-05
116	0xb9684b64	-0.0002215333
117	0x3845cc86	4.7158937e-05
118	0x397a510f	0.00023872055
119	0xb98c3373	-0.00026741214
120	0x395a2903	0.00020805378
121	0xb8dadd31	-0.0001043625
122	0x3981f37b	0.00024786204
123	0xb7c7a62e	-2.3800032e-05
124	0xba87d62f	-0.0010363514
125	0x39dce6a8	0.00042133522
126	0x39062d2d	0.00012796065
127	0x39fd0e44	0.0004826655

exp_avg_sq f4 [128]
0	0x3575b73a	9.153624e-07
1	0x35e303ac	1.6913887e-06
2	0x32d2a052	2.4520123e-08
3	0x3345ef49	4.6085265e-08
4	0x333277ee	4.155293e-08
5	0x34aecdcf	3.255977e-07
6	0x3708175a	8.111669e-06
7	0x35518c46	7.806269e-07
8	0x34e7c693	4.3171585e-07
9	0x34f0cbac	4.4851674e-07
10	0x347aa1df	2.3341953e-07
11	0x328eaad4	1.660866e-08
12	0x35b05750	1.3138433e-06
13	0x3677555e	3.6855558e-06
14	0x352fdaca	6.551096e-07
15	0x35b81fcd	1.3718324e-06
16	0x34154550	1.3901922e-07
17	0x3685e0fc	3.9899005e-06
18	0x31cafaee	5.907501e-09
19	0x3328b241	3.927767e-08
20	0x35be429b	1.4175488e-06
21	0x36b0a49b	5.2643713e-06
22	0x36c1da5d	5.777269e-06
23	0x35b1c19a	1.3243873e-06
24	0x347be6d2	2.3460169e-07
25	0x3581d423	9.672989e-07
26	0x33c53084	9.182352e-08
27	0x3386c00a	6.274793e-08
28	0x36214946	2.403352e-06
29	0x333a48d0	4.3372722e-08
30	0x33f0b4ed	1.1208781e-07
31	0x32acca16	2.0115333e-08
32	0x3718726e	9.086549e-06
33	0x361b50aa	2.3143753e-06
34	0x36805c04	3.8254093e-06
35	0x3551b87d	7.8127033e-07
36	0x31b28725	5.195846e-09
37	0x33b924a8	8.6214015e-08
38	0x3669338e	3.4749714e-06
39	0x3479c9ce	2.3263348e-07
40	0x3552dbba	7.855084e-07
41	0x3232e283	1.04124664e-08
42	0x33fc0f66	1.17374654e-07
43	0x369c0ab2	4.6504074e-06
44	0x36f898b2	7.408752e-06
45	0x3410bb0a	1.347909e-07
46	0x32a0f1eb	1.8736463e-08
47	0x31d58029	6.213686e-09
48	0x35f55a3b	1.8280183e-06
49	0x34d2f8d9	3.929661e-07
50	0x35ec33ed	1.7598483e-06
51	0x354c0c1b	7.601354e-07
52	0x32acfa44	2.0137243e-08
53	0x335a307c	5.0801177e-08
54	0x32bb919b	2.1835879e-08
55	0x36a678c5	4.961245e-06
56	0x31265b26	2.4207991e-09
57	0x35279483	6.242846e-07
58	0x32f85bbe	2.891272e-08
59	0x3628e8de	2.5169497e-06
60	0x34e78080	4.31206e-07
61	0x3399db0a	7.164461e-08
62	0x352f1bea	6.52332e-07
63	0x361177f1	2.1676499e-06
64	0x3489bd11	2.5655802e-07
65	0x340f5ae0	1.3350973e-07
66	0x35c83df0	1.4919187e-06
67	0x35de4f16	1.6563306e-06
68	0x34b47252	3.3610792e-07
69	0x352bfbf4	6.4069104e-07
70	0x34fca2a5	4.7056997e-07
71	0x3426a9df	1.5521753e-07
72	0x32a45374	1.9130063e-08
73	0x36f2dfab	7.2382004e-06
74	0x360fcd84	2.1428286e-06
75	0x353a893e	6.9490113e-07
76	0x36ea798a	6.9878924e-06
77	0x33ea4376	1.0908745e-07
78	0x364e8c87	3.077819e-06
79	0x35bbcf3a	1.3992897e-06
80	0x35d8550c	1.6118006e-06
81	0x350b890b	5.198096e-07
82	0x35ef4f18	1.7829907e-06
83	0x335b54a5	5.1066895e-08
84	0x362072a9	2.39086e-06
85	0x34e27fab	4.218867e-07
86	0x33dd5066	1.0305739e-07
87	0x33805576	5.97601e-08
88	0x343c4864	1.75352e-07
89	0x344e2de2	1.9201937e-07
90	0x3382270c	6.060699e-08
91	0x3410f166	1.3498865e-07
92	0x363e5a5f	2.836481e-06
93	0x368c507a	4.181694e-06
94	0x3507061f	5.0300326e-07
95	0x34874f89	2.520358e-07
96	0x34da15e9	4.0621606e-07
97	0x36822b8d	3.879372e-06
98	0x343260eb	1.66128e-07
99	0x358bd483	1.0418156e-06
100	0x35d2912e	1.5688472e-06
101	0x32af7156	2.042422e-08
102	0x348dd815	2.6420517e-07
103	0x326d2374	1.3803277e-08
104	0x335a0229	5.0759045e-08
105	0x343587a1	1.690628e-07
106	0x350630ab	4.998971e-07
107	0x35ee9230	1.7774928e-06
108	0x36f27697	7.2259677e-06
109	0x34a8761c	3.1378374e-07
110	0x362510d8	2.459672e-06
111	0x3530357d	6.5642945e-07
112	0x324a19db	1.1763826e-08
113	0x3558ef3e	8.0814414e-07
114	0x36424244	2.8946824e-06
115	0x32a7cef5	1.9535472e-08
116	0x34b31f20	3.3363995e-07
117	0x32ba7de5	2.17105e-08
118	0x367fc325	3.811155e-06
119	0x33d9f959	1.0150206e-07
120	0x34af2c98	3.2628736e-07
121	0x344ac197	1.8883144e-07
122	0x3626a7a4	2.4833507e-06
123	0x32993c43	1.7838948e-08
124	0x375a1f0c	1.3001041e-05
125	0x36c9c659	6.0133575e-06
126	0x34029b03	1.2163586e-07
127	0x36aa438c	5.0742583e-06
