Assets/Result/SelfPlayEx-2/SelfPlayEx/SelfPlayEx-999932.pt (torch, 455607 bytes, 41 tensors)

network_body.observation_encoder.processors.0.normalizer.running_mean f4 [10]
000000 00 52 f1 b7 4e 12 08 38 aa 38 57 b8 3c 21 dc 37
       -2.8767623e-05 3.2441974e-05 -5.1312767e-05 2.624152e-05
000010 b2 61 d4 3d 00 00 00 32 00 d4 10 b2 e6 c0 8a b1
       0.103701964 7.450581e-09 -8.430106e-09 -4.0382586e-09
000020 00 a0 24 b2 2b ad d4 3d
       -9.582436e-09 0.10384592

network_body.observation_encoder.processors.0.normalizer.running_variance f4 [10]
000000 2a fb 6a 4b c8 03 7c 4b a1 dd a6 4b 69 94 8e 4c
       1.5399722e+07 1.651604e+07 2.1871426e+07 7.475284e+07
000010 59 26 24 4b 5e 97 6b 4b e8 05 7f 4b 55 b4 a7 4b
       1.0757721e+07 1.543971e+07 1.6713192e+07 2.1981354e+07
000020 dc 47 8f 4c 94 8d 24 4b
       7.512035e+07 1.0784148e+07

network_body.processors.0.normalizer.running_mean f4 [10]
000000 00 52 f1 b7 4e 12 08 38 aa 38 57 b8 3c 21 dc 37
       -2.8767623e-05 3.2441974e-05 -5.1312767e-05 2.624152e-05
000010 b2 61 d4 3d 00 00 00 32 00 d4 10 b2 e6 c0 8a b1
       0.103701964 7.450581e-09 -8.430106e-09 -4.0382586e-09
000020 00 a0 24 b2 2b ad d4 3d
       -9.582436e-09 0.10384592

network_body.processors.0.normalizer.running_variance f4 [10]
000000 2a fb 6a 4b c8 03 7c 4b a1 dd a6 4b 69 94 8e 4c
       1.5399722e+07 1.651604e+07 2.1871426e+07 7.475284e+07
000010 59 26 24 4b 5e 97 6b 4b e8 05 7f 4b 55 b4 a7 4b
       1.0757721e+07 1.543971e+07 1.6713192e+07 2.1981354e+07
000020 dc 47 8f 4c 94 8d 24 4b
       7.512035e+07 1.0784148e+07

network_body._body_endoder.seq_layers.0.weight f4 [128, 10]
000000 e6 a4 42 3e dd 7c b5 3d fd 90 e7 bd 3e 0b a9 be
       0.19008216 0.088617064 -0.11306951 -0.3301639
000010 ab 19 f9 3c da 75 00 3f fc 17 f2 bd 65 f5 9a 3e
       0.030407747 0.5017983 -0.11820981 0.30265346
000020 80 9c 87 bd 51 09 d8 3e dc 37 bc 3d 75 3f e1 be
       -0.06621647 0.42194608 0.09190342 -0.43993726
000030 46 78 c3 bd d6 10 4c 3e 5b 51 63 3e 6e 64 ab be
       -0.09544425 0.19928297 0.22199003 -0.3347506
000040 8b 7b b3 be 95 3f 0b bf 03 e8 37 be 4e 4f 23 be
       -0.35055193 -0.54393893 -0.17959599 -0.15948221
000050 6a 2f 56 3f b2 f0 5c 3d 5c 98 0a 3f c2 3a 0b be
       0.836661 0.053940482 0.5413873 -0.13596633
000060 91 2a 22 be 89 21 3a bc 3e d9 9b be f4 63 07 3e
       -0.1583655 -0.0113605345 -0.3043918 0.13221723
000070 08 ca d5 3e ea 3a 1c 3e 14 a0 5a 3d f5 37 08 3e
       0.417557 0.15256849 0.05337532 0.13302596
000080 2d 73 f4 bd 77 d6 62 3e 1b bb 37 be 27 13 af 3e
       -0.119360305 0.22152124 -0.17942469 0.341943
000090 7a fa fe 3e 67 18 7d be 63 6d 2d 3e 33 7d 1d be
       0.49800473 -0.2471634 0.16936259 -0.15379791
0000a0 4b 02 a3 be f3 fc 61 3c cb 6d c0 3e b1 93 29 3e
       -0.31837687 0.013793218 0.37583765 0.16560246
0000b0 b7 6b 07 bc ff 11 d5 3e 4b c5 2c be 2b ee b9 3e
       -0.008265427 0.41615292 -0.16872136 0.3631452
0000c0 1d d4 ec 3e 76 80 31 3e b1 c4 83 be d8 df 01 bf
       0.4625558 0.1733416 -0.25736 -0.50732183
0000d0 16 85 c5 3d 41 77 8a be 88 43 6b bc 32 4d 96 be
       0.09644525 -0.2704411 -0.014359362 -0.2935577
0000e0 8a 59 a3 be 66 1d 0d be fe d2 b6 bd 4d 85 2f be
       -0.3190425 -0.13780746 -0.08926962 -0.17140694
0000f0 a9 f6 cc 3e ab 22 56 be 01 4c f2 be 63 d3 b0 be
       0.40031937 -0.20911662 -0.4732361 -0.34536275
000100 9f 4d 0a bf 10 6d c5 3e b0 bb 29 3e ca 7e c9 3e
       -0.5402469 0.3855977 0.16575503 0.39354545
000110 0c 99 fb bd 43 f9 d0 3e 32 6f 0d 3f c6 ed 4d be
       -0.12285051 0.40815172 0.55247796 -0.20110235
000120 02 cc c3 3d 28 e8 b6 be 4e 4e 16 be d3 b7 e2 bc
       0.09560396 -0.35723996 -0.14678308 -0.027675545
000130 0f f9 b7 be 82 b2 14 3f 3e 45 32 3e a7 02 8c be
       -0.35932204 0.5808488 0.17409226 -0.27345774
000140 02 24 01 bf 8e 59 b0 be 8a f6 02 be 4d 3f fa be
       -0.5044557 -0.34443325 -0.1278936 -0.4887642
000150 f0 9c 17 3f fd e1 95 bd c7 31 fe be 5a 00 43 be
       0.5922384 -0.073184945 -0.49647352 -0.19043103
000160 25 f4 a7 3e dc 0d 5f 3e 37 ff 9b bc b8 a4 11 be
       0.32803455 0.2178263 -0.019042594 -0.14222991
000170 11 55 b5 be 60 37 40 bc 48 0f ff bd d5 97 52 be
       -0.35416463 -0.011731952 -0.124540865 -0.20565732
000180 d1 44 aa 3c c7 62 03 be 43 d9 0a 3e ca e5 8c bc
       0.020784767 -0.1283065 0.13559441 -0.017199416
000190 9f 92 ef 3c e0 41 26 3e e0 52 d0 bd a0 fb fd bd
       0.02924472 0.16236067 -0.10172057 -0.12401509
0001a0 d6 fa 44 bd d6 2c cf 3d c4 76 00 3e 0d 1c 34 bf
       -0.04809078 0.10115974 0.12545305 -0.703553
0001b0 4a 0d 6d be 3a 48 ad be 34 9b 08 3e 25 0f b3 bd
       -0.231496 -0.33844167 0.13340455 -0.08743123
0001c0 1c c9 9c 3a 3c 5a 8c bb c8 49 4d 3e fc a8 63 3e
       0.0011961791 -0.0042832177 0.20047677 0.22232431
0001d0 06 c9 73 be 15 03 ed 3d 25 bd 49 be 0c 15 e9 be
       -0.23807153 0.115728535 -0.19701059 -0.4552387
0001e0 1f 39 14 bf aa 8a 8b be 3f b8 ee bd 9c 00 0f 3e
       -0.5789966 -0.2725423 -0.11656236 0.13965076
0001f0 7a 25 ae 3e 88 4b 56 3e bf 3d ae be c5 ed 7a 3e
       0.34012967 0.2092725 -0.34031484 0.24504764
000200 21 09 46 3d fa 1b 10 3e 2c b3 2d be 4e 79 a8 be
       0.04834855 0.14073172 -0.1696288 -0.32905048
000210 74 23 de 3e a8 14 17 3c 89 0b 52 3e bc 5a 9a be
       0.43386424 0.009221233 0.20512213 -0.3014735
000220 25 8e 24 be cb 85 1f bf 48 56 59 3d 94 e7 9c bd
       -0.16069849 -0.62313527 0.0530608 -0.076613575
000230 96 fe 92 3e 96 49 fa bd e0 36 73 3e 8d 4e 5b bf
       0.2870986 -0.12221067 0.23751402 -0.85666734
000240 c7 73 e6 bd 93 98 eb bd 6b f3 1e be a7 c3 0c 3e
       -0.112525515 -0.115037106 -0.15522544 0.1374651
000250 c9 9c 0d bf 4f 44 b9 be 7c 22 bd bd d8 f4 11 be
       -0.5531736 -0.36184928 -0.09235093 -0.14253557
000260 68 c7 27 3e c1 bd 8d 3e e6 02 8d 3e 71 db d2 be
       0.16384661 0.27683833 0.27541274 -0.41183046
000270 cd ed 2e 3d ef d4 f4 3e 5b 31 c6 be a9 c3 29 3d
       0.042707253 0.47818705 -0.3870953 0.04144636
000280 2e 85 d6 be 66 4d a5 bd aa f8 ee be 19 ca 24 3d
       -0.41898483 -0.08071403 -0.4667409 0.040231798
000290 ac 9b 55 3c 6f c1 6a be 81 68 a6 be b4 f2 b1 3e
       0.013037603 -0.22925352 -0.32501605 0.3475548
0002a0 22 c6 1e bf 48 99 2e 3e 91 87 b3 3e 92 45 75 be
       -0.62021077 0.1705066 0.35064366 -0.2395232
0002b0 92 3a fc 3e 14 8d ca 3e d6 c3 e0 3d 9e 23 db bc
       0.49263436 0.3956076 0.10974853 -0.026750382
0002c0 99 66 db be 62 36 95 be a5 29 42 3d 76 0d 06 3f
       -0.42851713 -0.29143053 0.047402997 0.5236429
0002d0 c3 a4 19 3d 07 11 05 bf ee 05 77 bd c8 65 6a 3e
       0.037510645 -0.51979107 -0.06030839 0.22890389
0002e0 01 8a 83 3c 4f 26 c6 3e 00 2d ba be 22 b3 5e 3e
       0.016057016 0.38701102 -0.36362457 0.21748021
0002f0 9b 35 24 bd da 83 21 bf 3e 0e 6d 3d 57 4f 6a 3e
       -0.040090185 -0.63091815 0.05787491 0.22881828
000300 20 2b f1 3e f8 2d c5 bd 57 a8 6c 3e cc e3 31 bd
       0.47103214 -0.096279085 0.23111092 -0.043430135
000310 19 06 82 3e d7 41 1c 3f 8d b4 7f be 50 56 03 3f
       0.25395277 0.61037964 -0.24971218 0.5130358
000320 72 d8 6c 3e f3 09 05 bc 1e d7 94 3e 93 43 bb bd
       0.23129442 -0.008120048 0.2907037 -0.09143748
000330 9e a8 19 bf ba bb 2a be 9b 22 55 3f aa cd 76 be
       -0.60022914 -0.16673175 0.8325593 -0.24101892
000340 b5 1c aa 3e cc 83 f6 3d 96 b1 16 be 8e 3c 0c bf
       0.33225027 0.12036857 -0.14716181 -0.547799
000350 f8 e6 37 3e 15 c1 d8 3d e5 9d 96 3e 5e c7 b5 be
       0.17959201 0.105837025 0.2941734 -0.35503668
000360 a3 69 71 3e 61 0f e1 bc 10 21 de bc 43 53 b5 3d
       0.23575453 -0.027473154 -0.027115375 0.088537715
000370 83 39 8c 3e 4e 06 1a 3d c2 27 1f 3c ff aa a1 be
       0.27387628 0.03760367 0.009714069 -0.31575772
000380 7c d0 89 be 27 ce 95 3e 12 e1 16 bf 33 f9 b0 3e
       -0.26916873 0.29258844 -0.5893718 0.34565124
000390 cf 56 16 3b 1d aa dc be 7b 3a 23 be f0 f8 a6 bd
       0.0022939926 -0.43098536 -0.15940277 -0.0815295
0003a0 6c d8 f1 3c bd e5 8b 3d 93 96 80 3e 0a d8 c4 bd
       0.029522143 0.068309285 0.2511488 -0.09611519
0003b0 9e ef 2e 3c b8 95 d1 bc 19 11 2b 3f 6e b4 09 3e
       0.010677246 -0.025584087 0.66822964 0.13447735
0003c0 cf 1f b4 be c9 b7 e3 3e 78 72 3c 3e 2a 7e 38 be
       -0.35180518 0.44476154 0.18403041 -0.18016878
0003d0 be 71 c9 3e 74 6e 42 bd 42 ee 61 be 1c a6 93 3e
       0.3934459 -0.047468618 -0.22063544 0.2883767
0003e0 f1 66 ad 3e 80 94 17 be f7 5e a2 be 5a fa 1e bf
       0.338676 -0.14802742 -0.31713077 -0.62100756
0003f0 2c 34 8e bc b4 6a 28 bf 65 e2 a6 3e 02 b4 a7 be
       -0.017358862 -0.65787816 0.325946 -0.32754523

network_body._body_endoder.seq_layers.0.bias f4 [128]
000000 58 89 b0 3c fb 48 aa 3c 72 9c 2c 3d 97 1f ee 3c
       0.021549866 0.020786753 0.042141385 0.029067798
000010 20 b5 fe 3c 05 9e 6a 3d 70 9c 1c 3d 3f a3 5f 3d
       0.031092227 0.057279605 0.038235128 0.054599043
000020 24 59 5c 3d 7b c7 96 bb db c7 99 3d a7 61 69 3d
       0.05379595 -0.0046014166 0.075088225 0.056977894
000030 fa f7 09 3d 74 97 8d 3c 0a 3d 5b 3d 07 89 b1 3c
       0.033683755 0.017284133 0.05352501 0.021671785
000040 74 07 f2 3c f9 bd 36 3a 58 0a 69 3d fc e2 5f bd
       0.02954457 0.0006971057 0.05689463 -0.05465983
000050 95 36 5d 3c 70 34 48 bc 81 8a 15 3d f3 26 1d 3d
       0.013501783 -0.012219533 0.03650904 0.038367223
000060 9d 6a fe bc 76 ff bc 3c ba 97 78 3d 9b 04 bd 3c
       -0.031056697 0.023071032 0.060691573 0.023073485
000070 93 d3 59 bd 5a f7 9b 3d c7 ab 4e 3c 87 d5 db 3d
       -0.05318029 0.07615538 0.012614197 0.107340865
000080 e9 10 99 3d 38 e8 48 bc 4b ad 7d bc ed fa 2d bb
       0.074739285 -0.0122623965 -0.015483211 -0.0026547268
000090 11 6b a1 3d 1c 50 31 3d c5 6f 36 3d 5c 1a 9a 3d
       0.078817494 0.04328929 0.044540185 0.07524559
0000a0 18 17 13 bc 30 af 20 3d 88 b2 22 3d 1e 7e e1 3d
       -0.008977674 0.03922957 0.039721042 0.11010383
0000b0 19 3b 9a 3c 53 39 a2 3d f6 d0 89 3d 0a 7c 24 3d
       0.018827008 0.0792109 0.06729309 0.040157355
0000c0 ed 33 28 bd 02 fa 71 3d 4b f8 6b bd a2 e0 08 bc
       -0.041065145 0.059076317 -0.057609838 -0.008354338
0000d0 aa 6a 87 3d 4a 6d c6 3c 4c 2c ba 3c 58 60 5c 3d
       0.066121414 0.024222035 0.0227262 0.053802818
0000e0 68 09 84 3d ec b6 b6 3b e4 21 81 3c f3 40 51 bd
       0.064471066 0.005576005 0.01576323 -0.05108733
0000f0 90 f8 ff 3c 21 c6 ad bc 9b 38 14 3d fe 7b 3a 3c
       0.031246454 -0.02121264 0.036186796 0.011382101
000100 32 03 47 3c 87 30 02 bd f0 87 6d 3c ce 87 be 3d
       0.012146758 -0.03178456 0.014497742 0.093032464
000110 6a 36 8a 3c 54 20 9d 3d 6e 1c 92 bd 67 8a 8e bc
       0.01687165 0.07672182 -0.07134329 -0.01739998
000120 14 fb 1f 3d 47 ae 9b 3d 69 1e 5d bb a2 8d 3f 3d
       0.039057806 0.076016 -0.003374005 0.04676593
000130 c0 12 d1 3d 6b 02 4b 3d 35 03 8b 3d 46 58 05 bb
       0.102086544 0.049562853 0.06787721 -0.0020346805
000140 54 5e 7b 3d 05 2f de 3c 5d 05 ad 3d ae a4 27 3d
       0.061369255 0.02712203 0.084482886 0.040928535
000150 64 b5 be 3c 62 0c 05 3c 86 10 89 3b 66 46 cb 3c
       0.023279853 0.008120628 0.004182878 0.024813842
000160 81 5f 94 3d aa 60 c9 bc d6 98 17 3c 4c 84 12 3d
       0.072447784 -0.024582226 0.0092527475 0.0357707
000170 28 3b 9f bc 35 d4 85 3d 3e 7e 2a 3d 44 19 0c 3d
       -0.019437388 0.06534616 0.0416243 0.034203783
000180 5e 9c 41 bd 99 bf 2a bd 5c 03 c3 3b e3 87 08 bc
       -0.047268264 -0.041686628 0.005951328 -0.008333179
000190 15 b8 25 3d d2 ab 9c bc e8 92 d1 3d 8e 40 e9 3c
       0.040458757 -0.019124899 0.10233098 0.028473165
0001a0 9d 4e f0 3c 44 f4 85 bc 8a 17 0e 3d 67 af 8d 3d
       0.02933436 -0.016351826 0.034690417 0.06918221
0001b0 90 95 da 3d e4 6a fe 3c 1c 7f 9c 3d a3 19 8f 3d
       0.10673058 0.031056829 0.07641432 0.06987312
0001c0 d9 60 74 3d d6 d7 98 3c 69 14 fb 3c a3 04 28 3d
       0.059662674 0.018657606 0.03064938 0.041020047
0001d0 dd 2a 87 3c 45 1e 2d 3c 73 53 5d 3b 4d c9 7d 3d
       0.016499931 0.010566299 0.0033771663 0.061959554
0001e0 b6 ef ac 3c a6 72 b0 3d 3d 1f cd 3c 7b 96 16 3c
       0.021110397 0.086156175 0.02503931 0.009191151
0001f0 e4 63 62 3d 5a 77 2b bd bd 7a c6 3c d5 9a 8e 3a
       0.055271044 -0.04186187 0.024228448 0.0010879884

network_body._body_endoder.seq_layers.2.weight f4 [128, 128]
000000 dd a3 f8 3c 8f 7d cd bc 89 a6 90 bd 42 1c 2a 3e
       0.030351574 -0.025084285 -0.07063014 0.16612342
000010 4e 0f fd bc 66 c8 d0 bd e6 0c 6c 3d 06 1e 69 be
       -0.030891087 -0.10194473 0.05762949 -0.2276536
000020 4a c8 27 bd 27 9b e8 3d fe ad b8 3d ac 43 dc 3c
       -0.040962495 0.11357718 0.090175614 0.026887737
000030 42 08 3b 3d 91 73 8b 3d cd c8 8a bd bb 1e c3 bb
       0.045662172 0.06809152 -0.06776581 -0.005954591
000040 12 90 61 3b b3 bc c0 bc 8f 1f ae bd e5 ce 3b 3d
       0.0034418148 -0.023527479 -0.08502113 0.045851607
000050 56 5b 8d be 2d 94 2a 3d 1d e5 ec bc 9d d3 ce 3b
       -0.27608746 0.041645218 -0.028917843 0.0063118474
000060 83 66 9d 3c 2f f4 a8 3d f3 09 19 3e 55 42 8e 3d
       0.01921392 0.08249699 0.14945202 0.069462456
000070 09 31 e0 3b a4 7e 7c 3b 3d 6c 57 3d 35 c4 73 3c
       0.006841783 0.0038527632 0.05259346 0.014878322
000080 7c 8f cb bd 6d 48 12 3e 1f b7 5a 3e 74 98 49 bd
       -0.09939477 0.1428544 0.21358918 -0.049217656
000090 a8 6f 88 bc bc 33 9f 3d c9 81 f1 3d 73 f9 ac 3d
       -0.016654804 0.077735394 0.11792333 0.08446016
0000a0 43 56 3b 3c 73 44 90 3d 4a 90 cd 3d 22 e4 08 be
       0.011434141 0.07044306 0.100372866 -0.13368276
0000b0 c5 09 7f bc c1 b0 e6 bc ad 72 ab 3d 5d 0d 59 3e
       -0.015566294 -0.028160455 0.08371482 0.21196504
0000c0 3c d6 cd bd 27 ad 4d 3d fe 45 c9 bd 82 04 7a 3d
       -0.100506276 0.05021396 -0.09827803 0.061039455
0000d0 67 67 50 bd d8 fc a3 3d 3d ff 1f bd 81 af d3 bd
       -0.050879862 0.080072105 -0.039061774 -0.10336209
0000e0 36 ef 89 bd b0 c0 ec 3d eb ee 04 3e 04 6d 13 be
       -0.06735079 0.1156019 0.12981765 -0.14397055
0000f0 dc f2 c9 bd 99 86 02 3e 2d 64 2e 3e 87 43 0a bd
       -0.09860775 0.12746657 0.17030402 -0.033755805
000100 a5 9a a6 3c db 63 c2 3d 68 26 fe bb fc 97 1a 3b
       0.020337412 0.09491702 -0.007756043 0.0023589125
000110 7c 6a a9 3d 83 24 c9 bd e9 56 f7 3d cb cd 1a bd
       0.082722634 -0.09821417 0.12077124 -0.037793916
000120 9f 7f b5 3d e0 5b f5 bb 47 53 11 3e 13 18 0c 3e
       0.088622324 -0.007487759 0.14191924 0.13681059
000130 f8 24 b5 3d 91 02 d9 3d 3c 43 85 bc 73 7d 98 bc
       0.08844942 0.10596193 -0.016267411 -0.018614506
000140 57 17 b8 bd bf 9f aa bd 7c 8e 50 be 75 9c 48 3e
       -0.08988827 -0.083312504 -0.20366853 0.19590934
000150 0f 67 4a 3c 96 8c 4c 3c ef 1d 15 be 4c 23 fb bd
       0.012353673 0.01248469 -0.145622 -0.12262592
000160 72 0d e6 bb 3f ff 86 bd 10 0f 22 3c 26 05 09 3e
       -0.007020646 -0.06591653 0.0098912865 0.1338087
000170 dd 78 72 3e 15 3f d4 3d bb a8 a2 3c 43 73 91 3c
       0.23678918 0.103635944 0.019855848 0.017755156
000180 8e 46 45 3d 42 bb 5c 3c 1b 91 14 3e 41 4f b7 bd
       0.04816299 0.01347238 0.14508478 -0.08950663
000190 03 e5 7b 3d b8 08 4b be 10 12 95 bc cb 8a 02 bd
       0.0614977 -0.19827545 -0.01819709 -0.031870645
0001a0 20 e0 83 3d a8 4c 8e 3c 32 c5 8f bd 5d 88 4f 3d
       0.06439233 0.017370537 -0.07020034 0.050667156
0001b0 f6 27 d9 bb 74 9c 4d bd b0 42 25 3d d6 b2 1d bd
       -0.006627078 -0.050198033 0.0403468 -0.03850063
0001c0 90 f9 d9 3d 0d 30 0c 3d b6 96 70 3d cb 0a 8f 3d
       0.106433034 0.034225512 0.05873748 0.069844805
0001d0 8a d9 7a bd 6b e3 09 3e d5 a9 28 bd 18 e5 d0 bd
       -0.061242618 0.1346566 -0.04117759 -0.10199946
0001e0 f1 6e d8 bd 85 1e 89 bc 8f c5 e1 bd cf ff 4c bd
       -0.105680354 -0.016738186 -0.110240094 -0.050048646
0001f0 be cb 04 be fc fe 8f bd eb 7f 1e 3d 8e d9 c3 3d
       -0.12968346 -0.07031056 0.03869621 0.0956298
000200 8f 79 9c bd fb f8 af 3d 6c 1c 3e 3d 8a bb 98 3c
       -0.07640373 0.08592411 0.046413824 0.018644113
000210 3a 03 ad 3d bd d2 b1 bd ef 05 8f bc bf c3 b5 bd
       0.08447881 -0.08682773 -0.017458884 -0.08875226
000220 0e 74 a4 bd a0 b4 29 bd 66 34 07 3e 7f de 32 3e
       -0.08029948 -0.041432023 0.13203582 0.17467688
000230 dc fd 4e 3e 6b f0 05 3e 6c 4e 22 bd 00 6c 8f bc
       0.20214027 0.13079993 -0.03962557 -0.017507553
000240 60 93 bf bd 33 c1 de bc ae 83 2b b8 ff cc 33 bd
       -0.093542814 -0.027191734 -4.0892213e-05 -0.04389667
000250 5b a4 82 3c 20 ac 68 be 96 10 a2 3d 38 7e 23 3d
       0.015947511 -0.2272191 0.0791332 0.039915293
000260 72 1c d2 bd 74 df 5b be 7c 5a 07 be 2f 04 d4 bc
       -0.10259332 -0.2147196 -0.13218111 -0.025880901
000270 16 22 0d 3e 66 75 9b bd b0 41 c6 bd 16 68 a6 bd
       0.13782534 -0.07590751 -0.09680498 -0.081253216
000280 de 2d 09 3e 1b a0 41 3e 36 95 04 be 41 4d b6 3d
       0.13396403 0.18908732 -0.12947544 0.08901454
000290 99 a5 1b 3e 5f 9a ba 3c 8b fb 03 3e 7f 8d 31 bd
       0.15199889 0.022778688 0.12888925 -0.04334783
0002a0 2e 99 9f 3d 58 09 12 bd 8e 62 88 bd e2 3a 58 bd
       0.077928886 -0.035653442 -0.06659423 -0.05279053
0002b0 ab 23 d9 bd d7 58 e5 3d cf 3c b7 3d 0b 7f 5a 3d
       -0.10602506 0.111985855 0.08947145 0.053343814
0002c0 70 bf d1 bc 39 c2 ba bd e3 c0 44 3e d9 fc 46 3d
       -0.02560398 -0.09119076 0.19214205 0.048580978
0002d0 b0 9c cc 3d 95 18 94 bd 19 aa fe bd 28 5c 19 be
       0.09990823 -0.07231251 -0.12434787 -0.14976561
0002e0 9e 75 53 be 82 a4 94 3d 12 8e 18 3e 90 a1 07 bd
       -0.20650336 0.0725794 0.14897946 -0.033113062
0002f0 51 48 46 3c 90 5a 1a 3e 9e 9b 03 be c8 8d 9e bc
       0.0121022025 0.1507361 -0.12852332 -0.019354716
000300 c2 03 83 3d 73 31 5f bd a7 02 21 be 93 48 cc 3c
       0.06397201 -0.054490518 -0.15723668 0.02493695
000310 f0 1c 89 3d 5c 37 86 bd 7c a6 3b bd e4 47 03 bd
       0.066949725 -0.06553528 -0.04581307 -0.032050982
000320 74 9e 54 bc 25 78 88 bd c3 d8 a0 bd e4 d7 c6 3d
       -0.012977231 -0.06663541 -0.07853844 0.097091466
000330 fc d7 38 3d a9 c8 90 3a 8d 7f 5a bd 38 6d 0d be
       0.045127854 0.001104613 -0.0533443 -0.13811195
000340 84 19 e6 bc 07 d9 ff 3d 18 77 17 bd 87 f5 0b be
       -0.028088339 0.124925666 -0.03697881 -0.1366788
000350 24 07 93 39 18 67 fb bd 8d c7 f3 3c a4 1a 06 bd
       0.00028043345 -0.12275523 0.02975824 -0.03274025
000360 d3 85 07 3d bb c8 83 3c 38 f6 c2 bc 31 fb f1 bd
       0.03308661 0.016086927 -0.023799047 -0.11815489
000370 60 b4 05 be b1 72 85 3c 7e e8 20 3e bd 55 23 bd
       -0.13057089 0.01629004 0.15713689 -0.03987669
000380 83 03 7c bd a4 b0 b4 3c 50 be 24 be 09 06 78 3d
       -0.061526787 0.022056885 -0.16088223 0.06055263
000390 19 9d 82 bd 01 1a 1f 3c c5 8f 57 3d 2e a4 bf bc
       -0.0637762 0.00971079 0.052627344 -0.023393717
0003a0 23 55 68 bd 36 86 ba bd cc 15 f1 3c 7a eb 51 3b
       -0.056721818 -0.0910763 0.029429339 0.0032031224
0003b0 8e 99 5a bd 8b 2c 4b 3e 65 41 cc bd ed 76 f4 bc
       -0.053369097 0.1984121 -0.099734105 -0.029841864
0003c0 f3 76 95 ba 47 94 62 3d b4 3a ab 3d 08 43 67 3d
       -0.0011403247 0.05531719 0.08360806 0.05646041
0003d0 1b fb 68 3d 56 63 8f bd 6a 01 89 bd 74 d5 11 3d
       0.056880098 -0.07001369 -0.06689723 0.035603955
0003e0 43 57 a6 bc 5f e5 6c 3e c8 d6 55 3d 91 85 1c 3c
       -0.020305282 0.23134373 0.052206784 0.009553329
0003f0 4e 69 73 bd 24 b6 9a bd c9 8e 45 be ba 1a 18 bd
       -0.0594266 -0.07554272 -0.1929275 -0.037134863

network_body._body_endoder.seq_layers.2.bias f4 [128]
000000 f2 10 2a bc d4 ae c5 3c f7 d7 e1 3b 2c c2 27 3d
       -0.010380017 0.024131216 0.0068922 0.04095666
000010 37 58 d5 3c 92 59 4a 3d 8b b2 d5 3c 6c db 16 3d
       0.02604304 0.049401827 0.026086112 0.03683035
000020 ec 86 07 bc 41 81 85 3d 66 b2 d4 3c 5e 51 5d 3c
       -0.008271914 0.06518794 0.025963973 0.013508169
000030 1a aa 5a 3d 9a ee 21 3d b8 39 82 3d ee 48 19 3d
       0.053384878 0.03953419 0.06358665 0.037423067
000040 ee 22 be 3c 45 fe 30 3d 22 c2 19 3c dc 80 95 3b
       0.023210015 0.04321124 0.009384664 0.0045624804
000050 55 18 dd 3c dd 45 bc 38 2a 7d 38 3d aa 96 85 ba
       0.026989141 8.9775516e-05 0.04504124 -0.0010191996
000060 cd 0c 35 3c 2a 2c c2 3c 56 6a 90 3d 42 0a 0a 3d
       0.011050415 0.0237027 0.07051532 0.03370119
000070 8e b8 61 3d 90 36 81 3d 1c d0 ab 3d 36 c3 05 bd
       0.055107646 0.06309235 0.08389303 -0.03265687
000080 a4 bd 7c 3d 2d b9 e7 ba 14 1b 5b 3c 76 65 8d 3c
       0.061704293 -0.0017679088 0.013373155 0.017260294
000090 00 5e ff 3c dd 5b 5f 3d 5e dc 98 bc 4b a9 87 3d
       0.031172752 0.054530967 -0.018659767 0.06624087
0000a0 33 ff 48 3d f0 82 2e 3d 88 69 4f bd b4 5c d3 3d
       0.049071502 0.04260534 -0.05063775 0.10320416
0000b0 05 64 88 3b 9a fa 98 3c d3 58 a6 3d f6 b4 93 3c
       0.004162314 0.018674184 0.081224106 0.018030625
0000c0 b7 09 f1 bb 18 59 de bb b5 94 1a 3d 9e 9f e9 3c
       -0.0073558944 -0.006785523 0.037739474 0.028518494
0000d0 7b e2 5a 3c 0f b6 58 3b d6 57 a9 3c e8 01 e3 3c
       0.013359661 0.00330675 0.020671766 0.02771087
0000e0 c8 74 37 bd 31 0a 37 3c 25 c2 70 bc df 95 51 3d
       -0.044789106 0.011171863 -0.014694725 0.05116832
0000f0 2b b1 4c 3d b0 a9 3b 3d d1 17 ac 3b ab fc 2a 3d
       0.049973648 0.045816123 0.0052518626 0.04174487
000100 76 e7 1c bc 38 e5 5f 3d 70 84 71 3d 0c c7 53 3d
       -0.009576669 0.05466196 0.058964193 0.051703498
000110 8b be 9b 3c d7 c1 93 3d f6 50 66 bc df f5 ff 3c
       0.019011756 0.072147064 -0.0140573885 0.03124517
000120 bb 55 a8 3c 28 d7 7e 3d f0 3c f6 bb 33 5c bc 3c
       0.020548692 0.062216908 -0.0075145885 0.022993183
000130 b5 43 23 3d d6 9e c7 3c 56 fd 29 3d 1a 9a 8b 3d
       0.039859492 0.024367731 0.041501366 0.06816502
000140 13 e3 26 3d d3 81 06 bd a7 ec 77 3c 57 b9 fd 3c
       0.0407439 -0.032838654 0.015132106 0.030972166
000150 1e 21 4b 3d 52 d4 4b 3d 1d 61 84 3c 37 9d d1 3c
       0.04959213 0.04976303 0.016159588 0.025587661
000160 ef 05 de 3c 93 ba c4 3c ba 35 b9 3b ab 43 d2 3c
       0.027102439 0.024014747 0.0056521567 0.025667032
000170 5f 2c e6 3c 37 6c cb 3c 9f ba 9c 3d a8 f0 c7 3c
       0.02809733 0.024831874 0.07652783 0.024406746
000180 e1 96 00 3d e3 89 94 3d 16 b4 84 bc 3d 34 75 3c
       0.03139389 0.07252862 -0.016199153 0.014966068
000190 32 6d 1c 3a d8 f1 1c 3d 7f 03 65 3d 23 ee 58 3c
       0.0005967199 0.038316578 0.055911537 0.01324037
0001a0 cd b8 96 3d b1 dd 32 3c 18 17 02 3c 64 e1 47 bd
       0.07359467 0.010917113 0.007940076 -0.048798934
0001b0 f8 96 19 3d 57 26 68 3d 63 59 ae 3c 0a 2f 59 3d
       0.03749749 0.05667719 0.021282857 0.053023376
0001c0 80 53 e9 3b ba 11 34 bd 6e 6b 8c 3c 6e 90 24 3d
       0.0071205497 -0.043962218 0.01714107 0.0401768
0001d0 c7 f4 c5 3c 1d ee 91 3c 07 2f e1 3c b4 73 7c 3c
       0.02416457 0.017813737 0.027488245 0.015408445
0001e0 0b ba 64 3d da 65 8f 3d f7 d9 81 3d ed 38 59 3d
       0.055841487 0.070018485 0.063404016 0.053032804
0001f0 ed 61 92 bc 5e 80 3e 3d 3c 97 5b bc ce 5a 23 3d
       -0.01786896 0.04650914 -0.013402756 0.03988152

action_model._discrete_distribution.branches.0.weight f4 [3, 128]
000000 17 df 62 3c 6f 57 d6 38 34 89 9a 3c 21 9a d0 3c
       0.013847134 0.00010220601 0.018864252 0.02546412
000010 6f 3e bb 3c ff 26 5a 3a 98 41 17 3c 8a 35 32 3c
       0.02285692 0.0008321851 0.009231947 0.0108770225
000020 c4 d0 5c bd cd 13 1e 3d bf 10 f0 3c fe 06 b6 3c
       -0.053910032 0.038593102 0.02930486 0.022220131
000030 8b 5e a4 3c fb 83 08 bc f6 55 f3 3c d0 be c9 3c
       0.020064613 -0.008332248 0.029704075 0.02462712
000040 e1 6c 94 bc a6 b5 a8 bb 5f b6 69 bb de 85 d9 bb
       -0.018118324 -0.0051486073 -0.003566168 -0.0066382727
000050 0f 46 b2 3c 4b 4e fe bb e0 26 09 3d f0 c9 0a bd
       0.021761922 -0.007760798 0.03348434 -0.03388399
000060 6c 47 25 bb b1 be 97 bb 5d c4 4b 3d f1 25 24 3d
       -0.0025219573 -0.0046308865 0.049747813 0.040075246
000070 ae ca 06 3d a6 70 31 3d f5 0e 61 3d 89 b6 8a bc
       0.032908134 0.04332032 0.054945905 -0.016932743
000080 99 f7 e1 3c 14 d6 65 3a fb 00 8d 3b a8 3a 31 3c
       0.027583884 0.0008767557 0.0043030954 0.010817207
000090 32 fd 6f 3b 90 12 09 3d 7a a6 0c bc 32 69 f1 3c
       0.0036619422 0.03346497 -0.008584613 0.029469106
0000a0 67 5d 1f 3d ac 42 4d 3d 6b 03 da bc cd 79 a8 3d
       0.038907435 0.05011241 -0.026612958 0.08226357
0000b0 30 8a 82 3c 32 2e 60 3c 4e ca 80 3d 76 01 d2 bd
       0.015935034 0.013682889 0.062885866 -0.10254185
0000c0 b6 ae 29 3c 01 d7 15 3b 06 e4 13 3d 6f 5d 82 3c
       0.010356596 0.0022863748 0.036106132 0.015913693
0000d0 b7 37 a5 bb 7e 9f ad bc cd 4c e3 3c 9d 70 ef 3b
       -0.005042042 -0.021194216 0.027746582 0.0073071257
0000e0 0c 16 06 bd 35 0c 91 3c 60 64 53 3c 55 6c b0 3c
       -0.03273587 0.017706016 0.012902349 0.021536032
0000f0 30 5b 22 3d 13 02 84 3d a0 9c 88 bd f0 9f 0a 3d
       0.039637744 0.06445708 -0.06670499 0.033843935
000100 e7 02 cc bc 69 02 e5 3c 45 0e c9 3c d8 b3 b9 3c
       -0.024903728 0.02795525 0.024542937 0.022668764
000110 d0 a6 99 3c a5 66 ec 3c 81 af 2f bc 9b de b7 3b
       0.0187563 0.028857538 -0.010722996 0.0056112534
000120 df 57 98 3c c8 f8 bd 3c ea ce ca 3b ab ba 6e 3c
       0.018596588 0.023189917 0.006189217 0.014570872
000130 86 ce 1e 3c cf 17 11 bc 7f 5f 00 bb 3d 2b 13 3d
       0.009692794 -0.008855774 -0.001958817 0.035929907
000140 22 88 03 3d c2 a4 61 bc a6 b5 ef 3c b9 e8 ea 3c
       0.03211225 -0.0137721915 0.029261421 0.028675424
000150 00 a2 c0 3b 8f fc 4a 3d 1b 64 00 bd 18 6d 36 bc
       0.005878687 0.049557265 -0.031345468 -0.011134408
000160 1c 3c d1 3c c2 92 fa 3c 82 66 34 3c 62 40 ae 3c
       0.025541358 0.030587558 0.011010768 0.021270934
000170 ee 29 6f 3c ba 9c 54 3c d4 7d 2b 3d c5 50 ec 3c
       0.014597399 0.01297682 0.041868046 0.028847108
000180 d7 33 83 bb 98 e5 10 3d 31 ae ec 3b 24 ad a6 ba
       -0.0040039825 0.035375208 0.0072229137 -0.0012716395
000190 7a 8e 52 ba 15 af a0 3c 37 ad 7d 3d 5e 10 ca 3c
       -0.0008032095 0.019614736 0.06193277 0.024666008
0001a0 e7 d7 03 3d e2 29 15 3c 54 e5 e7 bc ba 4d ba ba
       0.032188322 0.009104224 -0.028307594 -0.0014213838
0001b0 76 d3 98 3c 5a fe d7 3c a8 15 ec 3c d2 c9 18 3d
       0.01865552 0.026366401 0.02881892 0.037301846
0001c0 fc 87 9d bb 35 f9 af bc ef 2d 04 bc 3f 60 8d 3c
       -0.0048074704 -0.021481136 -0.008067592 0.017257808
0001d0 61 76 46 bc cb 8b 85 3c 33 ab 16 3d 49 c2 fa 3c
       -0.012113185 0.01630201 0.036784362 0.03061022
0001e0 31 86 d7 ba d5 24 08 3d 23 0b 12 3d 70 1c 0e bc
       -0.001644319 0.03323825 0.035655152 -0.008673772
0001f0 cb 60 59 bc 0f 6d fb 3c 0c a4 20 bd 2f 97 54 3c
       -0.013267706 0.030691652 -0.039218947 0.012975498
000200 5f 96 09 3d cc 82 99 bc 48 53 41 3d 76 66 d1 bd
       0.03359067 -0.018739127 0.047198564 -0.10224621
000210 a5 45 29 3d 73 55 eb bd 49 38 ba 3d ab eb b6 bd
       0.041326184 -0.114909075 0.09092767 -0.08931669
000220 f9 99 6f 3c 49 d8 c2 bd 44 30 8b 3d e3 a7 22 3d
       0.014624112 -0.09513909 0.06796315 0.03971089
000230 9a 37 d7 bd 3f 9c 61 bd 16 56 ce bd c8 ce a7 bd
       -0.10508652 -0.05508065 -0.10075013 -0.08193737
000240 85 2e c6 bd f9 c9 e4 bd 38 1c 45 3d dc f2 a3 3d
       -0.09676842 -0.11171336 0.048122615 0.08005306
000250 99 7d 71 3d 35 71 db bc e7 2d f8 bc 7c d7 48 3c
       0.05895767 -0.02678738 -0.030295325 0.012258407
000260 a6 66 a8 3d 66 d8 9d bd 1c a8 fc bd 2a 16 05 3d
       0.08222704 -0.0770729 -0.12336752 0.03249184
000270 4b 92 a6 bd ec f7 c9 bd bc af e1 bd 5f 61 ed 3c
       -0.08133372 -0.098617405 -0.11019847 0.028977094
000280 7f 05 f8 bd a6 70 4d 3d da fb 27 3d b3 cd 80 3d
       -0.12110423 0.050156258 0.04101167 0.06289234
000290 99 e4 af 3d ee a2 9f bd 77 60 14 3d 31 b3 f9 bd
       0.085885234 -0.07794748 0.03622481 -0.12192381
0002a0 8a 2d 47 bc 82 35 6e 3c 54 6d 04 3d 51 23 ff bd
       -0.012156853 0.014539124 0.032330826 -0.12457908
0002b0 aa d0 6a 3d 5f 74 85 3d 52 79 a5 bd db ee 08 3d
       0.057327904 0.06516337 -0.08079781 0.033430915
0002c0 e7 9b 5c 3c 87 ca 09 3d 13 15 29 bd b0 db 9a 3d
       0.013464904 0.03364041 -0.041279864 0.07561433
0002d0 c8 46 ae bc 4f c1 81 3d c0 28 90 3c 43 d7 a1 bd
       -0.021273986 0.06335699 0.017597556 -0.07902386
0002e0 cd ac a9 3c 57 69 22 3d 99 8f de 3c 39 65 e9 bd
       0.02071228 0.03965124 0.027168082 -0.1139626
0002f0 ae 11 b9 bd 19 bc 17 bd 35 38 f4 bb cc 95 0e 3d
       -0.09036575 -0.03704462 -0.0074529895 0.034810826
000300 93 3e be bc d7 a4 db bd 09 53 f2 bd 48 95 c9 bd
       -0.023223197 -0.107248 -0.11832244 -0.09842926
000310 a2 31 87 3d 7d bb 4a 3d 6c 54 b5 ba 97 26 a2 3d
       0.066012636 0.04949521 -0.0013834364 0.07917517
000320 ac b1 61 3d 59 38 70 bd f2 70 6c 3d 04 ed fe 3c
       0.05510108 -0.058647487 0.0577249 0.031118877
000330 99 db 30 bd 76 c6 5a bd 50 54 b8 bd a1 f8 fb bd
       -0.043178175 -0.053411923 -0.09000456 -0.123032816
000340 04 f5 db 3c df ac 29 3d 71 f9 f8 3c cb 91 10 3d
       0.026850231 0.04142463 0.03039238 0.03529529
000350 42 09 ee bd 38 7d 8d 3c ce 29 b5 bc c0 75 3d bd
       -0.116228595 0.017271623 -0.02211466 -0.046254873
000360 43 56 7b 3b a3 f9 b7 3c 8b 6a 7a 3d 62 57 9e 3d
       0.0038350977 0.022457903 0.061136764 0.07731511
000370 11 18 8e 3d fe 4c 29 3d ee b1 02 be 3b 98 17 3d
       0.06938184 0.04133319 -0.12763187 0.037010413
000380 4e d4 9a bd a4 5d bb bd 60 05 19 3d 0f 05 54 3d
       -0.07560025 -0.0914872 0.03735864 0.051762637
000390 cd 37 70 bc 5e 15 8f 3d 75 ac 8a 3c 6b a7 d5 3c
       -0.014661741 0.06986497 0.016927937 0.026080808
0003a0 4f 70 b9 bd a5 cc fe 3c d4 e3 4b bd 56 b5 86 3c
       -0.09054624 0.031103441 -0.04977782 0.01644389
0003b0 ef 31 9c 3d 39 a6 d1 bd 9d 6c 33 3d 69 98 45 bd
       0.076267116 -0.102367826 0.043804754 -0.048241053
0003c0 8e c0 7a 3d dc 7b 41 3c 77 a4 8a bd b9 18 a3 bd
       0.06121879 0.0118093155 -0.067696504 -0.079637
0003d0 fe c2 a8 bd 38 8b 5d 3c 78 11 af 3c 93 cb 3d 3d
       -0.08240317 0.013521962 0.021370634 0.04633672
0003e0 c3 9e 03 be 22 bd c6 bd 42 46 45 bd 58 be f1 bd
       -0.12853532 -0.09704043 -0.048162706 -0.11803883
0003f0 18 37 46 3d f3 c2 57 3d 93 c5 42 3c bd 8c ab bd
       0.048392385 0.052676152 0.011887926 -0.08376453

action_model._discrete_distribution.branches.0.bias f4 [3]
000000 46 59 33 3d bc a7 1e bd dd e8 30 bc
       0.04378631 -0.038734183 -0.010797706

exp_avg f4 [128, 10]
000000 77 89 25 b9 8f 46 e9 b9 4b 94 7e 37 32 a3 08 ba
       -0.00015786836 -0.00044493793 1.5174107e-05 -0.0005212306
000010 c4 09 1f b9 c8 ac 62 b9 ec 49 1b ba 03 04 17 37
       -0.0001516706 -0.00021617406 -0.0005923796 9.001235e-06
000020 f4 fa 90 39 ad f6 5a b9 ce 65 50 b9 1e bb 0d 39
       0.00027652795 -0.00020881994 -0.00019874351 0.00013516514
000030 2f 50 72 b7 06 94 34 3a c1 dd 64 b9 34 fb 66 b9
       -1.4442993e-05 0.0006888512 -0.00021826384 -0.0002202809
000040 2b 7f 94 39 c8 56 80 b7 6f 24 fa 39 70 7a 3a b9
       0.00028323507 -1.52992e-05 0.0004771086 -0.00017783954
000050 9c ac b6 b8 31 8b 02 ba b3 64 4a 37 02 30 02 ba
       -8.710587e-05 -0.00049798476 1.2063584e-05 -0.000496626
000060 fb d3 c0 b8 fa 5b 9f b8 47 51 0e ba 28 3f 0f 37
       -9.194758e-05 -7.598843e-05 -0.00054289814 8.538169e-06
000070 c9 43 24 39 81 08 c2 b8 74 3f 19 b8 cd 32 ee b8
       0.0001566551 -9.252225e-05 -3.6537138e-05 -0.00011358187
000080 32 ac 0e 37 f1 a4 e1 b9 d6 5d 73 b7 d5 73 8c b8
       8.503952e-06 -0.00043038235 -1.4505777e-05 -6.6972956e-05
000090 eb 53 4b b9 fd 17 a9 36 33 41 c6 b5 99 f1 af b8
       -0.0001939085 5.039385e-06 -1.4771125e-06 -8.389651e-05
0000a0 70 c8 1f b9 d8 71 2e b9 4f ba c3 b6 34 39 2e b9
       -0.0001523809 -0.00016636343 -5.833142e-06 -0.00016615243
0000b0 c3 06 1b b9 dd fd 55 b9 88 30 27 b9 7e f5 20 b6
       -0.00014784471 -0.00020407834 -0.0001594444 -2.3984753e-06
0000c0 6a 41 36 b9 9d 10 67 b9 38 84 67 b9 7b a2 81 b9
       -0.00017381241 -0.00022036066 -0.00022079132 -0.00024725855
0000d0 14 62 50 b7 5e 30 18 3a ce 3e 8c b9 93 2e 75 b9
       -1.2420602e-05 0.0005805547 -0.00026749674 -0.00023382371
0000e0 3b 6b ab b8 d1 3a 82 b7 3b c2 3c 3a 86 22 52 b9
       -8.173889e-05 -1.5524596e-05 0.00072005735 -0.00020040022
0000f0 46 ee 7a b9 91 8a 1a ba 7c 3f 84 37 cd b8 78 ba
       -0.00023930622 -0.0005895282 1.5765188e-05 -0.00094879867
000100 03 24 6d b9 42 f9 9c b9 f7 de 62 ba 24 1a 93 37
       -0.00022615497 -0.0002994035 -0.000865444 1.7535938e-05
000110 29 36 02 39 45 c2 9f b9 90 30 15 b9 66 3f 36 ba
       0.00012417942 -0.00030471585 -0.00014227838 -0.0006952196
000120 a8 b8 d4 37 eb b9 93 ba b1 94 13 b9 82 5b 85 b8
       2.5358357e-05 -0.0011270618 -0.00014074404 -6.358979e-05
000130 f6 94 6d ba b0 e0 22 38 cd ac bc b9 b2 83 00 b9
       -0.00090630294 3.8833066e-05 -0.000359869 -0.00012256092
000140 12 59 b6 b9 22 db e4 39 ae 03 c2 b7 6c 4c 85 3a
       -0.00034780108 0.00043650815 -2.3128316e-05 0.001016987
000150 b0 bd b6 b9 fb a6 e7 b9 be 9f 3f 3a 87 a2 db b7
       -0.00034855073 -0.00044184164 0.0007309875 -2.6182517e-05
000160 41 cb 1b 3a be f1 c2 b9 e6 b4 1f 39 cd ff 66 39
       0.0005943068 -0.00037182675 0.00015230812 0.00022029802
000170 f4 ed 98 b6 38 37 09 3a 1d 73 11 39 61 b2 16 39
       -4.5576544e-06 0.00052343635 0.0001387116 0.00014371566
000180 9c b6 96 39 44 8b f2 b6 9d e0 c2 38 ee 5b 34 39
       0.00028746284 -7.2283747e-06 9.292478e-05 0.00017200384
000190 cc e0 96 b9 ea c9 87 b9 af ec c1 36 1e ff 49 ba
       -0.00028777716 -0.00025899644 5.779402e-06 -0.0007705557
0001a0 91 c7 7a b9 f5 20 9d b9 e3 34 b5 b9 70 5d ae 35
       -0.00023916202 -0.00029969928 -0.00034562414 1.2991204e-06
0001b0 ac 27 a2 b8 27 3c a4 b9 f7 a7 2b ba ea c7 a3 ba
       -7.7321514e-05 -0.00031325335 -0.0006548161 -0.0012495492
0001c0 89 76 02 38 9a 56 02 bb 5a 93 21 ba 74 72 20 ba
       3.110481e-05 -0.0019888044 -0.00061636197 -0.00061205705
0001d0 c0 7c c9 ba bd 3e 16 38 73 fa 7c b9 1e 5c 31 ba
       -0.0015372261 3.5821216e-05 -0.00024125892 -0.00067657407
0001e0 3b 3c 96 b9 34 4d 4e 39 f7 9e b2 b7 b5 b2 42 3a
       -0.00028655105 0.00019674451 -2.1293277e-05 0.0007427142
0001f0 6a 6f 9a b9 59 6e b9 b9 67 3f db 39 e6 5b d1 b7
       -0.0002945618 -0.00035368165 0.00041818173 -2.4957535e-05
000200 90 15 9e 39 8c dc 9f b9 af 70 6b b8 3a b1 93 b7
       0.00030152174 -0.00030491163 -5.613331e-05 -1.7606293e-05
000210 2f 38 a9 b7 f8 2a 09 3a a9 dc 88 b8 e3 94 a2 b8
       -2.0172532e-05 0.0005232538 -6.5260865e-05 -7.752494e-05
000220 ed fe ea 38 18 72 79 b7 87 28 d5 39 26 a0 bb b7
       0.00011205473 -1.4868121e-05 0.0004065672 -2.2366712e-05
000230 2e f2 8e ba 55 1f 38 ba f8 d5 dd 37 93 ec df ba
       -0.0010905915 -0.0007023712 2.644489e-05 -0.0017084054
000240 b2 9f 89 ba 4a 10 8c ba f1 54 72 ba cf 70 a8 37
       -0.0010499863 -0.0010686007 -0.00092442246 2.0079691e-05
000250 2c 1e cf b9 1d 85 92 ba cc cd ab 39 2a f8 2c 39
       -0.00039504596 -0.0011178587 0.00032768992 0.00016495647
000260 4f 52 b4 b7 05 d3 5f 3a 56 02 97 39 60 9b bc 39
       -2.1496e-05 0.0008538219 0.00028802705 0.00035973918
000270 48 6f 8c 39 46 b0 b8 b7 3d 2d 5e 39 ef 37 ca 39
       0.00026785792 -2.2016593e-05 0.00021188422 0.00038570116
000280 b0 22 a0 39 53 15 72 37 04 c8 fb b7 af b9 c3 3a
       0.00030543422 1.4429289e-05 -3.0014671e-05 0.0014932657
000290 52 85 63 39 70 96 a7 39 c2 43 b5 39 e0 4c 1f b8
       0.00021698073 0.00031964807 0.00034573494 -3.798015e-05
0002a0 1d 6e 92 3a 98 51 b9 39 ed 44 4a b9 e1 9b cb 39
       0.0011171732 0.00035346742 -0.00019289898 0.00038835316
0002b0 26 e0 76 b7 d6 c8 e6 39 4d c6 4a b9 80 6e 83 b9
       -1.4714931e-05 0.00044018653 -0.00019338094 -0.00025068596
0002c0 b6 c3 01 3a 53 db 1f b7 82 c7 98 b9 58 f0 7e b9
       0.00049501227 -9.528204e-06 -0.00029140344 -0.00024312863
0002d0 19 2d d6 b9 06 c8 af ba d3 6a 21 37 e1 74 b8 ba
       -0.0004085086 -0.0013411052 9.62122e-06 -0.0014072919
0002e0 93 5c de b9 26 cd ba b9 2b 0c c7 ba 0c 48 f3 37
       -0.00042412113 -0.00035629532 -0.0015186121 2.9001407e-05
0002f0 47 f2 8e b9 73 84 fb b9 8d eb eb 38 f5 fc cb 38
       -0.0002726486 -0.00047973133 0.00011249548 9.726911e-05
000300 fd 70 f8 b6 24 55 9e 39 f4 8e ba 38 66 4f 18 39
       -7.4041295e-06 0.00030199543 8.895798e-05 0.00014525428
000310 52 4f 31 39 86 66 94 b6 99 03 49 b8 a4 66 12 39
       0.00016909585 -4.422679e-06 -4.7925485e-05 0.00013961882
000320 40 de 1c b9 e4 d3 10 39 ef 18 46 37 57 36 8d b9
       -0.00014960114 0.00013811846 1.1807525e-05 -0.00026934102
000330 f4 e5 10 b9 55 63 28 b9 56 c1 8d 38 b5 81 ec 36
       -0.00013818574 -0.00016058733 6.7594156e-05 7.048448e-06
000340 a1 b0 9f b8 9b f9 3f b9 21 90 90 39 5f ce 32 3a
       -7.6146105e-05 -0.00018308165 0.00027573205 0.0006820913
000350 73 f7 12 b8 87 c3 bd 3a 68 35 86 39 e1 d7 a0 39
       -3.5039568e-05 0.0014477827 0.00025598262 0.0003067842
000360 3d 9e 71 3a d3 76 1b b8 e7 37 7f 39 e1 d9 d3 39
       0.0009217 -3.7065543e-05 0.0002433952 0.0004040739
000370 81 36 d5 b9 47 fb 64 ba ea db 0f 38 41 ec 00 bb
       -0.00040667134 -0.0008734953 3.4298668e-05 -0.0019672068
000380 29 34 c3 b9 94 44 8e b9 1e 69 a6 ba 6e 84 51 38
       -0.0003723216 -0.00027135445 -0.0012696122 4.9952818e-05
000390 31 a4 5f ba db d0 bc b9 f1 8b 12 b8 c4 54 66 b8
       -0.00085312413 -0.00036013764 -3.4939443e-05 -5.4915217e-05
0003a0 fb 44 08 36 38 da fe b7 8b c3 0a b8 d7 48 11 b8
       2.0305731e-06 -3.0380776e-05 -3.3083877e-05 -3.463853e-05
0003b0 7e 95 81 b8 67 3c d8 35 ab f1 87 b7 3e 8a 2e b8
       -6.1790444e-05 1.6110833e-06 -1.620579e-05 -4.161358e-05
0003c0 e0 48 3b 39 7c 01 22 39 84 47 f1 b6 ff 5b fd 39
       0.00017860858 0.00015450077 -7.190685e-06 0.00048324463
0003d0 00 da 2e 39 57 a2 23 39 6e 1e 47 39 60 99 0c b7
       0.00016675144 0.00015605368 0.00018989455 -8.380361e-06
0003e0 9c 0e 1e 37 86 ee 43 39 e8 51 93 b8 5d c0 bb b8
       9.420935e-06 0.00018685506 -7.0247625e-05 -8.952685e-05
0003f0 d2 91 49 b7 35 4e 0d 3a c9 65 de b8 c7 e2 51 b8
       -1.2014485e-05 0.0005390377 -0.00010604744 -5.0040686e-05

exp_avg_sq f4 [128, 10]
000000 20 76 57 36 da bc 03 36 59 71 05 35 5c 36 48 36
       3.2106254e-06 1.9630447e-06 4.9711304e-07 2.9833964e-06
000010 5c 8f 55 36 77 06 5f 36 1c 9a 0c 36 71 b5 01 35
       3.182292e-06 3.3233352e-06 2.095133e-06 4.8320277e-07
000020 75 fc 51 36 bd 25 66 36 60 68 93 36 d7 21 60 36
       3.1290376e-06 3.4294637e-06 4.3930922e-06 3.3398298e-06
000030 71 e3 69 35 51 a8 92 36 da 73 9b 36 3d 8d a3 36
       8.7130235e-07 4.3707337e-06 4.632847e-06 4.874221e-06
000040 d3 0a 96 36 eb 1b 5f 35 10 ea a5 36 4c 40 b0 36
       4.4716085e-06 8.31146e-07 4.9446317e-06 5.252694e-06
000050 77 20 0b 36 30 d1 aa 35 87 3a 9b 34 64 fd fd 35
       2.073151e-06 1.2726869e-06 2.8913584e-07 1.8923715e-06
000060 07 3b 0a 36 4f 82 12 36 ba 76 c1 35 f3 65 99 34
       2.059796e-06 2.1831545e-06 1.4414175e-06 2.857265e-07
000070 19 dc 08 36 66 91 17 36 23 f4 57 34 26 11 69 34
       2.0393693e-06 2.2585386e-06 2.0112252e-07 2.1706055e-07
000080 44 41 e5 33 d0 e4 4a 34 bf 0d 49 34 ee 78 77 34
       1.0675515e-07 1.8895958e-07 1.8724585e-07 2.3047662e-07
000090 d5 8d 80 34 66 89 e3 33 fc 83 63 34 b0 8e 5d 34
       2.3945054e-07 1.0595504e-07 2.1189038e-07 2.0634138e-07
0000a0 eb a6 6a 34 bd 4e 62 34 9b 79 b5 33 dc 2d 4c 34
       2.1853673e-07 2.1076535e-07 8.450589e-08 1.9015664e-07
0000b0 bb 37 71 34 dd cc 80 34 79 13 75 34 63 a8 ac 33
       2.2465149e-07 2.3990916e-07 2.2824487e-07 8.0400035e-08
0000c0 1c fb 6a 34 3b dd 7e 34 17 ed 81 36 64 c6 3e 36
       2.1884301e-07 2.3736077e-07 3.8721005e-06 2.8427685e-06
0000d0 a2 46 45 35 f5 86 85 36 6d 99 8a 36 9a 0e 8b 36
       7.3491003e-07 3.97942e-06 4.1305816e-06 4.1442227e-06
0000e0 51 8f 7c 36 22 7c 38 35 a1 d0 8f 36 89 7a 98 36
       3.7634347e-06 6.872598e-07 4.2860197e-06 4.544218e-06
0000f0 76 e2 c8 36 54 89 70 36 8e c6 82 35 54 1d c6 36
       5.986828e-06 3.5842722e-06 9.743542e-07 5.904274e-06
000100 43 a5 c9 36 08 62 d0 36 59 86 8b 36 62 84 73 35
       6.009506e-06 6.2102954e-06 4.158163e-06 9.0717197e-07
000110 b1 35 cc 36 15 aa d9 36 ef e2 3b 37 bb 20 08 37
       6.0859243e-06 6.486904e-06 1.1198906e-05 8.113852e-06
000120 ff 62 17 36 89 cf 3d 37 11 eb 45 37 b3 da 47 37
       2.2558377e-06 1.1313598e-05 1.1796846e-05 1.1912244e-05
000130 b6 a1 31 37 43 ed 0c 36 69 2a 49 37 eb 9a 58 37
       1.0587673e-05 2.099973e-06 1.1990408e-05 1.2910673e-05
000140 91 72 42 37 b8 6a 0b 37 0e 91 26 36 b7 d2 42 37
       1.1589976e-05 8.309893e-06 2.482036e-06 1.1612362e-05
000150 7b 61 4b 37 c6 62 47 37 5d a8 34 37 5c 80 1f 36
       1.2122439e-05 1.1884322e-05 1.0768036e-05 2.3767561e-06
000160 78 77 47 37 a8 0b 55 37 49 f4 0f 35 96 5e d9 34
       1.188914e-05 1.2698503e-05 5.3627133e-07 4.048822e-07
000170 49 96 02 34 fc 66 10 35 e6 b4 13 35 bc e9 24 35
       1.2161867e-07 5.379404e-07 5.502501e-07 6.143489e-07
000180 24 0c 04 35 da aa 02 34 8f df 21 35 99 c4 2a 35
       4.91915e-07 1.2169349e-07 6.0302494e-07 6.361602e-07
000190 cc 10 4c 35 3b 9d 3f 35 fb 2a 7e 34 4e 99 5e 35
       7.6020365e-07 7.1381845e-07 2.367123e-07 8.292453e-07
0001a0 b4 ec 4d 35 cc b8 6b 35 a5 aa 55 35 c0 9d 83 34
       7.67129e-07 8.7813237e-07 7.9597004e-07 2.451543e-07
0001b0 e1 bc 79 35 af 2b 72 35 a2 a8 8e 37 a9 34 43 37
       9.3034583e-07 9.0215593e-07 1.7006245e-05 1.1635167e-05
0001c0 cd 82 72 36 b9 25 93 37 e6 b7 94 37 4e 2c 97 37
       3.6136946e-06 1.7541332e-05 1.772861e-05 1.8021234e-05
0001d0 53 62 7b 37 b9 dc 65 36 78 a8 9d 37 5e 78 a2 37
       1.4983659e-05 3.4252137e-06 1.8794308e-05 1.9367955e-05
0001e0 c8 38 82 36 2e 14 40 36 28 a2 44 35 79 83 7b 36
       3.880912e-06 2.8621976e-06 7.325166e-07 3.7478442e-06
0001f0 d7 b6 87 36 ac b3 88 36 0f a2 75 36 6c 91 33 35
       4.044599e-06 4.0740324e-06 3.6602175e-06 6.6894313e-07
000200 58 aa 84 36 16 b0 91 36 2f 00 18 36 dd d8 e6 35
       3.953737e-06 4.341836e-06 2.2649872e-06 1.7199451e-06
000210 c5 ed 08 35 81 53 17 36 27 0f 20 36 26 54 31 36
       5.100995e-07 2.254936e-06 2.3850678e-06 2.6424036e-06
000220 6e 57 19 36 dc 6a fd 34 a6 90 31 36 5b c2 3e 36
       2.2849667e-06 4.7202673e-07 2.6459252e-06 2.8425336e-06
000230 6b 9c 20 37 af 72 cc 36 1b d6 e2 35 45 57 2c 37
       9.573162e-06 6.0930247e-06 1.6900625e-06 1.0272318e-05
000240 20 09 26 37 d6 8f 26 37 86 0d fc 36 72 de d5 35
       9.896496e-06 9.92786e-06 7.5117596e-06 1.5934477e-06
000250 a9 10 2e 37 a7 2c 32 37 3f f8 37 36 c7 65 05 36
       1.0375087e-05 1.0620023e-05 2.7413623e-06 1.9877787e-06
000260 cc 1b 31 35 68 8b 35 36 a6 b2 39 36 38 48 58 36
       6.597809e-07 2.7052247e-06 2.7671135e-06 3.2228545e-06
000270 71 5c 25 36 da 79 24 35 91 f5 56 36 b4 97 63 36
       2.4640724e-06 6.127208e-07 3.2031423e-06 3.3913939e-06
000280 57 c1 86 37 56 37 33 37 a5 7e 4b 36 a1 06 8c 37
       1.6064076e-05 1.0682115e-05 3.0323074e-06 1.6692387e-05
000290 8b 6e 8d 37 37 9f 8f 37 21 ca 6b 37 75 94 3f 36
       1.6859985e-05 1.7121069e-05 1.4054153e-05 2.8547631e-06
0002a0 86 f9 94 37 82 d2 9b 37 48 38 b0 35 07 24 5e 35
       1.7759168e-05 1.8575465e-05 1.3129402e-06 8.275387e-07
0002b0 e9 d8 99 34 24 c5 a4 35 4e bc b3 35 01 1d b9 35
       2.8656294e-07 1.2276328e-06 1.3391343e-06 1.3792015e-06
0002c0 ba 2c 8a 35 0f 3a 95 34 40 50 b0 35 57 a4 c3 35
       1.0294818e-06 2.7795656e-07 1.3136378e-06 1.4576461e-06
0002d0 ef 26 4a 37 0d dd 36 37 ff 30 4d 36 29 07 49 37
       1.2049203e-05 1.0899513e-05 3.05759e-06 1.1982201e-05
0002e0 11 65 59 37 0c f9 56 37 9b fd 61 37 c1 b2 44 36
       1.2957739e-05 1.281338e-05 1.3470092e-05 2.9310324e-06
0002f0 0b aa 55 37 60 ac 69 37 2e d5 29 35 b7 2a fd 34
       1.2735381e-05 1.3928016e-05 6.3267623e-07 4.7156e-07
000300 ca f3 f9 33 5a 4a 1d 35 a1 32 29 35 1f 6e 36 35
       1.1639311e-07 5.8595253e-07 6.303108e-07 6.796053e-07
000310 1f 87 08 35 44 21 fa 33 05 f8 32 35 ed 64 3d 35
       5.0860575e-07 1.1647583e-07 6.6671083e-07 7.0554853e-07
000320 e9 56 bd 34 ca d2 a4 34 21 76 d2 33 de c3 af 34
       3.526723e-07 3.070075e-07 9.8003746e-08 3.2738802e-07
000330 6b 99 ae 34 42 d0 e1 34 88 13 94 34 bb 24 c0 33
       3.2521652e-07 4.2061043e-07 2.758136e-07 8.947378e-08
000340 3d 70 c8 34 dc 5b d6 34 be 95 10 37 27 3b df 36
       3.7334567e-07 3.9927443e-07 8.617933e-06 6.652804e-06
000350 db 67 0a 36 b5 71 0f 37 4b 7b 16 37 24 26 29 37
       2.0624054e-06 8.549939e-06 8.969403e-06 1.0082065e-05
000360 f7 ab 13 37 0e ad 02 36 ce dc 28 37 f9 d1 33 37
       8.8019215e-06 1.947224e-06 1.006499e-05 1.07181195e-05
000370 22 c3 ee 37 a5 33 a8 37 70 cf b8 36 79 31 f8 37
       2.8462677e-05 2.005121e-05 5.507776e-06 2.9586941e-05
000380 fa 9d fc 37 7a f2 f6 37 6b b0 dc 37 b9 c4 ac 36
       3.0114305e-05 2.9438397e-05 2.6308195e-05 5.148901e-06
000390 f5 6e fb 37 ef 65 06 38 1b 48 59 33 e5 e8 91 33
       2.99732e-05 3.2043023e-05 5.058983e-08 6.794452e-08
0003a0 11 33 82 33 cd f7 75 33 8d de 8e 33 74 ef 9a 33
       6.062886e-08 5.726888e-08 6.652872e-08 7.21474e-08
0003b0 a6 81 ca 33 ad 59 87 33 40 4b a9 33 1a 80 b1 33
       9.429941e-08 6.302739e-08 7.883364e-08 8.265506e-08
0003c0 fe 58 94 34 9b 04 8b 34 7c a8 aa 33 79 b6 85 34
       2.7631899e-07 2.5894118e-07 7.946889e-08 2.4905947e-07
0003d0 44 00 89 34 2e 7d cc 34 7f 27 c0 34 b1 e4 a7 33
       2.5518432e-07 3.808904e-07 3.5791524e-07 7.818142e-08
0003e0 09 96 be 34 02 c9 c2 34 f3 9e 84 36 14 c6 16 36
       3.5499423e-07 3.6281568e-07 3.9524107e-06 2.2467038e-06
0003f0 8b 2c 0d 35 09 7e 84 36 1a 6a 89 36 5d 0d 8d 36
       5.259141e-07 3.948579e-06 4.09527e-06 4.203683e-06

exp_avg f4 [128]
000000 f0 4c 5a b7 e3 f7 7c b9 4a 4d f9 38 fe dc 0e b9
       -1.3011726e-05 -0.00024124938 0.000118876414 -0.00013624501
000010 bc b0 0b b9 e5 fa 7d b9 b2 f7 ac 39 fe 0c 78 3a
       -0.00013321912 -0.00024221426 0.00032990944 0.0009462385
000020 2c 78 63 ba 78 02 2c b9 e6 7f 9f 38 3a 0c 5f 3a
       -0.000867727 -0.00016404118 7.605534e-05 0.0008508597
000030 02 98 ac b9 a5 4e 91 b9 b3 71 9a 3a b6 30 8b b8
       -0.0003291965 -0.0002771515 0.0011783153 -6.6371096e-05
000040 30 32 2c ba c9 71 22 b9 63 90 49 3a b8 7a 1b 38
       -0.0006568758 -0.00015491912 0.0007689057 3.706917e-05
000050 39 95 cf 38 22 46 e8 b9 f2 7e c2 3a 8e 9a b4 35
       9.898324e-05 -0.0004430274 0.0014838858 1.3456026e-06
000060 a0 fe 23 b9 b1 1f e9 b9 b5 62 2f ba 35 ba 09 b9
       -0.00015639747 -0.00044464835 -0.00066904287 -0.00013134706
000070 25 d7 6d b8 28 9d c9 b9 06 94 4b 39 0a 85 35 b9
       -5.6705572e-05 -0.00038454798 0.00019414732 -0.00017311066
000080 ee f5 2b b9 e8 db f6 b8 01 cc dc 38 17 7a 1d b9
       -0.00016399447 -0.00011771155 0.00010528416 -0.00015018169
000090 b8 57 86 b7 cc 8e 1a ba df 82 df b9 f1 19 92 b9
       -1.6014892e-05 -0.0005895912 -0.0004263138 -0.00027866618
0000a0 87 30 8e b8 3d 1a 9a b9 65 a4 84 b9 28 11 e9 b8
       -6.7801266e-05 -0.00029392718 -0.00025299485 -0.000111135014
0000b0 af fe b7 b8 c2 20 24 b9 26 7f 19 b9 d8 d5 76 39
       -8.7735585e-05 -0.00015652462 -0.00014638584 0.00023540051
0000c0 88 0f 06 38 10 84 40 3a 39 b4 c9 b6 f9 1e 4d 38
       3.1962554e-05 0.00073438976 -6.0112475e-06 4.8904654e-05
0000d0 85 9f 56 3a 80 dd 93 38 de 6f 8e b8 ec 6f ec 39
       0.00081872224 7.050764e-05 -6.7919245e-05 0.00045096816
0000e0 5d 38 83 3a 71 ac d8 b8 37 e5 8b b9 4c 5f b8 38
       0.0010011304 -0.00010331802 -0.00026682924 8.791554e-05
0000f0 2b f7 7d 35 34 4f 06 b8 e3 5f e0 b9 f5 b0 72 38
       9.460952e-07 -3.2021853e-05 -0.0004279605 5.78621e-05
000100 82 e2 33 37 14 79 0f b8 0e 82 10 ba c2 ee ce 3a
       1.0721969e-05 -3.420662e-05 -0.0005512544 0.0015787708
000110 ff 88 e1 38 38 51 36 39 76 3f d8 b8 60 94 16 b9
       0.000107543536 0.00017387129 -0.00010311503 -0.00014360389
000120 f9 13 98 b9 ff bf 67 b9 60 21 03 b9 17 b8 65 b8
       -0.0002900658 -0.00022101401 -0.00012505567 -5.47693e-05
000130 0b 70 f5 b7 d5 65 52 b9 46 c1 70 b9 1b 74 df 37
       -2.925845e-05 -0.00020065096 -0.00022960184 2.6637737e-05
000140 a9 63 1e b9 89 b5 6d 3a 0d 0a 0f 39 7b 75 94 b9
       -0.0001510518 0.00090678834 0.00013641287 -0.0002831629
000150 c0 2e 12 b9 08 6a 73 b9 53 06 a4 b8 8b 18 8d 3a
       -0.00013941061 -0.00023213786 -7.8213074e-05 0.0010764761
000160 16 a4 53 ba 0f da eb 38 fc fb 05 ba 26 8c 3f b9
       -0.0008073462 0.0001124629 -0.0005111096 -0.00018267389
000170 19 22 18 b9 26 f1 cb b9 85 5c c9 b8 30 3e 23 39
       -0.00014508552 -0.00038898847 -9.60166e-05 0.00015568058
000180 15 eb a2 38 ef 9c 21 38 8f 88 a6 b9 67 15 14 ba
       7.7685494e-05 3.8531547e-05 -0.0003176373 -0.0005648941
000190 36 78 c1 b9 03 fe 8a 38 30 c7 06 39 8f 88 2d ba
       -0.00036901393 6.627666e-05 0.00012853439 -0.0006619775
0001a0 49 3b d5 b9 e9 e1 49 b6 96 d4 fd 39 d5 1a d7 39
       -0.00040670697 -3.008283e-06 0.0004841431 0.00041027987
0001b0 37 b7 f2 39 36 63 e1 b9 bd cc f3 38 6d e6 06 b8
       0.00046294343 -0.00042989262 0.000116252784 -3.216269e-05
0001c0 94 72 21 ba b4 f5 ac b7 d2 e4 29 b9 92 41 3e 3a
       -0.0006158736 -2.0618412e-05 -0.00016202338 0.00072576955
0001d0 60 ec 0f b9 78 0f 00 ba 0d 8d 91 b9 22 41 08 3a
       -0.000137256 -0.00048851175 -0.00027761646 0.0005197694
0001e0 9f f9 ea b8 7f c5 31 b8 a2 2b 18 b9 a5 53 af b8
       -0.00011204485 -4.238402e-05 -0.00014512104 -8.36023e-05
0001f0 82 63 ab 3a 35 3d 8f 38 f2 47 3c ba 68 ad ce b9
       0.001307592 6.830172e-05 -0.00071823515 -0.0003942058
