Assets/Result/SelfPlayEx-2/SelfPlayEx/SelfPlayEx-1499800.pt (torch, 455607 bytes, 41 tensors)

network_body.observation_encoder.processors.0.normalizer.running_mean f4 [10]
000000 2b 72 4c bb e9 e9 b9 37 35 7d 0f b8 8c 49 01 38
       -0.003119598 2.2162641e-05 -3.4210465e-05 3.0824493e-05
000010 36 2c 50 3e 37 30 4b bb 94 6f 32 36 1c e9 3a b1
       0.20329365 -0.003100408 2.6589014e-06 -2.719907e-09
000020 48 6e 5f 37 3b 5f 50 3e
       1.3317513e-05 0.20348828

network_body.observation_encoder.processors.0.normalizer.running_variance f4 [10]
000000 59 06 c7 4b 44 7b b5 4b 8d ef a8 4b 6a 90 eb 4c
       2.6086578e+07 2.3787144e+07 2.2142746e+07 1.2350344e+08
000010 cd 92 85 4b 5c 5f c7 4b 8e 08 b7 4b fd ca a9 4b
       1.7507738e+07 2.6132152e+07 2.3990556e+07 2.2255098e+07
000020 01 52 ec 4c c0 cd 85 4b
       1.2389991e+08 1.753792e+07

network_body.processors.0.normalizer.running_mean f4 [10]
000000 2b 72 4c bb e9 e9 b9 37 35 7d 0f b8 8c 49 01 38
       -0.003119598 2.2162641e-05 -3.4210465e-05 3.0824493e-05
000010 36 2c 50 3e 37 30 4b bb 94 6f 32 36 1c e9 3a b1
       0.20329365 -0.003100408 2.6589014e-06 -2.719907e-09
000020 48 6e 5f 37 3b 5f 50 3e
       1.3317513e-05 0.20348828

network_body.processors.0.normalizer.running_variance f4 [10]
000000 59 06 c7 4b 44 7b b5 4b 8d ef a8 4b 6a 90 eb 4c
       2.6086578e+07 2.3787144e+07 2.2142746e+07 1.2350344e+08
000010 cd 92 85 4b 5c 5f c7 4b 8e 08 b7 4b fd ca a9 4b
       1.7507738e+07 2.6132152e+07 2.3990556e+07 2.2255098e+07
000020 01 52 ec 4c c0 cd 85 4b
       1.2389991e+08 1.753792e+07

network_body._body_endoder.seq_layers.0.weight f4 [128, 10]
000000 29 86 47 3e 8d 9e bb 3d e0 98 e1 bd 93 34 a9 be
       0.19484772 0.091611005 -0.11015487 -0.33047923
000010 0c b5 02 3d 5a ae 02 3f ae ef eb bd b0 ff 9b 3e
       0.03191094 0.5104729 -0.11520325 0.30468512
000020 49 94 9f bd 8c a0 d9 3e 36 26 b9 3d 91 6c e0 be
       -0.07791955 0.425053 0.09040491 -0.4383283
000030 01 d4 d5 bd e6 44 36 3e ae 47 62 3e 04 5a ab be
       -0.10440827 0.1779972 0.22097656 -0.33467114
000040 a1 62 b7 be e6 9d 0d bf f9 6a 41 be cd 65 25 be
       -0.35817435 -0.5531906 -0.18888463 -0.16152115
000050 58 6c 57 3f ad 80 64 3d a6 76 08 3f 75 83 ff bd
       0.84149694 0.055786777 0.53306043 -0.12476245
000060 48 43 1d be 02 59 84 bb fa 80 9b be 1a bd 03 3e
       -0.15357697 -0.004038931 -0.3037184 0.12865105
000070 59 d9 cf 3e 52 48 21 3e 53 b7 4a 3d 70 f3 de 3d
       0.4059551 0.15750244 0.049491238 0.10886276
000080 21 8b f2 bd 04 5b 50 3e 54 70 4c be 3a 6f ae 3e
       -0.11842943 0.2034722 -0.19964725 0.34069234
000090 84 1a f4 3e f5 0e 80 be 8e 60 2e 3e 5f 8d 40 be
       0.4767648 -0.2501141 0.1702902 -0.18803929
0000a0 c6 e8 9f be d6 94 1a 3c 53 27 c4 3e b6 0f 39 3e
       -0.3123228 0.009434899 0.38311252 0.180724
0000b0 b3 7e 21 bb e7 81 da 3e 05 06 2a be 50 10 bc 3e
       -0.002464217 0.42677233 -0.16603859 0.36731195
0000c0 94 e4 eb 3e 88 50 40 3e 9f e2 77 be cd 6a 03 bf
       0.4607283 0.1878072 -0.24207543 -0.5133484
0000d0 2f 40 ab 3d be a2 97 be e0 07 4c bb 3a b3 8e be
       0.083618514 -0.2961635 -0.0031132624 -0.27871114
0000e0 02 53 aa be 38 26 15 be 00 82 c7 bd 2a 44 26 be
       -0.33266455 -0.1456536 -0.097415924 -0.1623694
0000f0 30 2a d1 3e 38 d2 4d be 90 4d f1 be 83 f0 ae be
       0.408525 -0.20099723 -0.47129488 -0.3416787
000100 49 95 08 bf ec b5 ca 3e 28 5a 32 3e 3a 39 c6 3e
       -0.5335279 0.3959192 0.17417204 0.38715535
000110 d1 e9 08 be 2c 1a d4 3e 55 fa 0e 3f 2b 1c 42 be
       -0.13370444 0.41426218 0.55850726 -0.18956058
000120 46 67 c5 3d c4 16 ac be c7 2e 0e be 25 f7 bf bc
       0.096388385 -0.3361112 -0.13885032 -0.023433277
000130 d8 0e b1 be 3c 83 13 3f 82 3c 2f 3e c3 46 89 be
       -0.34581637 0.5762212 0.17112926 -0.268118
000140 35 be 02 bf 5a 1a b4 be 8a 50 07 be c5 5c 03 bf
       -0.5107148 -0.35176355 -0.13214317 -0.5131343
000150 5e f1 15 3f c0 e7 a6 bd 12 59 01 bf 59 69 43 be
       0.5857142 -0.081496716 -0.50526536 -0.19083156
000160 68 db a7 3e 72 9e 56 3e 7d 84 92 bc a1 e5 2a be
       0.3278458 0.2095888 -0.017885441 -0.16689159
000170 3e 7f ba be 1b 0d dc bc ab 99 00 be f8 d4 49 be
       -0.36425203 -0.026861718 -0.1255862 -0.19710147
000180 ea 60 b0 bb 63 7a 03 be ef a5 15 3e f0 db 9e bb
       -0.005382647 -0.12839656 0.1461408 -0.004847996
000190 81 85 e2 3c a2 87 44 3e 5a e6 c5 bd 5d ae 0d be
       0.02765155 0.19192365 -0.09663077 -0.13836046
0001a0 0c 61 31 bd 75 2d b5 3d 33 d0 1e 3e d9 8c 32 bf
       -0.04330544 0.08846561 0.15509109 -0.69746166
0001b0 8e 3d 86 be 2d 57 b8 be 0c ec 0f 3e 7d ec 96 bd
       -0.26218837 -0.3600401 0.14054888 -0.07369325
0001c0 5c 8d c5 3b bb 2c 01 3c 66 19 56 3e 44 bd 63 3e
       0.0060288142 0.0078842 0.20908126 0.22240168
0001d0 23 37 62 be 29 7b ed 3d 5e b4 53 be 31 9b e9 be
       -0.22091345 0.115957566 -0.20674273 -0.45626214
0001e0 e2 69 14 bf b4 9f 87 be e9 af f9 bd ce d3 ed 3d
       -0.57974064 -0.2648903 -0.12191755 0.11612664
0001f0 ee af af 3e b3 d8 55 3e b3 76 ad be b2 a7 79 3e
       0.3431391 0.20883445 -0.33879623 0.24380377
000200 bf 95 0f 3d 70 c2 11 3e 13 04 2d be e5 1e a9 be
       0.03505492 0.14234328 -0.16896085 -0.33031383
000210 26 bb da 3e 69 ed 3d bc 74 ae 56 3e d1 8f 98 be
       0.42720908 -0.0115922475 0.20964986 -0.29797223
000220 7b 2a 2d be 24 58 22 bf f4 3a 3e 3d c5 87 8e bd
       -0.16910736 -0.6341574 0.04644294 -0.0695949
000230 11 43 97 3e 7e ee b2 bd ae 24 74 3e 2e 15 5a bf
       0.29543355 -0.08736895 0.23842117 -0.8518857
000240 8c 14 cd bd f0 59 f2 bd 49 9b f7 bd 6d 76 0a 3e
       -0.10013685 -0.118335605 -0.12090165 0.13521738
000250 20 1c 14 bf d4 1c bb be 15 fd be bd 22 36 df bd
       -0.57855415 -0.36545432 -0.09325615 -0.10898997
000260 c8 78 26 3e b7 70 8f 3e 61 d4 95 3e b2 5d d4 be
       0.16257012 0.28015682 0.29263595 -0.41477734
000270 12 47 87 3d a8 54 f5 3e 04 07 d0 be 81 f0 64 3d
       0.066053525 0.4791615 -0.40630352 0.055893425
000280 e7 00 d8 be 9d 6e 90 bd 29 c7 f1 be 7e 50 17 3d
       -0.42188188 -0.07052348 -0.4722226 0.036941998
000290 25 c1 87 3c 8c 6b 6c be 3d bb a5 be 5c 8c b1 3e
       0.01657159 -0.23087901 -0.32369414 0.34677398
0002a0 36 1a 21 bf 78 a3 32 3e a9 b8 b5 3e f1 bb 5e be
       -0.6293062 0.17445171 0.35492447 -0.21751381
0002b0 ca 56 00 3f 35 5d c6 3e 52 c2 ef 3d de 1c b5 bc
       0.5013243 0.38742986 0.117069855 -0.022108492
0002c0 62 f1 d0 be e7 17 92 be 57 eb 28 3d d4 49 08 3f
       -0.4080916 -0.2853386 0.041240063 0.5323765
0002d0 d9 7f 0d 3d c3 14 03 bf 91 d6 4c bd f6 dd 89 3e
       0.034545753 -0.51203555 -0.050009314 0.26927155
0002e0 5c 61 91 3c 35 a3 c2 3e 8a 69 b2 be 4d 1f 62 3e
       0.01774662 0.38015142 -0.34846145 0.22082253
0002f0 29 35 f4 bc 2b 82 21 bf 6a 3f 48 3d ae 7b 77 3e
       -0.029810505 -0.63089246 0.0488886 0.24168274
000300 4a 87 f4 3e f9 07 99 bd a7 ae 6d 3e 2b f2 4c bd
       0.47759467 -0.07472224 0.23211156 -0.050035637
000310 fb 24 89 3e c0 78 1d 3f c0 fe 6f be 17 6f 06 3f
       0.26786026 0.61512375 -0.23437023 0.5251326
000320 d1 ce 5b 3e f2 cc 09 bd 3c ab 92 3e 79 35 b1 bd
       0.21465613 -0.033642717 0.28646266 -0.08652777
000330 5d 92 22 bf 29 b7 3e be a5 29 4f 3f e8 f0 78 be
       -0.6350458 -0.18624558 0.8092292 -0.24310648
000340 fa 41 ad 3e 3f e0 a4 3d f7 75 16 be 5e d0 0b bf
       0.338394 0.08050584 -0.14693438 -0.5461482
000350 cb 59 31 3e 82 6b b3 3d d4 68 99 3e 42 4d b3 be
       0.1731941 0.0876074 0.2996279 -0.3501988
000360 2e 59 6c 3e cb b5 00 bd 54 57 e2 bc 50 07 cf 3d
       0.23080894 -0.03142337 -0.027629532 0.101088166
000370 ee aa 8e 3e b0 dc 5d 3d 73 47 4a 3c d5 af 98 be
       0.27864784 0.054165542 0.012346136 -0.2982165
000380 ef ea 85 be 1a 94 97 3e 0c 32 12 bf 59 a2 af 3e
       -0.26155803 0.2960518 -0.57107615 0.3430355
000390 a0 60 bd 39 2e bb d9 be 1e 79 12 be 80 8b da bd
       0.0003612088 -0.4252562 -0.14304015 -0.10671139
0003a0 2f 24 fd 3c 8b 9e 8d 3d 86 11 7c 3e b9 48 9b bd
       0.030901043 0.06915005 0.2461606 -0.0758223
0003b0 b9 d1 8a bc f1 62 db bc b5 02 28 3f 34 ce 08 3e
       -0.016945707 -0.026780577 0.6562913 0.1335991
0003c0 cc 59 ab be 9e 0e d6 3e 4d 89 2f 3e 24 fa 4e be
       -0.33466947 0.41808027 0.1714222 -0.20212609
0003d0 27 9b d1 3e e9 34 01 bd ab c5 79 be 18 1d 91 3e
       0.40938684 -0.0315446 -0.2439181 0.2834251
0003e0 17 ec b0 3e f4 ba f0 bd 9f e0 a5 be d6 f8 20 bf
       0.34555122 -0.117544085 -0.32397935 -0.62879694
0003f0 87 91 93 bc dc 72 27 bf cf 77 a3 3e 19 d9 aa be
       -0.018013729 -0.65409636 0.31927344 -0.33368757

network_body._body_endoder.seq_layers.0.bias f4 [128]
000000 87 0a d1 3c 54 86 bf 3b 15 27 31 3d 24 cc 26 3d
       0.025517715 0.0058448706 0.043250162 0.040722027
000010 e6 58 52 3d e4 b0 0e 3d aa 84 24 3d 3c fa 6d 3d
       0.05135431 0.034836665 0.04016558 0.05809997
000020 c8 e0 42 3d c8 ab 76 bc e8 f9 b8 3d d4 ef 87 3d
       0.04757765 -0.015055604 0.09032041 0.066375405
000030 fa ef d7 3c 8a eb c1 3b 3e 49 74 3d 06 08 d2 3c
       0.026359547 0.005917971 0.05964016 0.025638591
000040 fe 7a ca 3c 73 1b b1 ba 33 41 91 3d b4 5f 6b bd
       0.02471685 -0.0013512209 0.07092514 -0.057464316
000050 c4 60 9f 3c f6 0a ad bc 29 de 25 3d 6b 14 df 3c
       0.019455321 -0.02112339 0.04049507 0.027231416
000060 52 e5 45 bd 28 54 be 3c b9 08 79 3d 68 a0 fc 3b
       -0.0483144 0.023233488 0.060799334 0.0077095516
000070 d4 00 4e bc 48 7b a6 3d 3a 8c e0 3c 7f f5 f6 3d
       -0.01257344 0.08128983 0.027410615 0.120585434
000080 0a 17 b7 3d f7 5b de bc 3a 1d c0 3a 17 9d 03 bc
       0.08939941 -0.027143462 0.0014657148 -0.008033059
000090 48 cc c0 3d 5d 25 1f 3d c1 b8 54 3d d9 ab 9b 3d
       0.094139636 0.03885399 0.051934008 0.07601137
0000a0 56 8b e2 bb 39 38 c1 3c d2 d7 3c 3d 0c fb d6 3d
       -0.006913583 0.02358638 0.04610426 0.10497102
0000b0 ba 40 40 3d 9d 39 c1 3d b6 f1 9d 3d f8 07 5c 3d
       0.046936728 0.09434817 0.07712118 0.053718537
0000c0 23 cd de bc c0 32 8b 3d 06 d8 6a bd fa d5 77 bb
       -0.027197426 0.06796789 -0.057334922 -0.003781675
0000d0 63 33 97 3d 12 cb 03 3d 4c 08 1e 3d 96 ad 7e 3d
       0.07382848 0.032176085 0.03858213 0.062177263
0000e0 af 80 a4 3d f8 01 05 bc 7d 7b 9f 3c 9e b9 9c bd
       0.08032357 -0.008118145 0.019468063 -0.07652591
0000f0 82 bf 03 3d 3a de ec 3b f8 71 d7 3c 22 9c c3 3c
       0.032165058 0.00722864 0.026299462 0.02387816
000100 88 94 42 bc 56 06 c5 bc 01 f5 8a 3c 81 09 d6 3d
       -0.011876233 -0.024050873 0.01696253 0.104510315
000110 31 80 88 3c 7a 17 8c 3d a2 ad 3e bd 36 80 00 bd
       0.016662689 0.06840415 -0.046552308 -0.03137227
000120 38 38 09 3d 41 1d b8 3d 77 c9 1a bd 0a ff 85 3d
       0.03350088 0.08989955 -0.037789788 0.065427855
000130 1d e4 ef 3d 5c 03 7a 3d 52 85 6c 3d 72 fa 9c 3c
       0.11713431 0.06103836 0.05774433 0.01916239
000140 3a de 98 3d a4 a2 f4 3c 94 0b cb 3d 73 e4 fb 3c
       0.07464261 0.02986271 0.09914318 0.030748582
000150 0d d0 2f 3d b9 2b e7 3a 60 05 8a 3b 80 af 8c 3c
       0.042923022 0.0017636932 0.0042120665 0.017173529
000160 65 c5 90 3d a8 46 21 bc 8b b5 d3 3b a8 68 e4 3c
       0.070689 -0.009843506 0.0064608506 0.027881935
000170 04 25 ed bc 27 12 8e 3d 47 2a d1 3c e5 ab 30 3d
       -0.028948314 0.06937056 0.025532855 0.04313268
000180 1c fe 2f bd 71 8e 27 bd 23 4a e6 3b 22 7f 40 bc
       -0.042966947 -0.040907327 0.0070278808 -0.011749061
000190 fa c7 2b 3d fd dd de bc be f9 e8 3d a1 be de 3c
       0.04193876 -0.027205462 0.113757595 0.027190508
0001a0 fa fa db 3c 27 cd 60 bc 12 ec 08 3d 32 b1 a7 3d
       0.026853073 -0.013720787 0.03342826 0.08188094
0001b0 fd 8a ef 3d e1 69 cd 3c ae 78 b5 3d 74 4f 99 3d
       0.11696432 0.025074901 0.088609084 0.074858576
0001c0 c0 a5 41 3d 35 aa ca 3c 5a 44 c2 3c 81 d6 37 3d
       0.047277212 0.024739364 0.023714233 0.0448823
0001d0 d9 da 0c 3d 3d d7 25 3c 22 cb 02 3c ef ca 9c 3d
       0.034388397 0.010122118 0.007983001 0.07655894
0001e0 62 e7 13 3d 57 8c d8 3d 67 01 1c 3d a8 79 07 3d
       0.036109336 0.10573643 0.038087275 0.033075005
0001f0 ef 24 83 3d 08 8f 3b bd ef f8 99 3c cc c4 c6 3b
       0.06403529 -0.045790702 0.018795459 0.0060659405

network_body._body_endoder.seq_layers.2.weight f4 [128, 128]
000000 70 49 0d 3d 6a dc 14 bd c5 1c 70 bd e6 ab 25 3e
       0.034493864 -0.036343016 -0.058621187 0.16178855
000010 b1 ff 0e bd b5 a6 e5 bd 27 12 80 3d 0d 38 67 be
       -0.034911815 -0.112134375 0.06253462 -0.22579975
000020 c3 c6 2d bd 99 78 c0 3d 93 b6 ac 3d a8 15 d6 3c
       -0.042425882 0.09398002 0.08433261 0.026133373
000030 b9 fb 17 3d 1b 00 54 3d 8a 42 88 bd 29 4d c5 3a
       0.037105296 0.051757913 -0.06653316 0.0015052903
000040 f1 f4 ef 3b a1 62 9d bc a0 12 d8 bd a0 b3 75 3d
       0.0073229005 -0.019212069 -0.105504274 0.059985757
000050 65 c0 91 be 39 13 f8 3c 00 9c dd bc de da 26 ba
       -0.28467098 0.030282604 -0.027051926 -0.0006365011
000060 98 f9 a3 3c 8a 3d a9 3d 40 cc 1a 3e 4d b6 54 3d
       0.020016477 0.08263691 0.15116978 0.051931668
000070 ab e5 69 bc 57 d0 42 3c db d1 cd 3c 52 88 bb 3c
       -0.0142759485 0.011890492 0.025124481 0.022892151
000080 e8 66 be bd d6 2a 06 3e 01 98 43 3e ad 4b 1a bd
       -0.092969716 0.13102278 0.19100954 -0.037669826
000090 8d 76 09 bd 47 fc b0 3d 47 e8 f1 3d b2 74 ab 3d
       -0.033560324 0.08641868 0.118118815 0.08371867
0000a0 63 04 f4 3c 4f 0e 6c 3d 3a dd d7 3d ec fb 06 be
       0.029787248 0.057630833 0.105402425 -0.13182038
0000b0 e0 83 0e bc 2f df c1 bc 8e e4 ac 3d 9a 57 50 3e
       -0.008698434 -0.023665993 0.08442031 0.20345917
0000c0 a2 6f c4 bd 4d 39 55 3d d4 de de bd bc a8 88 3d
       -0.09591605 0.0520566 -0.10882345 0.066728085
0000d0 f8 13 44 bd 4b 79 76 3d e1 10 76 bd f8 4e c8 bd
       -0.047870606 0.060174268 -0.06007469 -0.09780687
0000e0 5e ad ac bd 96 3f f9 3d 98 20 0a 3e 42 73 0f be
       -0.08431505 0.12170331 0.13488996 -0.14008811
0000f0 46 8b b8 bd 00 3c 0c 3e 8d 31 29 3e 49 af 0a bd
       -0.09010939 0.13694763 0.16522808 -0.03385857
000100 29 07 f0 3c c5 48 b1 3d 15 e9 e3 ba fb c6 be bb
       0.02930029 0.08656458 -0.001738819 -0.00582206
000110 1c ea a4 3d 15 3c e3 bd 9f fd b5 3d 96 48 0c bd
       0.08052465 -0.11095444 0.08886265 -0.03424891
000120 7d 63 b2 3d e4 84 76 3c cd 90 13 3e 36 22 09 3e
       0.08710382 0.015046332 0.14410706 0.13391957
000130 69 01 b7 3d 88 e0 e3 3d 8f f3 fa bc f0 e1 b5 bb
       0.08935816 0.1112681 -0.030633716 -0.0055506155
000140 45 1b a7 bd 3b f0 a8 bd 03 d7 4d be 5d 48 49 3e
       -0.08159498 -0.08248945 -0.20101552 0.1965651
000150 60 79 6e 3c b9 fb 83 ba 1e 4e ee bd 61 8b f5 bd
       0.014555305 -0.0010069526 -0.116359934 -0.11989475
000160 7c 0a 89 3b be 7d 9f bd 67 0d 0a 3c 0c ce 07 3e
       0.004182158 -0.07787655 0.008426047 0.13262194
000170 c7 c9 63 3e 98 69 e6 3d d2 9e 57 3c 11 e3 d6 3c
       0.2224494 0.11250609 0.013160424 0.02623132
000180 b6 63 5a 3d 38 4a b3 3c 4c b6 11 3e 23 dc a6 bd
       0.053317748 0.021885976 0.14229697 -0.081474565
000190 08 6e 85 3d 90 d3 4e be f9 07 9f bc 27 c9 a7 bc
       0.065151274 -0.20197892 -0.019412981 -0.02048166
0001a0 99 53 a5 3d 38 5f 65 3c 1b e1 85 bd c5 de ec 3c
       0.080725856 0.013999753 -0.06537076 0.028914819
0001b0 b0 03 a1 bb 2e 91 4c bd 3f df 19 3d 39 a2 08 bd
       -0.0049137697 -0.04994314 0.03756642 -0.033357833
0001c0 3c e9 c3 3d 40 f2 d6 3c a1 5e 8b 3d 29 bd 8d 3d
       0.0956597 0.02623856 0.068051584 0.06920845
0001d0 4c be a3 bd c1 64 21 3e c8 56 86 bd 55 72 ef bd
       -0.079952806 0.15761091 -0.06559521 -0.11691729
0001e0 78 d6 bb bd 32 8b 83 bc f2 2d ed bd ef 10 82 bd
       -0.09171766 -0.016057584 -0.11581029 -0.06350886
0001f0 21 4f 0b be e5 a5 93 bd 2e ae bb 3c 54 cb f1 3d
       -0.13604404 -0.07209376 0.022910204 0.1180636
000200 07 a2 99 bd d7 b8 a9 3d 8c 6f 21 3d df c0 ad 3c
       -0.075016074 0.082872085 0.03941302 0.021210132
000210 94 7a a9 3d 88 d4 96 bd 95 84 57 bc 08 eb da bd
       0.08275333 -0.07364756 -0.013154169 -0.1068936
000220 c8 3e ca bd 91 b1 45 bd 68 13 0a 3e 39 15 2f 3e
       -0.09875256 -0.048265044 0.13483965 0.1709794
000230 ed 5e 3e 3e 5c 76 04 3e a6 17 08 bd ce 25 a7 3c
       0.18590899 0.12935776 -0.033225678 0.020403769
000240 01 89 7b bd 75 60 0d bd 9c f8 75 bc 8e 44 01 bd
       -0.061409954 -0.034515817 -0.015012886 -0.03155952
000250 cf e7 2c 3c cf 0d 74 be 5b 78 95 3d d8 c6 c4 3c
       0.010553314 -0.23833393 0.072983466 0.024020597
000260 f5 a9 dd bd 48 7a 52 be df e7 13 be b7 8f fe bc
       -0.10823432 -0.20554459 -0.1444392 -0.031074388
000270 4e d0 03 3e 97 f8 43 bd 04 64 b8 bd 06 b6 9f bd
       0.1287243 -0.047844496 -0.090034515 -0.0779839
000280 d3 82 08 3e 77 77 46 3e 14 43 0b be 9e 83 a5 3d
       0.13331155 0.1938151 -0.13599807 0.080817446
000290 b1 57 17 3e 27 72 9a 3c a4 78 0b 3e b8 3f 70 bb
       0.14779545 0.01885326 0.1362024 -0.0036659073
0002a0 84 54 ae 3d 34 fa a9 bc 1d 75 41 bd 8a ec 2e bd
       0.08512214 -0.020749189 -0.04723083 -0.04270605
0002b0 ae 74 c7 bd 65 92 ee 3d 37 b1 bc 3d 4b 53 a4 3d
       -0.09739052 0.11649016 0.092134885 0.080236994
0002c0 bc c9 e0 bc 78 44 a0 bd 53 6e 3c 3e e0 1f 53 3d
       -0.027439944 -0.078255594 0.1840146 0.05154407
0002d0 c2 65 df 3d e9 41 43 bd 41 a4 fc bd 04 a5 25 be
       0.10908081 -0.04767028 -0.123360164 -0.1617623
0002e0 cf 86 54 be 18 cc 8d 3d 0c 3f 10 3e 88 0d 12 bd
       -0.2075455 0.069236934 0.1408655 -0.035657436
0002f0 15 ec ae ba b2 6d 21 3e 85 23 09 be 21 b6 d1 bb
       -0.0013345504 0.15764502 -0.13392456 -0.0063998853
000300 77 61 6e 3d 63 86 10 bd 68 e6 14 be 05 9d e2 3c
       0.05819842 -0.03528441 -0.14541018 0.027662763
000310 25 f8 80 3d 5f 1f 00 bd c7 1a 36 bd 9a 03 07 bd
       0.0629733 -0.031279918 -0.04445913 -0.03296242
000320 89 1b 98 bc 14 12 78 bd 9b dc 9e bd c3 fb c7 3d
       -0.018567817 -0.060564116 -0.07756921 0.097648166
000330 c1 6a 8b 3d 01 52 67 3b d8 a9 75 bd bf d5 f5 bd
       0.06807471 0.003529668 -0.05997643 -0.120036595
000340 8d 0e cb bc a3 a9 d3 3d de a1 2f bd 5a 29 0f be
       -0.024787212 0.1033509 -0.042878978 -0.13980618
000350 54 15 8c 3c e1 ef ea bd 5d 85 3e 3d 1f 8e 50 bd
       0.017100014 -0.114715345 0.046513904 -0.050916787
000360 2a aa ea 3c 81 ee e4 3c 26 b0 1a bd 18 74 e9 bd
       0.028645594 0.027945759 -0.037765644 -0.11399096
000370 e6 de 13 be 2f 57 42 3d 5c 0a 1e 3e 49 19 3a bd
       -0.14440498 0.047446426 0.1543364 -0.04543427
000380 68 9d 31 bd 9a 49 94 3c c1 2f 0d be 24 a6 64 3d
       -0.043363005 0.018101502 -0.13787748 0.055822507
000390 7c 55 e5 bc e5 4a 13 3c 9d e4 5d 3d 5b 31 e7 bc
       -0.027994864 0.008990024 0.0541731 -0.028221777
0003a0 e8 0e 45 bd 1c 99 bb bd a5 e8 94 3c 92 86 a2 3a
       -0.04810992 -0.09160063 0.01817734 0.0012399724
0003b0 34 a2 5a bd 91 ba 53 3e 39 9a d7 bd c5 a2 f0 bc
       -0.053377345 0.20676638 -0.105274625 -0.02937449
0003c0 c7 e6 d3 bb ad c1 25 3d 19 b9 af 3d 40 f1 44 3d
       -0.00646672 0.040467907 0.085802265 0.048081636
0003d0 f4 2e 64 3d d0 78 9f bd e6 59 5c bd 21 28 75 3d
       0.05570884 -0.07786715 -0.05379667 0.059852723
0003e0 79 a1 44 bc 2c fd 65 3e 52 f8 39 3d a1 b5 da 3c
       -0.012001389 0.22459859 0.045402832 0.026697936
0003f0 ff 3b a5 bd f6 ca 87 bd 86 4b 45 be 20 74 28 bd
       -0.08068084 -0.066305086 -0.19267091 -0.04112637

network_body._body_endoder.seq_layers.2.bias f4 [128]
000000 64 0b ab bc 28 12 eb 3c 73 f5 1d 3c 4c 43 46 3d
       -0.020879455 0.028695181 0.009641039 0.048404023
000010 52 18 01 3d 85 3f 62 3d 00 63 0f 3c 07 eb 30 3d
       0.031517334 0.05523636 0.008751631 0.04319289
000020 50 bb 78 3b c5 02 aa 3d 3b d3 e1 3c c3 cb b0 39
       0.0037953444 0.083013095 0.027566543 0.0003372115
000030 d9 25 98 3d d0 91 3f 3d ee 29 90 3d c1 81 3a 3d
       0.07429094 0.046769917 0.070392475 0.0455339
000040 b6 3f ce 3c ff b8 4e 3d 3b 9a ef 35 c3 a8 93 bb
       0.025176864 0.050469395 1.7851775e-06 -0.004506202
000050 ab a3 96 3c a5 85 96 3c b7 a4 7a 3d 58 cd 3e 3c
       0.01838859 0.018374274 0.06119224 0.011645637
000060 21 a2 5b 3b 63 56 09 3d 66 39 a0 3d ae 3c fb 3c
       0.0033513384 0.03352965 0.07823448 0.030668583
000070 67 c6 98 3d 20 f2 99 3d f1 a0 c2 3d 78 e5 3e bd
       0.07459717 0.07516885 0.095033534 -0.046605557
000080 08 45 83 3d 12 0b b3 bb 0b 0f 9a 3c 5d 22 45 3c
       0.06409651 -0.005463966 0.018806001 0.012032119
000090 10 1f ed 3c e2 fd 8e 3d 57 5f de bc 63 72 96 3d
       0.028945476 0.06982018 -0.027145071 0.07346036
0000a0 1d b5 65 3d c5 00 33 3d 38 2d 8f bd 1d b1 e7 3d
       0.056080926 0.043701906 -0.06991047 0.113130786
0000b0 d3 d9 bb bb 0f db 44 3c 12 2a b3 3d b5 26 fc 3c
       -0.005732754 0.012015118 0.08748259 0.030780176
0000c0 7b 0a 8d ba 48 81 51 bc 47 7c 44 3d 8c 4a 7b 3c
       -0.001076057 -0.012787171 0.047970083 0.015337598
0000d0 18 82 af 3c a4 a5 1d bc 04 d6 f2 3c d4 16 13 3d
       0.021424338 -0.009622011 0.029643066 0.035910442
0000e0 a2 e1 29 bd 3d 9c 9f 3b 67 bf bf bb 6c 6a 6b 3d
       -0.041474946 0.00487092 -0.0058516744 0.05747454
0000f0 ec ed 86 3d e5 6c 35 3d ed 03 84 3c 53 3d 20 3d
       0.06588349 0.044293303 0.016115153 0.039120983
000100 9e 46 0b bb 6f 00 7f 3d bf 8f 84 3d c3 02 88 3d
       -0.0021251808 0.062256273 0.0647273 0.06641152
000110 9a f1 c0 3c 19 9c 6a 3d ea 3f 1d bc 3c a9 cb 3c
       0.023552705 0.057277773 -0.009597758 0.02486097
000120 d4 d8 7d 3c 32 9d 9e 3d 1c 4f 13 bc f0 e1 85 3c
       0.01549359 0.077448264 -0.008991029 0.016343087
000130 26 c0 51 3d 48 ca 36 3d 16 7a 42 3d ce 45 ae 3d
       0.051208638 0.044626504 0.04747971 0.08509408
000140 ed de f6 3c be e4 3a bd 54 58 f6 3b aa 1e 00 3d
       0.030135596 -0.0456283 0.0075178538 0.031279244
000150 6e 52 6f 3d 48 34 68 3d dc ce 12 3d ee c9 3c 3d
       0.05842822 0.056690484 0.035841808 0.046091013
000160 d6 4e 1a 3d be ba 07 3d 6b 58 81 3a 3a 41 b0 3c
       0.03767284 0.033137076 0.000986827 0.021515477
000170 03 5f aa 3c 69 b5 91 3c 37 85 ad 3d 4c 54 33 3c
       0.020797258 0.017786698 0.08472674 0.010945391
000180 85 07 26 3d da 06 a5 3d c4 14 ba bc ae a9 55 3c
       0.040534515 0.080579475 -0.02271498 0.013040943
000190 48 69 15 3c 1d 15 09 3d 85 f7 85 3d e7 b3 17 39
       0.009119339 0.0334674 0.06541351 0.00014467501
0001a0 4f d7 d0 3d 4d 62 07 3c a6 6e dc 3c b7 70 54 bd
       0.10197317 0.008263183 0.02690823 -0.051865306
0001b0 23 29 c4 3c 4d 58 77 3d 37 3e c4 3c 39 a2 9d 3d
       0.023945397 0.060386945 0.023955448 0.07696957
0001c0 92 0e 69 bb b2 37 4b bd 2a 7b ea 3c b4 91 57 3d
       -0.0035561663 -0.049613662 0.028623182 0.052629188
0001d0 42 27 3a 3d 56 7a 5a 3c 66 35 ad 3c 69 80 40 3c
       0.045447595 0.013334831 0.021143626 0.011749365
0001e0 a5 95 87 3d 06 67 c5 3d 26 63 a1 3d 4d 50 89 3d
       0.06620339 0.09638791 0.07880239 0.06704769
0001f0 aa a5 f8 bc b5 63 2f 3d e2 dd 99 bc 26 85 4e 3d
       -0.030352432 0.042819697 -0.01878256 0.05041995

action_model._discrete_distribution.branches.0.weight f4 [3, 128]
000000 0b 0a a1 3c a6 a3 6e 3a 34 3c 02 3d 7b 38 d5 3c
       0.01965811 0.0009103365 0.031795695 0.026027909
000010 03 81 f3 3c 54 74 82 3c c9 a1 99 3a 77 5b ae 3c
       0.029724604 0.01592461 0.0011721189 0.021283848
000020 d3 7e a4 bd b6 75 70 3d ab a4 04 3d c0 7e b8 3c
       -0.08032002 0.058706008 0.032383602 0.022521377
000030 bc 7c 8e 3c 3e 5f 98 bc 46 06 05 3d ed 6a df 3c
       0.017393462 -0.018600103 0.032476686 0.027272666
000040 5c c9 71 bc 37 92 5a bb 7c ac b6 bb c5 f2 4a bb
       -0.0147574805 -0.003335131 -0.005574761 -0.0030967456
000050 f7 1b d3 3c 07 ce 0f bc db a4 42 3d ef b0 61 bd
       0.02577017 -0.008777148 0.0475205 -0.055100378
000060 7a cc 71 bc 99 17 8e bb 25 8e 7a 3d 86 16 2b 3d
       -0.014758224 -0.004336309 0.061170716 0.041769527
000070 b4 4a b3 3c be b9 51 3d 0c 9e 78 3d 67 5b a6 bc
       0.021886207 0.05120253 0.0606976 -0.020307256
000080 90 a1 03 3d 02 f7 87 bb ce 16 10 3c f4 35 82 3c
       0.0321365 -0.0041493187 0.0087945 0.015894867
000090 17 ae fd 3b 24 e1 4f 3d 89 e4 ce bb 40 fa ef 3c
       0.0077417004 0.05075182 -0.0063138646 0.029294133
0000a0 ff 04 45 3d 9c 83 52 3d 4f 99 f1 bc 97 fa cb 3d
       0.048100468 0.051395044 -0.029492049 0.099599056
0000b0 f4 44 aa 3c 2b 72 93 3c a7 e5 92 3d 44 c8 08 be
       0.020784833 0.017998775 0.07172709 -0.13357645
0000c0 23 fa de 3b f3 bd a0 3b 26 fc 2a 3d 95 fa 57 3c
       0.006804721 0.004905456 0.041744374 0.013182302
0000d0 ed d3 bc 38 e2 7e a8 bc bb 7f 1b 3d 3e 95 08 3c
       9.004013e-05 -0.020568315 0.03796361 0.008336363
0000e0 77 55 55 bd 74 58 c4 3c a5 a1 00 3d ff cf 7a 3c
       -0.05208346 0.023967959 0.031404156 0.015308379
0000f0 de f8 13 3d 07 57 a9 3d 13 ff ae bd 32 99 17 3d
       0.03612601 0.08268552 -0.08544745 0.037011333
000100 65 a7 ff bc 91 34 0c 3d 79 b8 92 3c 9e 59 ea 3c
       -0.03120775 0.03422982 0.017910229 0.028607186
000110 4c 60 b8 3c bf d7 85 3c b9 1c d9 bc a9 51 e9 b9
       0.022506855 0.016338227 -0.026502954 -0.00044502065
000120 16 34 90 3c 14 69 f9 3c 7f 33 30 3c cf d7 1f 3c
       0.017602962 0.030445613 0.010754465 0.009756043
000130 25 d4 b4 3c 6a b9 ec bc 03 16 2e 3b e6 79 28 3d
       0.022073815 -0.028897006 0.0026563413 0.041131876
000140 f8 74 da 3c 20 71 4a bc 18 dd 13 3d 6a 52 b7 3c
       0.026667103 -0.012356073 0.036099523 0.022378165
000150 a8 e3 3d 3c c8 44 75 3d c1 0e 48 bd da 81 4f bc
       0.011589922 0.059880048 -0.048842195 -0.012665236
000160 cf 86 0a 3d 06 2c 20 3d 2f fe 5a 3c 00 82 83 3c
       0.03381997 0.039104484 0.013366266 0.0160532
000170 cf df 6b 3c 89 43 ac 3c 73 a7 31 3d 16 1c ee 3c
       0.014396622 0.021028297 0.043372583 0.029066127
000180 f7 69 a5 bb 05 b1 22 3d 55 83 68 3c 75 15 c0 bb
       -0.0050480324 0.0397196 0.014191468 -0.005861933
000190 c4 bc 71 bc dd 8b 90 3c c0 20 95 3d 72 fe bd 3c
       -0.014754478 0.017644817 0.07281637 0.023192618
0001a0 57 93 e9 3c b0 0b ad 3c d0 1a 24 bd 8d 32 b3 bc
       0.02851264 0.021123737 -0.040064633 -0.02187469
0001b0 2d 38 44 3c 6c 56 15 3d 39 6b 20 3d 37 70 82 3d
       0.011976284 0.03645937 0.039164755 0.063690595
0001c0 28 5f f4 bb 62 24 df bc 6b 73 24 bc 79 0c 99 3c
       -0.0074576326 -0.027239028 -0.010037283 0.018682705
0001d0 2e 5d a5 bc 6d f5 3a 3c ac 06 0c 3d fb c4 c6 3c
       -0.020186033 0.011411053 0.03418605 0.02426385
0001e0 25 68 97 3b 3e 5b fc 3c 98 71 2c 3d a3 92 96 bc
       0.0046205693 0.030805226 0.04210052 -0.018380469
0001f0 c8 ea 9a bc fa 6e f3 3c 75 1d 6d bd 55 22 84 3c
       -0.01891078 0.029716004 -0.05788942 0.016129652
000200 16 56 b6 3c a5 55 02 bc 56 6d 33 3d 65 5b d4 bd
       0.022257846 -0.00795499 0.043805443 -0.103689946
000210 2a af 20 3d e3 36 0b be 42 2d cc 3d 0e 50 cb bd
       0.03922955 -0.13595156 0.0996957 -0.099273786
000220 ca 4e 44 3b 2b f0 fe bd 48 a1 93 3d 3d ec 1b 3d
       0.0029954189 -0.12448152 0.07208496 0.03806709
000230 ef bb e3 bd a0 c4 43 bd 8e bc cb bd fb ba ad bd
       -0.1111983 -0.047794938 -0.09948073 -0.08482929
000240 c6 d9 cf bd 19 42 f1 bd 02 9d 59 3d b5 54 bf 3d
       -0.10148959 -0.11780185 0.05312825 0.093423285
000250 9c 21 6f 3d cf 63 4b bd 5b 8b 12 bd ed bd 7c 3c
       0.05838166 -0.04965573 -0.03577743 0.015426141
000260 05 00 c9 3d 9c f5 9a bd 85 cd 08 be 76 f4 0b 3d
       0.09814457 -0.075663775 -0.1335965 0.034168683
000270 67 20 99 bd 01 e4 dc bd f3 34 eb bd f5 b4 de 3c
       -0.074768834 -0.10785676 -0.11484709 0.027185896
000280 af 6b f2 bd da 67 78 3d e8 3b 46 3d 82 af 82 3d
       -0.11836945 0.060645916 0.048396975 0.06381132
000290 ca a1 b6 3d 7d 84 b5 bd 01 97 35 3d 22 8b fe bd
       0.089175776 -0.08863161 0.04433346 -0.12428881
0002a0 77 2f bd bc d1 e3 87 3c 93 74 1b 3d 6c 22 13 be
       -0.023093922 0.016588124 0.03795297 -0.143686
0002b0 71 e5 5d 3d 5d 9e 84 3d 53 ed b5 bd 3c 21 0d 3d
       0.05417389 0.06475518 -0.088831566 0.034455523
0002c0 4a e6 df bb 2b bd 29 3d 44 c7 5f bd c4 fd 9d 3d
       -0.0068328725 0.04144017 -0.054633394 0.077144176
0002d0 7a ed cb bc 79 54 85 3d 45 e9 76 3c 32 44 a0 bd
       -0.024893511 0.065102525 0.015070264 -0.07825507
0002e0 b4 93 81 3c a7 a1 12 3d cd 60 e5 3c df bf d1 bd
       0.0158175 0.035798695 0.02800026 -0.10241675
0002f0 36 0a be bd 8c 81 57 bd 5c 29 11 bc 7d 09 0c 3d
       -0.09279291 -0.05261378 -0.0088599585 0.034188736
000300 4a 47 e8 bc c9 aa eb bd 35 02 e2 bd e2 07 ed bd
       -0.028354306 -0.11507184 -0.11035577 -0.11573769
000310 79 43 97 3d 4a cf 80 3d 82 d6 7c bb ac c8 b3 3d
       0.07385916 0.06289537 -0.0038580005 0.087785095
000320 b4 ac 78 3d 57 69 94 bd e9 c2 70 3d 60 89 1a 3d
       0.060711578 -0.072466545 0.05877963 0.037728667
000330 ef 65 40 bd 09 fa 6b bd 1d b3 d0 bd c4 bc 08 be
       -0.04697221 -0.0576115 -0.10190413 -0.13353258
000340 47 0e 08 3d 71 fd 2a 3d eb 19 de 3c 44 19 40 3d
       0.03321674 0.041745607 0.027111968 0.046899095
000350 b1 23 fe bd f4 05 99 3c a4 6d f8 bc cd 2a a0 bd
       -0.12409151 0.018679596 -0.030325718 -0.078206636
000360 75 9a 24 3c c0 50 c0 3c cc f9 82 3d 53 d4 b1 3d
       0.010046591 0.023476005 0.06395301 0.08683076
000370 04 fc 8e 3d 31 c6 24 3d 25 88 05 be f6 3a 1d 3d
       0.06981662 0.040228073 -0.13040216 0.038386308
000380 3d f6 97 bd 87 8b c1 bd ac 7d 0d 3d 91 3f 80 3d
       -0.07420013 -0.09450441 0.03454368 0.06262124
000390 c0 d6 41 bb db e0 9c 3d 6b 9b 83 3c f1 3b c1 3c
       -0.0029577464 0.07660075 0.01606532 0.023588153
0003a0 22 ca e1 bd b0 e7 03 3d f8 02 57 bd 01 9d 1e 3d
       -0.11024882 0.032203376 -0.052493066 0.03872395
0003b0 a3 3c ac 3d 45 9f e1 bd 9c 7f 27 3d c1 51 85 bd
       0.08410003 -0.110167064 0.040893182 -0.06509734
0003c0 c9 b8 83 3d b4 53 89 3c 15 d2 91 bd c5 60 a6 bd
       0.06431729 0.016763546 -0.07120148 -0.08123926
0003d0 b9 a1 bf bd e3 cb 85 3b 19 40 d7 3c 41 25 68 3d
       -0.09357018 0.004083143 0.026275681 0.056676153
0003e0 cd 0c 10 be 84 39 ef bd 2e 26 6c bd 48 6e e4 bd
       -0.14067383 -0.11680892 -0.0576536 -0.11153847
0003f0 63 97 59 3d 3b 3e 64 3d d8 54 fd 3c 84 80 b7 bd
       0.05312289 0.05572341 0.030924246 -0.08960059

action_model._discrete_distribution.branches.0.bias f4 [3]
000000 59 86 4c 3d fd c0 55 bd 30 e5 a8 bb
       0.04993281 -0.052186 -0.0051542744

exp_avg f4 [128, 10]
000000 77 72 cc b6 90 1a 6c 39 22 e8 48 2f 9b 32 be b8
       -6.0929992e-06 0.00022516609 1.8272364e-10 -9.069332e-05
000010 5f 7d 80 37 f9 17 d6 37 3d 7f 88 39 64 8e 82 28
       1.531717e-05 2.5521951e-05 0.0002603474 1.4494651e-14
000020 ee 5f 80 b8 da 63 4d 38 6b b7 57 37 a2 ee 5d b9
       -6.121384e-05 4.8968803e-05 1.2857704e-05 -0.000211651
000030 be 00 e5 30 79 4b d1 b7 f6 4d d4 37 98 7d 64 b8
       1.6662154e-09 -2.4949886e-05 2.5308673e-05 -5.4476404e-05
000040 68 da da b8 47 cd 14 2a 14 58 14 39 b2 2b ca b8
       -0.000104357314 1.321626e-13 0.00014147192 -9.6402495e-05
000050 9b 43 40 b7 83 f0 6f 38 3c 48 30 b0 0f 70 2d b8
       -1.1459832e-05 5.7206034e-05 -6.413108e-10 -4.1350777e-05
000060 e1 cf 80 b7 22 67 31 38 d6 4d 82 38 6a 17 65 a9
       -1.535559e-05 4.229614e-05 6.213381e-05 -5.0868523e-14
000070 1a ec cf b7 13 5d 1f 38 bd 9e f5 b8 af b5 8b 39
       -2.4786266e-05 3.7995236e-05 -0.00011712078 0.0002664751
000080 16 bb 95 30 d7 e0 ce 37 7d 10 7b b8 76 0c ed b7
       1.089435e-09 2.4661813e-05 -5.985842e-05 -2.8258404e-05
000090 a1 e2 96 39 27 97 c2 29 b2 e3 02 b9 51 bc eb 38
       0.0002877908 8.6415514e-14 -0.00012482589 0.0001124075
0000a0 3f a3 47 38 69 05 32 b7 e6 83 90 b0 fb e3 88 b8
       4.7597332e-05 -1.0610886e-05 -1.0514867e-09 -6.52745e-05
0000b0 c9 41 1d 38 8f 14 98 b7 d9 99 12 b9 9b cf bb a9
       3.7492984e-05 -1.8129385e-05 -0.00013980958 -8.340482e-14
0000c0 8d b8 15 b9 69 05 ec b6 d8 3c d7 b8 1c cf 3b b9
       -0.00014278498 -7.033978e-06 -0.00010263332 -0.00017910864
0000d0 09 5d cb 30 43 65 4e 37 23 6c c8 b8 0a 38 29 b9
       1.4796636e-09 1.2302134e-05 -9.556885e-05 -0.00016137972
0000e0 c7 d1 ea b8 41 24 04 2a 7e a5 c3 37 b5 21 5e b9
       -0.000111970636 1.1736533e-13 2.3322875e-05 -0.00021184127
0000f0 3e 3a 26 b7 18 11 c1 39 e5 6d cc ae 88 b6 06 b6
       -9.907932e-06 0.00036824564 -9.296367e-11 -2.0073803e-06
000100 fc d7 68 b4 f2 04 bb 38 62 97 eb 39 b7 ca 04 a8
       -2.1685258e-07 8.917776e-05 0.00044935482 -7.371429e-15
000110 00 a3 0b 37 1f 88 fc 38 b9 2d 7e 38 67 78 c5 38
       8.322997e-06 0.00012041651 6.06009e-05 9.416119e-05
000120 c1 d9 4a b1 fe c0 cf b7 db 97 18 b7 37 85 77 39
       -2.9518648e-09 -2.4766192e-05 -9.095263e-06 0.00023605382
000130 ee 66 65 38 13 cf 83 aa c8 f2 9c 36 e1 cd 3e 39
       5.4693715e-05 -2.341396e-13 4.6774257e-06 0.00018196508
000140 14 0f 0a b9 6d 2c 8f b9 11 86 86 31 76 70 a3 37
       -0.00013166323 -0.00027308185 3.915155e-09 1.9483483e-05
000150 f4 cf 07 b9 21 d4 bf b9 46 36 b0 b9 78 d2 ae 2a
       -0.00012952072 -0.00036588407 -0.00033609773 3.105465e-13
000160 8c ba 3c b9 3a fd e6 b9 f4 52 8e b8 bf 92 51 b9
       -0.00017998571 -0.00044057687 -6.786539e-05 -0.0001998646
000170 6f 85 81 30 ea b7 31 b8 9c 4d 90 b8 c0 df d7 b8
       9.423909e-10 -4.2371372e-05 -6.880911e-05 -0.000102936756
000180 69 39 54 b9 ee 51 a8 29 cb 4b 6b 36 35 ef 28 b9
       -0.00020239282 7.474911e-14 3.5061846e-06 -0.0001611084
000190 2e 0c bf 38 74 c6 d0 39 5b c2 9a 2e ae f4 6e b8
       9.1098584e-05 0.0003982071 7.037634e-11 -5.6971498e-05
0001a0 95 49 e2 38 d4 bd db 38 3a f6 b6 39 8c 3d c9 27
       0.000107902255 0.00010478092 0.00034897198 5.5855436e-15
0001b0 1a 04 16 b9 ce 8f 87 39 87 da 22 39 ec ed 41 3a
       -0.00014306643 0.0002585635 0.00015530932 0.0007397819
0001c0 ee a5 82 b1 ff a8 52 39 4a b0 00 39 4d 62 a7 39
       -3.802362e-09 0.00020090117 0.00012272704 0.00031925962
0001d0 c3 97 36 3a e6 c8 a9 aa f1 34 ad b8 d6 57 ce 39
       0.0006965363 -3.0159832e-13 -8.259144e-05 0.00039356825
0001e0 e4 36 b0 38 df 9b 4e b9 6b e2 1a 30 d6 e2 c6 b7
       8.402558e-05 -0.00019703757 5.6346633e-10 -2.3709068e-05
0001f0 24 49 7e 38 69 ff 47 b8 b4 aa 85 b9 06 46 49 29
       6.0626437e-05 -4.7683166e-05 -0.0002549492 4.46917e-14
000200 15 24 51 b8 04 19 14 b9 8f cd 0b 38 b4 75 97 b9
       -4.9863087e-05 -0.00014123699 3.3331624e-05 -0.0002888866
000210 0d a7 87 30 2e 8e e3 b8 b0 7d b4 b6 fb fc c8 b8
       9.870021e-10 -0.000108506865 -5.37905e-06 -9.5838644e-05
000220 f5 a3 8a b9 71 49 b0 29 ad 8a 21 38 be e4 50 b9
       -0.0002644357 7.82871e-14 3.8514543e-05 -0.00019921639
000230 74 4a 76 39 74 c7 44 3a 2d 29 d4 b0 c1 02 51 39
       0.00023488124 0.00075065275 -1.5436733e-09 0.00019932819
000240 eb 34 89 39 61 22 99 39 80 e6 41 3a af da 09 aa
       0.00026170103 0.00029208048 0.0007396713 -1.2243915e-13
000250 21 04 83 38 8f 34 d0 39 8e 87 10 3a cb ea 38 ba
       6.247336e-05 0.0003971201 0.0005513363 -0.000705403
000260 75 84 4a b1 75 bc e8 b9 4f e6 ad 39 c4 43 dd 39
       -2.9470162e-09 -0.000443909 0.00033168725 0.00042202894
000270 d3 fe 2b ba 52 98 83 aa b7 0d 9b 39 31 5e 17 39
       -0.0006561104 -2.3375968e-13 0.00029574122 0.00014435571
000280 92 14 e3 39 d3 98 66 ba 63 b1 0c b1 f9 20 14 ba
       0.0004331214 -0.00087965763 -2.0473514e-09 -0.0005650665
000290 ad de 91 39 72 df c3 39 70 8a 46 ba c6 d8 36 aa
       0.00027822462 0.00037359778 -0.00075737294 -1.6240056e-13
0002a0 3a d6 ad 39 f5 de c2 38 ea eb b5 38 99 2d 51 b8
       0.00033156743 9.29217e-05 8.674695e-05 -4.987195e-05
0002b0 7a 3a b0 2e a3 de e9 36 ab eb b1 38 77 8c 11 b8
       8.013941e-11 6.9698594e-06 8.483914e-05 -3.4701512e-05
0002c0 73 bb 2d b9 33 f6 e4 27 e4 fb b8 b8 92 2f 69 b8
       -0.00016568396 6.3549642e-15 -8.820722e-05 -5.5595832e-05
0002d0 eb 36 f1 39 7f 7d ad 39 6c cc cb b1 5e eb cc b8
       0.0004600802 0.00033090633 -5.9313177e-09 -9.7713186e-05
0002e0 b9 08 91 39 ac 21 25 3a 66 77 82 39 ef 6c 04 ab
       0.00027663054 0.0006299268 0.0002488449 -4.7046996e-13
0002f0 db ee 1a b9 9d fd 0f 3a d3 ae 79 39 c2 56 99 b9
       -0.00014775565 0.00054928084 0.00023811618 -0.00029247074
000300 ad 66 03 b1 ff 54 19 b9 cc 4d 0e 39 b5 0e d3 38
       -1.9121373e-09 -0.0001462288 0.00013571157 0.000100640034
000310 76 b7 de b9 96 c4 2a aa 5e 28 0d b8 44 6a 02 b8
       -0.0004247983 -1.5167238e-13 -3.3654615e-05 -3.1093383e-05
000320 f9 d1 43 b9 45 57 d5 39 00 ec 2d 31 76 c5 1f 39
       -0.0001867487 0.00040691547 2.5308964e-09 0.00015236982
000330 b8 1e 9b b8 73 c3 4b 38 20 9b 1b 3a 27 07 62 2a
       -7.396698e-05 4.8580998e-05 0.0005935896 2.0075314e-13
000340 6d fc 97 37 42 38 53 39 81 3e f6 38 ec c8 37 ba
       1.8118148e-05 0.00020143486 0.00011741836 -0.00070108357
000350 d3 f5 a4 30 95 c9 53 b9 0f a0 e1 36 c1 99 75 b9
       1.2002438e-09 -0.00020197623 6.724156e-06 -0.00023422299
000360 bd ba 40 ba 93 5e d6 29 a4 72 14 39 a1 6a 02 ba
       -0.0007352045 9.519915e-14 0.00014157087 -0.00049749954
000370 1d bc 17 39 18 c6 72 39 db 8e 83 b1 bf 68 bf 38
       0.0001447056 0.00023152714 -3.8288426e-09 9.1271e-05
000380 3f 97 22 38 7b b2 93 39 08 9c 3d 39 cc f7 aa aa
       3.876467e-05 0.00028171003 0.00018082571 -3.037001e-13
000390 5c c0 ca 38 43 45 6a 39 5d 30 8a b8 ca 58 65 38
       9.66794e-05 0.00022341781 -6.589361e-05 5.4680546e-05
0003a0 f0 1a f5 2f cf 93 6a 36 79 a6 be b7 55 c1 28 b6
       4.458438e-10 3.4954753e-06 -2.2727285e-05 -2.5146485e-06
0003b0 b5 ee bb 38 56 45 1f 29 f0 3b f7 37 77 fd 5e 38
       8.9613175e-05 3.536523e-14 2.9472605e-05 5.3164982e-05
0003c0 c1 81 95 b7 33 01 8f b9 d7 29 fb 2f 41 d0 00 38
       -1.7822606e-05 -0.0002727598 4.5686363e-10 3.071153e-05
0003d0 85 b9 4f b8 62 ef 0d b9 39 91 86 b9 9d 32 23 29
       -4.9525424e-05 -0.00013535985 -0.0002566667 3.623717e-14
0003e0 a3 1f 16 39 12 ec 85 b9 41 b5 ad 38 bb 7a 44 37
       0.000143169 -0.00025543623 8.283044e-05 1.1711086e-05
0003f0 1e e8 66 2f 06 74 d9 b8 55 e8 8b 38 b2 13 83 38
       2.1000843e-10 -0.000103689774 6.671312e-05 6.250235e-05

exp_avg_sq f4 [128, 10]
000000 27 a7 b3 35 ae 07 7c 35 35 a3 a0 34 62 ed ad 35
       1.3385187e-06 9.388849e-07 2.992107e-07 1.2958592e-06
000010 4c 34 b6 35 e2 91 b7 35 cc 5c 7a 35 c1 dd 9e 34
       1.3575277e-06 1.367702e-06 9.3267295e-07 2.959114e-07
000020 a6 04 b5 35 da d4 bf 35 72 82 23 36 d8 c8 0c 36
       1.3486904e-06 1.4292557e-06 2.4364822e-06 2.0978532e-06
000030 de a3 e6 34 3e 46 2b 36 62 43 26 36 3d 1e 3d 36
       4.2960068e-07 2.5521872e-06 2.477515e-06 2.8180796e-06
000040 49 d3 2f 36 a4 50 f3 34 d5 ff 37 36 f4 cb 3f 36
       2.6200016e-06 4.532095e-07 2.7418039e-06 2.8579934e-06
000050 74 50 73 35 9e 22 33 35 de 2b 2d 34 6f 0b 68 35
       9.064163e-07 6.673307e-07 1.612784e-07 8.6443373e-07
000060 f4 2b 71 35 44 e9 84 35 92 0c 39 35 d1 ed 2b 34
       8.9843456e-07 9.902656e-07 6.893616e-07 1.6012133e-07
000070 c3 9f 7d 35 b7 b4 84 35 66 6e 05 35 3f dd 2c 35
       9.448233e-07 9.887361e-07 4.970701e-07 6.439695e-07
000080 b2 61 86 34 d9 f7 05 35 59 57 9a 34 99 54 1c 35
       2.5030528e-07 4.9907027e-07 2.874829e-07 5.8237634e-07
000090 dd 2f 4a 35 fa 38 87 34 81 8d 11 35 2b 51 b6 34
       7.5320514e-07 2.5187165e-07 5.4222625e-07 3.39592e-07
0000a0 0d c6 91 34 8c e8 98 34 bd e6 2b 34 32 08 9b 34
       2.7152456e-07 2.8481406e-07 1.6009558e-07 2.8876963e-07
0000b0 b5 2a 84 34 1a c6 a0 34 c5 5f ae 34 47 4f 27 34
       2.461799e-07 2.994646e-07 3.2479707e-07 1.5581928e-07
0000c0 86 19 a4 34 eb fe 8e 34 d4 f3 2d 36 1e d0 0d 36
       3.056595e-07 2.6635038e-07 2.5920936e-06 2.1131777e-06
0000d0 68 e4 f6 34 d7 4d 3c 36 cd 0b 2a 36 a4 db 3e 36
       4.5987258e-07 2.8059492e-06 2.5338843e-06 2.8440054e-06
0000e0 7d 95 2c 36 2a d5 05 35 49 4c 3c 36 5c 64 41 36
       2.571701e-06 4.9856556e-07 2.8058587e-06 2.8817658e-06
0000f0 2b 80 4c 36 bf 7c 08 36 13 b2 2c 35 29 e9 4e 36
       3.0472972e-06 2.033819e-06 6.4334125e-07 3.083211e-06
000100 f0 8b 50 36 8c f8 53 36 b8 61 12 36 ae bd 2f 35
       3.107587e-06 3.1586123e-06 2.1812575e-06 6.54686e-07
000110 4e 22 54 36 d9 55 5d 36 da b9 af 36 0c 4d 8e 36
       3.161043e-06 3.2981536e-06 5.2370424e-06 4.240899e-06
000120 02 25 d9 35 d7 14 bc 36 14 b0 b9 36 28 26 c8 36
       1.6178531e-06 5.6052627e-06 5.533928e-06 5.9649064e-06
000130 2e ec b5 36 12 30 e9 35 58 b0 c6 36 51 9b d2 36
       5.4217153e-06 1.7373843e-06 5.921389e-06 6.276569e-06
000140 10 33 f6 36 08 dd cb 36 c8 00 ef 35 0a 19 04 37
       7.3373158e-06 6.075603e-06 1.7807115e-06 7.873643e-06
000150 3b bc fc 36 20 4f 05 37 eb ac fe 36 18 ab f9 35
       7.532098e-06 7.9458405e-06 7.58992e-06 1.860174e-06
000160 79 73 ff 36 d6 52 0a 37 b2 69 1f 35 bc 23 ec 34
       7.613035e-06 8.244728e-06 5.938592e-07 4.3984426e-07
000170 5e 3e 07 34 4e 15 1e 35 1e 3a 17 35 b5 10 35 35
       1.2595544e-07 5.889059e-07 5.6336455e-07 6.7452066e-07
000180 01 b3 0e 35 13 fa fe 33 1b d4 24 35 82 d6 32 35
       5.315961e-07 1.1873285e-07 6.1403415e-07 6.662232e-07
000190 60 4a dd 35 a3 48 cd 35 9f 24 cc 34 a9 48 e1 35
       1.6487429e-06 1.529483e-06 3.8024606e-07 1.6784953e-06
0001a0 7d c4 ab 35 da d2 f3 35 d4 74 cd 35 19 1e ca 34
       1.2797678e-06 1.8166277e-06 1.5307692e-06 3.764733e-07
0001b0 73 1e e8 35 b0 99 ce 35 40 5d 2c 37 56 75 fa 36
       1.7294209e-06 1.5392925e-06 1.027371e-05 7.4642403e-06
0001c0 49 ee 0d 36 d5 7d 33 37 8f d9 30 37 85 41 3e 37
       2.1149337e-06 1.0698529e-05 1.0541072e-05 1.13401375e-05
0001d0 05 63 1c 37 cb 1a 15 36 7e e9 3d 37 d2 66 47 37
       9.321379e-06 2.2218326e-06 1.1319642e-05 1.1885264e-05
0001e0 4d a1 35 36 ed 1b 25 36 79 e6 5c 35 30 de 41 36
       2.7064991e-06 2.460317e-06 8.229177e-07 2.8888571e-06
0001f0 76 7a 34 36 25 ff 41 36 95 98 41 36 7c 43 6b 35
       2.6893372e-06 2.8907755e-06 2.8848056e-06 8.7642525e-07
000200 19 dc 3c 36 b7 37 44 36 27 1e ce 35 f4 6b ae 35
       2.8142297e-06 2.9238706e-06 1.5356972e-06 1.2995429e-06
000210 17 74 ae 34 dd 5e d7 35 e9 4a c7 35 c2 1f fd 35
       3.2494492e-07 1.6046357e-06 1.4848457e-06 1.8859212e-06
000220 a1 46 e5 35 36 d4 b2 34 57 da eb 35 c8 72 f5 35
       1.7082385e-06 3.3309487e-07 1.757241e-06 1.8287328e-06
000230 a6 79 02 37 76 b5 a9 36 e4 9c 79 35 fc 07 07 37
       7.776927e-06 5.0577173e-06 9.2988034e-07 8.048486e-06
000240 a1 ef fe 36 30 69 09 37 06 63 c7 36 d5 f7 77 35
       7.5976864e-06 8.190327e-06 5.94219e-06 9.2375313e-07
000250 e2 70 08 37 09 91 0e 37 fa 16 29 36 90 c8 30 36
       8.132514e-06 8.497628e-06 2.5196337e-06 2.6342786e-06
000260 91 17 88 35 9b c6 29 36 21 0b 04 36 cc f6 46 36
       1.0139648e-06 2.5298566e-06 1.967601e-06 2.9647954e-06
000270 bb 85 46 36 59 bf 87 35 12 db 49 36 65 ea 1c 36
       2.958214e-06 1.0113973e-06 3.007885e-06 2.3382247e-06
000280 c0 0e 1d 37 ed b1 02 37 24 e0 1e 36 b1 5b 2b 37
       9.3613635e-06 7.79003e-06 2.3674302e-06 1.0213743e-05
000290 44 0f 19 37 8c 8b 27 37 b8 cc 19 37 69 d6 29 36
       9.123065e-06 9.9864665e-06 9.167175e-06 2.5307766e-06
0002a0 b5 6c 31 37 84 95 27 37 f2 8a 8e 35 c0 80 54 35
       1.0575332e-05 9.9887875e-06 1.0620263e-06 7.916351e-07
0002b0 3d 65 bd 34 7c 31 86 35 b0 79 8e 35 bd af 98 35
       3.5277654e-07 9.99818e-07 1.061524e-06 1.1376029e-06
0002c0 ca 73 73 35 4b d5 c6 34 16 c0 8e 35 d1 48 99 35
       9.069305e-07 3.7035565e-07 1.0635729e-06 1.1420581e-06
0002d0 4a 39 e3 36 a7 a8 d7 36 2f 3e bc 35 e9 28 ef 36
       6.7717965e-06 6.427133e-06 1.4025189e-06 7.1275176e-06
0002e0 36 95 f2 36 60 47 fa 36 cd 39 04 37 fe 41 c9 35
       7.2295325e-06 7.4588897e-06 7.881271e-06 1.4994873e-06
0002f0 dc f4 f2 36 65 41 06 37 c6 2d 2f 35 cf 32 40 35
       7.2406674e-06 8.002248e-06 6.525919e-07 7.159951e-07
000300 50 a8 53 34 d9 c4 27 35 0c 26 18 35 1d e3 3d 35
       1.9712138e-07 6.24988e-07 5.667978e-07 7.073848e-07
000310 9a 49 35 35 9f 65 54 34 ad d3 41 35 71 42 23 35
       6.753486e-07 1.9781008e-07 7.220613e-07 6.0818917e-07
000320 4b 3f 2a 35 0c 2a 37 35 87 d6 20 34 a4 9b 20 35
       6.342204e-07 6.8234e-07 1.4979206e-07 5.983113e-07
000330 5b eb e3 34 4a 72 56 35 95 75 45 35 5d c0 15 34
       4.2453289e-07 7.9887525e-07 7.3559323e-07 1.3946688e-07
000340 69 eb 43 35 c8 45 14 35 9e 6a be 36 9b c5 a4 36
       7.298573e-07 5.523584e-07 5.674853e-06 4.910585e-06
000350 e9 d3 b1 35 50 1c c1 36 1b 51 b0 36 3c cf f6 36
       1.3249202e-06 5.7551442e-06 5.2546507e-06 7.3554966e-06
000360 98 28 e0 36 f9 17 b4 35 fc b0 e3 36 12 37 e0 36
       6.680446e-06 1.3418022e-06 6.785731e-06 6.6821312e-06
000370 bc c0 64 37 d0 c9 2c 37 a1 f0 60 36 36 9a 76 37
       1.36347335e-05 1.0298987e-05 3.3518666e-06 1.4698648e-05
000380 b7 93 71 37 43 ce 72 37 94 d1 5b 37 21 8a 73 36
       1.4399112e-05 1.4472348e-05 1.3102213e-05 3.6290223e-06
000390 1f 5f 73 37 af 84 83 37 d5 1b f6 33 b1 49 03 34
       1.4506076e-05 1.5678203e-05 1.146033e-07 1.2227135e-07
0003a0 38 93 a5 33 a8 f5 0d 34 38 44 8d 33 28 2e 16 34
       7.71019e-08 1.3221018e-07 6.578233e-08 1.398663e-07
0003b0 0c b2 30 34 11 c8 ad 33 f1 e1 1b 34 a1 ce b6 33
       1.645605e-07 8.092332e-08 1.4517697e-07 8.512621e-08
0003c0 24 92 0f 35 5a 2b 11 35 65 01 f3 33 91 3f 10 35
       5.3484314e-07 5.4079794e-07 1.1315823e-07 5.373668e-07
0003d0 ef 29 b0 34 b7 4f 40 35 54 7d 41 35 5a 86 f4 33
       3.2813065e-07 7.1641574e-07 7.208048e-07 1.1386574e-07
0003e0 6c 54 2e 35 2d 13 07 35 9d a4 02 36 55 18 a9 35
       6.49429e-07 5.0319323e-07 1.9467327e-06 1.2598563e-06
0003f0 dd 78 b8 34 b1 f2 09 36 3e a8 03 36 d6 e2 0a 36
       3.436061e-07 2.0555856e-06 1.961845e-06 2.0695638e-06

exp_avg f4 [128]
000000 42 40 ac 37 77 2a 44 39 06 1b 97 b8 6f 52 00 39
       2.053392e-05 0.00018707836 -7.2052746e-05 0.0001223774
000010 d7 a3 f7 b8 10 31 2e 39 a0 11 30 b7 53 ce ad b9
       -0.00011808395 0.0001661221 -1.0494521e-05 -0.00033150855
000020 88 81 e6 39 23 e0 dd 38 94 03 05 37 c5 e1 df b9
       0.00043965527 0.0001057985 7.928251e-06 -0.00042702086
000030 1c a1 84 38 df 4a e8 38 5a 9b 35 b9 b8 8f ad b9
       6.3242594e-05 0.00011076568 -0.00017319378 -0.0003310421
000040 a9 11 71 b9 e6 a4 16 37 dd a4 2e ba 4f 45 61 b9
       -0.0002299013 8.97909e-06 -0.000666214 -0.00021483492
000050 80 12 95 39 5d 42 0d 39 d9 59 e1 b9 b3 f5 51 38
       0.00028433278 0.0001347153 -0.00042982286 5.005831e-05
000060 74 11 57 38 ea 0f c5 37 b3 5e 00 b8 b4 6e 8e 37
       5.127625e-05 2.349164e-05 -3.0605774e-05 1.697927e-05
000070 28 6e ac 36 61 6c b7 b9 2e 4d 81 39 e8 16 33 31
       5.1388233e-06 -0.0003498523 0.000246623 2.606095e-09
000080 cd c4 e5 b8 bd b9 a9 b8 90 fe b4 38 ce f0 5f b8
       -0.00010956228 -8.0931444e-05 8.630485e-05 -5.339161e-05
000090 bd 83 a3 35 69 8e 7a b9 c5 a3 fb b8 5d 84 63 b9
       1.2182787e-06 -0.0002389491 -0.00011999117 -0.00021697716
0000a0 33 0f c3 b8 81 09 4b 39 bb 2a 8c b9 fa 33 01 b6
       -9.301156e-05 0.00019363129 -0.00026734718 -1.9252752e-06
0000b0 da 3d 35 38 f4 cd 12 38 79 d1 03 b8 62 e6 b2 38
       4.3211367e-05 3.500092e-05 -3.142792e-05 8.5306136e-05
0000c0 9f a3 73 b8 4e ef 0d b9 5f 93 8a 37 6b d8 56 b7
       -5.80881e-05 -0.00013535956 1.6519507e-05 -1.2805783e-05
0000d0 57 f6 df b8 2c 2b 00 b9 85 6a ea 36 d0 3c 7a b9
       -0.00010679353 -0.00012223114 6.986144e-06 -0.00023864512
0000e0 f9 18 42 ba a4 c7 e7 38 b7 ee 5d b8 f9 97 93 37
       -0.0007404234 0.00011052124 -5.2912827e-05 1.7594533e-05
0000f0 50 52 3b 38 20 e5 8a b7 07 8b f3 38 42 4e 60 39
       4.4660934e-05 -1.6557577e-05 0.00011613039 0.00021391458
000100 2b 53 21 39 c4 a8 b1 36 0c d2 1b b9 6c b4 12 ba
       0.00015385139 5.294658e-06 -0.000148602 -0.0005596343
000110 71 45 28 39 79 49 f6 b8 2a 96 fb 38 47 d4 00 b9
       0.00016047597 -0.000117438794 0.00011996583 -0.0001228611
000120 6b fe 1e b8 bf 8d e3 b8 07 2e 1b 38 1b a6 34 b8
       -3.790708e-05 -0.00010850606 3.6997746e-05 -4.3070042e-05
000130 f5 ab 3d b9 e5 10 ab 37 9a 4a 8f 38 ed f9 24 b7
       -0.00018088504 2.0392656e-05 6.832667e-05 -9.833352e-06
000140 10 1d c1 37 da 6f f3 b9 58 5b 9e b9 8b 67 2b 38
       2.3020926e-05 -0.00046431908 -0.00030204165 4.086601e-05
000150 93 3c 18 b9 6f 87 05 b9 42 ed 3a ba 16 80 30 b9
       -0.00014518415 -0.00012734321 -0.0007130691 -0.00016832384
000160 23 23 d0 b9 fe 3a 44 38 c1 5a 92 38 67 bc 58 b7
       -0.0003969903 4.6784982e-05 6.978727e-05 -1.2918469e-05
000170 07 a0 02 b7 47 30 ff b9 04 62 80 38 c2 af af b7
       -7.785863e-06 -0.0004867336 6.1217725e-05 -2.094347e-05
000180 83 16 4f 38 10 e1 d9 b8 c7 37 36 37 ad e6 35 b7
       4.937361e-05 -0.000103892875 1.0861032e-05 -1.0842149e-05
000190 f2 bc 8f b9 22 26 50 38 65 91 8b 36 40 f8 2f b9
       -0.0002741586 4.962658e-05 4.159449e-06 -0.00016781781
0001a0 ee 70 eb b8 32 5a 97 39 1b a9 97 b8 f7 cb ea b8
       -0.00011226708 0.00028868165 -7.2317394e-05 -0.00011195981
0001b0 79 b5 b2 b7 d4 b7 62 37 81 da 43 b9 33 34 b6 b7
       -2.1303758e-05 1.35134505e-05 -0.00018678048 -2.1720398e-05
0001c0 fc 22 9c 39 2c 23 12 39 6b 07 c3 38 8d 4c 47 b9
       0.00029780704 0.00013936748 9.299706e-05 -0.00019006636
0001d0 2e fa 4d 38 ef b5 e3 b8 e1 fd 5d b6 dc d7 eb b8
       4.9108807e-05 -0.00010858091 -3.3079343e-06 -0.0001124588
0001e0 ca f1 84 37 b3 6c d9 b8 57 93 ce 38 6f 40 b0 37
       1.5848218e-05 -0.00010367613 9.85029e-05 2.101084e-05
0001f0 0a 54 eb b9 4a b8 e4 38 af 7b 66 39 27 51 d9 b8
       -0.00044885307 0.00010906214 0.00021980585 -0.00010362482
