Assets/Result/SelfPlayEx-2/SelfPlayEx/SelfPlayEx-1553164.onnx (onnx, 75705 bytes, 8 tensors)

49 f4 [10]
0	0x4085ef1f	4.1854396
1	0x407e8f6e	3.9775043
2	0x40720505	3.7815564
3	0x4111a192	9.101946
4	0x405ac60a	3.4183373
5	0x40860c33	4.188989
6	0x407f9dc3	3.994004
7	0x4072a1f0	3.7911339
8	0x4111db6d	9.116071
9	0x405af516	3.4212089

action_model._discrete_distribution.branches.0.bias f4 [3]
0	0x3d4aad8c	0.049481913
1	0xbd611665	-0.054952998
2	0xbb046f00	-0.0020207763

action_model._discrete_distribution.branches.0.weight f4 [3, 128]
0	0x3c74ff0e	0.014953388
1	0xba10cc3d	-0.0005523598
2	0x3cf3db39	0.02976762
3	0x3cc5599d	0.024090583
4	0x3ceefa2d	0.029172027
5	0x3c480dba	0.012210304
6	0x3a7a8241	0.00095561525
7	0x3c9d06ab	0.019168219
8	0xbda6d198	-0.081454456
9	0x3d6505d3	0.055913758
10	0x3d057fce	0.032592587
11	0x3cc44897	0.023960395
12	0x3c9f901a	0.019477893
13	0xbc877fb5	-0.016540388
14	0x3cf6d1f9	0.03012942
15	0x3cc31777	0.0238149
16	0xbc7a6722	-0.015283378
17	0xbb59a450	-0.003320951
18	0xbbda4a45	-0.0066616856
19	0xbbeb5946	-0.007182273
20	0x3cbbc2a5	0.022919962
21	0xbc2afa30	-0.010435626
22	0x3d44847d	0.047977913
23	0xbd569240	-0.05238557
24	0xbc6dc151	-0.014511422
25	0xbb1af7d2	-0.0023646248
26	0x3d71af26	0.059004925
27	0x3d28f384	0.04124786
28	0x3cb18b66	0.021672916
29	0x3d452bd2	0.048137493
30	0x3d7174ff	0.058949467
31	0xbcaa8063	-0.020813173
32	0x3cf771bc	0.0302056
33	0xbba5d6e9	-0.0050610197
34	0x3be441ab	0.006965836
35	0x3c433f18	0.011916898
36	0x3baa39cd	0.0051948787
37	0x3d473a60	0.048639655
38	0xbbe14977	-0.006875213
39	0x3ce82c1f	0.028341351
40	0x3d3b060d	0.045660067
41	0x3d5065cf	0.050878342
42	0xbcffed61	-0.03124112
43	0x3dc69023	0.09695461
44	0x3c8d6282	0.017258886
45	0x3c8edfb4	0.017440654
46	0x3d8bd2cc	0.06827316
47	0xbe06c83c	-0.13162321
48	0x3b87f5b9	0.0041491655
49	0x3b0f7575	0.0021890078
50	0x3d278630	0.040899456
51	0x3c47f76e	0.012204988
52	0x3ac81045	0.0015263638
53	0xbcd3d206	-0.025856983
54	0x3d147fd7	0.03625473
55	0x3bf64301	0.0075153117
56	0xbd49db00	-0.04928112
57	0x3cb6b068	0.022300914
58	0x3ce24e65	0.027625272
59	0x3c6c56e6	0.014425015
60	0x3d0b3d84	0.033994213
61	0x3dac7818	0.084213436
62	0xbdad2c11	-0.084556706
63	0x3d0e295a	0.034707405
64	0xbcfc8fcf	-0.030830292
65	0x3d01c816	0.031684957
66	0x3c97e9d4	0.018544115
67	0x3cdaca39	0.026707755
68	0x3cad61be	0.021164771
69	0x3c912203	0.017716413
70	0xbccad7c6	-0.024761092
71	0xb971ccf0	-0.00023059896
72	0x3c7ab511	0.015301959
73	0x3d023b4d	0.031794835
74	0x3c24fb9b	0.010069753
75	0x3bcdf3cd	0.006285167
76	0x3c94b520	0.018152773
77	0xbceb1fe8	-0.028701738
78	0x3abd3937	0.0014436607
79	0x3d238847	0.039924886
80	0x3cdb08a4	0.026737519
81	0xbc2fa6ee	-0.0107209515
82	0x3d128cb6	0.035778724
83	0x3cb5cd91	0.022192748
84	0x3c38deed	0.011283618
85	0x3d74aed0	0.059737027
86	0xbd3cd909	-0.04610542
87	0xbc5a002a	-0.013305703
88	0x3cf14d69	0.029455857
89	0x3d1f9ca9	0.038967762
90	0x3c41faf1	0.011839614
91	0x3c78eff3	0.015193927
92	0x3c589e52	0.01322134
93	0x3c9f82ea	0.019471604
94	0x3d2a41ff	0.041566845
95	0x3ce9dc37	0.02854739
96	0xbbacdcc5	-0.005275341
97	0x3d1573a9	0.036487255
98	0x3c2f14e4	0.010686133
99	0xbbf13938	-0.0073615573
100	0xbc6e8914	-0.014559049
101	0x3c8f18ba	0.017467845
102	0x3d955266	0.07291107
103	0x3cb4a223	0.022049969
104	0x3cf450d3	0.029823696
105	0x3c8b7b2b	0.017026505
106	0xbd171602	-0.036886223
107	0xbc5717fd	-0.013128278
108	0x3c3195a0	0.010838896
109	0x3d0e0b56	0.03467878
110	0x3d1c8b81	0.03821898
111	0x3d788a11	0.060678545
112	0xbc29295f	-0.010324805
113	0xbcdd0389	-0.026979225
114	0xbc21d944	-0.00987846
115	0x3c893e1b	0.016753247
116	0xbca62041	-0.020279052
117	0x3c50d69f	0.012746482
118	0x3d0c074e	0.034186654
119	0x3cc509f5	0.0240526
120	0x3b978634	0.0046241526
121	0x3d013879	0.031547997
122	0x3d2ac85e	0.04169499
123	0xbc99ef79	-0.018790947
124	0xbccf7d7a	-0.025328387
125	0x3cec827e	0.028870817
126	0xbd65ec61	-0.05613363
127	0x3c84aadc	0.016194753
128	0x3cd0d7a4	0.02549345
129	0xbbb4d7eb	-0.0055189035
130	0x3d365700	0.044516563
131	0xbdddb9ae	-0.10826431
132	0x3d25f272	0.040514417
133	0xbe0bff0f	-0.13671516
134	0x3dca5c53	0.09880891
135	0xbdd42941	-0.10359431
136	0x39b9e221	0.0003545443
137	0xbe01adce	-0.12663957
138	0x3d94f153	0.072725914
139	0x3d124ff5	0.035720784
140	0xbdee76a8	-0.11643726
141	0xbd457440	-0.048206568
142	0xbdd7ef89	-0.105437346
143	0xbdb50477	-0.08838742
144	0xbdd93011	-0.10604871
145	0xbdfcabb5	-0.12337438
146	0x3d5d45c9	0.05402163
147	0x3dbdf151	0.09274543
148	0x3d796ca9	0.060894642
149	0xbd59ebcf	-0.0532034
150	0xbd121099	-0.03566036
151	0x3c6dabff	0.014506339
152	0x3dcc036c	0.0996159
153	0xbda3b74f	-0.07993948
154	0xbe0d9850	-0.13827634
155	0x3d0fff6c	0.0351557
156	0xbd9cce1a	-0.07656498
157	0xbde1305a	-0.109955505
158	0xbdeed9fe	-0.116626725
159	0x3ceb9055	0.028755346
160	0xbdfe067a	-0.12403579
161	0x3d7cbce7	0.06170359
162	0x3d4a6d1a	0.049420454
163	0x3d888c98	0.06667441
164	0x3dba891c	0.09108183
165	0xbdc1336f	-0.09433638
166	0x3d319d66	0.043362997
167	0xbe02bf42	-0.12768272
168	0xbcb523f7	-0.022111876
169	0x3c8d943f	0.017282603
170	0x3d2d04cb	0.0422409
171	0xbe159954	-0.14609271
172	0x3d698393	0.057010245
173	0x3d875bc6	0.06609301
174	0xbdc21135	-0.09475938
175	0x3d04ae74	0.032392934
176	0xbbad46ef	-0.005287997
177	0x3d31b5b6	0.043386184
178	0xbd61bb23	-0.055110108
179	0x3da02077	0.07818692
180	0xbcba8f2b	-0.022773346
181	0x3d8f1838	0.06987041
182	0x3c851ecb	0.016250035
183	0xbdab1388	-0.08353335
184	0x3c61969d	0.013768819
185	0x3d17c277	0.03705069
186	0x3cf4d6f7	0.02988766
187	0xbdd68247	-0.10474067
188	0xbdc42338	-0.0957703
189	0xbd5a0152	-0.053223915
190	0xbc091d23	-0.008368763
191	0x3d12d2dc	0.035845622
192	0xbceeda32	-0.029156778
193	0xbdf756ab	-0.120770775
194	0xbde92968	-0.11384851
195	0xbdf45168	-0.119295895
196	0x3d9a1496	0.07523458
197	0x3d81712f	0.06320416
198	0xbbbf6975	-0.005841429
199	0x3db3c6a2	0.087781206
200	0x3d7cc386	0.061709903
201	0xbd936aa2	-0.07198073
202	0x3d7519f0	0.05983919
203	0x3d21e1df	0.039522048
204	0xbd4ad423	-0.049518716
205	0xbd7422d1	-0.059603516
206	0xbddb32eb	-0.10703071
207	0xbe0fc073	-0.14038257
208	0x3d0d1461	0.034443263
209	0x3d23abd0	0.039958775
210	0x3ce1e481	0.02757478
211	0x3d47815f	0.048707362
212	0xbe0376f3	-0.12838344
213	0x3c979e6f	0.018508164
214	0xbd0227a9	-0.031776104
215	0xbda907b1	-0.0825342
216	0x3c28ff5e	0.0103147905
217	0x3cc7764f	0.024348406
218	0x3d875f1b	0.06609937
219	0x3db3e163	0.087832235
220	0x3d90071b	0.07032605
221	0x3d242028	0.04006973
222	0xbe0b4336	-0.13599858
223	0x3d21e116	0.0395213
224	0xbda60eb6	-0.08108275
225	0xbdce9edb	-0.10088893
226	0x3d1cb285	0.038256187
227	0x3d83b1ee	0.06430422
228	0xbb42b37d	-0.0029709034
229	0x3d9e848f	0.07740127
230	0x3c8b4d55	0.017004648
231	0x3cd2f9d5	0.025753895
232	0xbdeca4c4	-0.11554864
233	0x3d0b70e1	0.034043197
234	0xbd68b1ff	-0.056810375
235	0x3d09e43b	0.033664923
236	0x3dae8c35	0.08522836
237	0xbde638ce	-0.112413034
238	0x3d2d1310	0.042254508
239	0xbd83d999	-0.06437988
240	0x3d879143	0.06619503
241	0x3c886b80	0.016652822
242	0xbd9cbac9	-0.07652814
243	0xbdb1767f	-0.086651795
244	0xbdca2fe8	-0.09872419
245	0x3baa5138	0.0051976703
246	0x3cd7cc82	0.026342634
247	0x3d69cd29	0.05708042
248	0xbe149059	-0.1450819
249	0xbdf41a5d	-0.11919091
250	0xbd5e63a0	-0.05429423
251	0xbdecde37	-0.115658216
252	0x3d72815e	0.059205405
253	0x3d684413	0.056705546
254	0x3cd58110	0.026062518
255	0xbdc3c4b5	-0.09559003

network_body._body_endoder.seq_layers.0.bias f4 [128]
0	0x3cf9e945	0.03050674
1	0x3b9b4fd0	0.004739739
2	0x3d4c28ef	0.049843725
3	0x3d334feb	0.043777388
4	0x3d5444ca	0.051823415
5	0x3d0972e8	0.03355685
6	0x3d38a2bb	0.045077067
7	0x3d7d8c33	0.061901283
8	0x3d387a9e	0.04503881
9	0xbc8de039	-0.017318832
10	0x3dbcdb36	0.09221499
11	0x3d903043	0.07040455
12	0x3cc804de	0.024416383
13	0x3b881521	0.0041529094
14	0x3d82877f	0.063735
15	0x3cc0c8ef	0.023533313
16	0x3cbce6f1	0.02305934
17	0xbb923751	-0.0044621606
18	0x3d9447d4	0.07240263
19	0xbd8307a8	-0.06397945
20	0x3cc9b337	0.02462159
21	0xbcc335bd	-0.023829335
22	0x3d33b22c	0.04387109
23	0x3ceeafd9	0.029136585
24	0xbd60c90e	-0.05487924
25	0x3ca72473	0.020403123
26	0x3d6b1b40	0.057399035
27	0x3bad2b91	0.0052847345
28	0xbc203934	-0.009779263
29	0x3d9dbabb	0.07701632
30	0x3cf7ee8d	0.030265117
31	0x3dfa2512	0.12214102
32	0x3dc17ae7	0.0944727
33	0xbce06a4e	-0.02739444
34	0x3b2a641a	0.0025999607
35	0xbc709e51	-0.014686183
36	0x3dcb461f	0.09925484
37	0x3d140bdc	0.036144122
38	0x3d4fe5f8	0.050756425
39	0x3d9807cc	0.07423362
40	0xbc4b13a5	-0.01239482
41	0x3cba7954	0.022762932
42	0x3d355e04	0.044279113
43	0x3dd41200	0.10354996
44	0x3d49fa2a	0.04931084
45	0x3dc852ed	0.09781442
46	0x3da8f29a	0.082493976
47	0x3d6d5ee9	0.05795184
48	0xbcfa5c94	-0.030561723
49	0x3d935340	0.07193613
50	0xbd6e2e32	-0.058149524
51	0x3a267c1f	0.0006350893
52	0x3da2929e	0.07938121
53	0x3d0eb598	0.03484115
54	0x3d2de8b6	0.04245826
55	0x3d88d543	0.066813014
56	0x3da8d616	0.08243959
57	0xbbd6a919	-0.0065509197
58	0x3c841700	0.016124249
59	0xbda11835	-0.07865945
60	0x3cda36af	0.026637403
61	0x3c4310a2	0.011905821
62	0x3cbdce0a	0.023169536
63	0x3cdf1ce3	0.027235454
64	0xbc78b601	-0.015180112
65	0xbcb7d4b9	-0.022440301
66	0x3c661e86	0.014045363
67	0x3ddd75bb	0.10813471
68	0x3c92ea4f	0.017933993
69	0x3d8f1aae	0.069875106
70	0xbd41c821	-0.04731
71	0xbd166fc0	-0.036727667
72	0x3cfc971d	0.030833775
73	0x3db9b4b4	0.090676695
74	0xbd25aa9d	-0.040445913
75	0x3d8c1d1d	0.068414904
76	0x3dee3fd1	0.11633266
77	0x3d81e627	0.06342726
78	0x3d6ee561	0.05832422
79	0x3cd98b1d	0.026555592
80	0x3da52458	0.08063573
81	0x3d069327	0.03285518
82	0x3dd5afd5	0.10433928
83	0x3cddd124	0.027077265
84	0x3d28f5a9	0.041249905
85	0xba1ed729	-0.0006059283
86	0xba9a8ae5	-0.0011790661
87	0x3cb4e030	0.022079557
88	0x3d870d72	0.06594361
89	0xbbf5109b	-0.007478786
90	0x3b2c7b5b	0.0026318643
91	0x3cd97b2f	0.026547996
92	0xbcf4d256	-0.029885452
93	0x3d8994bf	0.06717824
94	0x3cc2f976	0.023800593
95	0x3d4a5c78	0.04940459
96	0xbd321a9e	-0.043482415
97	0xbd37e8a7	-0.04489961
98	0x3b13ccf2	0.0022552577
99	0xbc82752b	-0.01592501
100	0x3d23b5fc	0.039968476
101	0xbd018f85	-0.03163101
102	0x3def1d08	0.11675459
103	0x3cbe0dfd	0.02320003
104	0x3ca564ee	0.020189729
105	0xbc3e39dc	-0.011610474
106	0x3d20bdb3	0.03924341
107	0x3db15a57	0.08659809
108	0x3df9f742	0.12205364
109	0x3cc248ea	0.023716409
110	0x3dbef05b	0.09323188
111	0x3d980828	0.07423431
112	0x3d397183	0.04527427
113	0x3cc41f32	0.023940656
114	0x3ccff907	0.0253873
115	0x3d4914b5	0.049092013
116	0x3d1b336e	0.037890844
117	0x3ba0da14	0.0049088094
118	0x3bc49c95	0.0060001113
119	0x3da60606	0.08106618
120	0x3d3634d8	0.04448399
121	0x3de05372	0.10953416
122	0x3d1d2d82	0.038373478
123	0x3d178d0d	0.03699975
124	0x3d8afa00	0.06785965
125	0xbd4b6ba9	-0.04966322
126	0x3c8b1bd0	0.016981035
127	0xbb08dc26	-0.0020883172

network_body._body_endoder.seq_layers.0.weight f4 [128, 10]
0	0x3e4cb81a	0.19992104
1	0x3dc27f1c	0.094969004
2	0xbdccb084	-0.09994605
3	0xbeabbdf1	-0.3354335
4	0x3d0e4e65	0.03474273
5	0x3f043cd9	0.51655346
6	0xbde8b937	-0.11363452
7	0x3e9fbd01	0.31198886
8	0xbda36938	-0.07979053
9	0x3edb64d3	0.4285036
10	0x3dbddc3e	0.092705235
11	0xbedf721b	-0.43641743
12	0xbde41e71	-0.11138619
13	0x3e3aab24	0.18229347
14	0x3e654a3f	0.22391604
15	0xbeaa8e8e	-0.33311886
16	0xbeb67ad9	-0.356406
17	0xbf0f0557	-0.5586752
18	0xbe3f8fce	-0.18707201
19	0xbe22c7a7	-0.15896474
20	0x3f589f47	0.8461804
21	0x3d7fc719	0.062445734
22	0x3f08f523	0.5349905
23	0xbe05091f	-0.1299176
24	0xbe19a8c3	-0.15005784
25	0x3a4229d7	0.00074067473
26	0xbe98def8	-0.29857612
27	0x3e0642f6	0.13111481
28	0x3ece9ea3	0.40355405
29	0x3e25bc91	0.16185214
30	0x3d4ab40e	0.04948812
31	0x3de6b635	0.11265222
32	0xbdde3b9a	-0.10851212
33	0x3e511a25	0.2042013
34	0xbe4b15bc	-0.1983251
35	0x3eaebedc	0.3412999
36	0x3ef5bda4	0.47996247
37	0xbe7631d1	-0.24042441
38	0x3e2e7c47	0.17039596
39	0xbe3d2454	-0.1847089
40	0xbea1d76b	-0.31609663
41	0x3bd32fc9	0.0064449054
42	0x3ec268aa	0.37970477
43	0x3e34de95	0.17663033
44	0xbb848f77	-0.0040454227
45	0x3ed8bd2b	0.42331824
46	0xbe2de62e	-0.16982338
47	0x3eb954a0	0.36197376
48	0x3eea38af	0.4574637
49	0x3e40b786	0.18820009
50	0xbe772668	-0.24135745
51	0xbf02e8eb	-0.51136655
52	0x3da9065d	0.08253167
53	0xbe96ff8a	-0.29491836
54	0xba913ace	-0.0011080147
55	0xbe8e7112	-0.2782064
56	0xbea9ada1	-0.3314028
57	0xbe1267e3	-0.14297442
58	0xbdc90a87	-0.09816461
59	0xbe24f51b	-0.16109125
60	0x3ed39c77	0.4133031
61	0xbe4922a4	-0.1964212
62	0xbeec34e2	-0.46134096
63	0xbeb1e07b	-0.34741578
64	0xbf07dd97	-0.53072494
65	0x3ecd800a	0.4013675
66	0x3e353386	0.17695436
67	0x3ec77fff	0.3896484
68	0xbe0bd8ae	-0.13656875
69	0x3ed5ad29	0.41733673
70	0x3f0f9ba8	0.5609689
71	0xbe3fbd54	-0.18724567
72	0x3dc66950	0.096880555
73	0xbead1f00	-0.33812714
74	0xbe0ce8b3	-0.13760643
75	0xbca9a678	-0.020709261
76	0xbeb0100d	-0.34387246
77	0x3f12e371	0.573783
78	0x3e2e9f9f	0.17053078
79	0xbe885692	-0.26628548
80	0xbf02d09a	-0.5109955
81	0xbeb4155f	-0.35172555
82	0xbe0e50bd	-0.13897987
83	0xbf0268dd	-0.5094126
84	0x3f164345	0.58696395
85	0xbda933f0	-0.082618594
86	0xbf012df5	-0.5046075
87	0xbe47d8e4	-0.19516331
88	0x3ea891ed	0.32923833
89	0x3e56f91f	0.2099347
90	0xbc8666cb	-0.016406437
91	0xbe2c1f0e	-0.16808721
92	0xbebf846f	-0.37405726
93	0xbcdcc0ba	-0.026947368
94	0xbdfcbc32	-0.12340583
95	0xbe489c38	-0.19590843
96	0xbbca9dfa	-0.006183383
97	0xbe05b917	-0.13058887
98	0x3e162bee	0.14665195
99	0xbb73cf2c	-0.0037202341
100	0x3cd9abed	0.026571238
101	0x3e447f40	0.19189167
102	0xbdb5fd78	-0.08886236
103	0xbe0c2669	-0.13686527
104	0xbd3dea77	-0.04636618
105	0x3db25c34	0.087089926
106	0x3e1ebb62	0.15501168
107	0xbf30e2d5	-0.6909612
108	0xbe86eac4	-0.26350987
109	0xbeb9bcfd	-0.36277
110	0x3e12a9d7	0.14322601
111	0xbd915d15	-0.07097832
112	0x3c3b4d1e	0.01143196
113	0x3b4e50c1	0.0031481239
114	0x3e572e5a	0.21013775
115	0x3e66a826	0.22525081
116	0xbe608e0c	-0.21929187
117	0x3deeb80a	0.116561964
118	0xbe56f20b	-0.2099077
119	0xbee8dcae	-0.45480865
120	0xbf146b96	-0.57976663
121	0xbe877b61	-0.26461318
122	0xbdfaef13	-0.12252631
123	0x3def4bdb	0.1168439
124	0x3eb04ef1	0.34435228
125	0x3e555ca7	0.20836125
126	0xbead8187	-0.33887884
127	0x3e7a9fc7	0.24475013
128	0x3d071c72	0.032986112
129	0x3e1232a3	0.14277129
130	0xbe2b2040	-0.16711521
131	0xbea87543	-0.32901964
132	0x3ed8bdaa	0.42332202
133	0xbc121a3f	-0.00891739
134	0x3e599ca6	0.21251163
135	0xbe97fd31	-0.29685357
136	0xbe2be05a	-0.16784802
137	0xbf236524	-0.63826203
138	0x3d415c44	0.047207132
139	0xbd8a96f9	-0.06767077
140	0x3e98d99c	0.29853523
141	0xbdb36998	-0.08760375
142	0x3e77e4e1	0.24208404
143	0xbf5b0b11	-0.8556376
144	0xbdcc04c2	-0.09961845
145	0xbdecc20a	-0.115604475
146	0xbdf9766a	-0.12180789
147	0x3e06f447	0.13179122
148	0xbf151b00	-0.58244324
149	0xbebae19f	-0.3650026
150	0xbdc2b09e	-0.09506343
151	0xbde4c7d4	-0.11170927
152	0x3e28319e	0.16425177
153	0x3e8ecb60	0.27889538
154	0x3e957a15	0.29194704
155	0xbed57301	-0.41689304
156	0x3d7fc56a	0.062444128
157	0x3ef603d2	0.4804979
158	0xbed27139	-0.41102007
159	0x3d5d7374	0.054065183
160	0xbed8d7c8	-0.42352128
161	0xbd913e17	-0.07091921
162	0xbef1179c	-0.47088325
163	0x3d208dc5	0.039197702
164	0x3c87543a	0.016519655
165	0xbe6e44dc	-0.23268455
166	0xbea5fd58	-0.32419848
167	0x3eb379d7	0.35053894
168	0xbf212262	-0.6294309
169	0x3e322b2a	0.17399278
170	0x3eb4ddaa	0.35325366
171	0xbe625f9c	-0.22106785
172	0x3eff0802	0.49810797
173	0x3ec68f04	0.38780987
174	0x3deee55c	0.116648406
175	0xbcc6dd90	-0.024275571
176	0xbed2ba15	-0.41157594
177	0xbe94503f	-0.28967473
178	0x3d1d2837	0.03836843
179	0x3f080551	0.5313311
180	0x3d096d7a	0.03355167
181	0xbf032da5	-0.51241523
182	0xbd307067	-0.043075945
183	0x3e8902fd	0.26760092
184	0x3c871dac	0.01649364
185	0x3ec2748a	0.37979537
186	0xbeb29a08	-0.34883142
187	0x3e640e30	0.22271037
188	0xbcf39e0b	-0.029738447
189	0xbf218e8b	-0.6310813
190	0x3d2b7981	0.041863922
191	0x3e6f694a	0.23380008
192	0x3ef4128b	0.47670397
193	0xbd979645	-0.074017085
194	0x3e68737c	0.22700304
195	0xbd68259f	-0.056676503
196	0x3e8528a6	0.26007575
197	0x3f1d52d2	0.614545
198	0xbe709375	-0.2349375
199	0x3f04fe74	0.51950765
200	0x3e5fe43b	0.21864407
201	0xbcf9c115	-0.030487576
202	0x3e97049e	0.2949571
203	0xbdb29142	-0.08719112
204	0xbf220770	-0.632926
205	0xbe3a5748	-0.18197358
206	0x3f4fced9	0.81175
207	0xbe6f3176	-0.23358712
208	0x3eade291	0.3396192
209	0x3dacaabc	0.084310025
210	0xbe16341b	-0.14668314
211	0xbf0bf995	-0.54677707
212	0x3e2d3df2	0.16918162
213	0x3db3702d	0.0876163
214	0x3e9a0683	0.30083093
215	0xbeb339e7	-0.35005113
216	0x3e6b61ff	0.22986601
217	0xbd0c08cc	-0.034188077
218	0xbcec77f1	-0.028865786
219	0x3dcf823d	0.10132263
220	0x3e8fc51c	0.2808007
221	0x3d64db1e	0.05587303
222	0x3c5205d5	0.012818773
223	0xbe9a2d9c	-0.30112922
224	0xbe8579e2	-0.26069552
225	0x3e98e73d	0.2986392
226	0xbf11e896	-0.5699552
227	0x3eae009e	0.33984846
228	0xba6a638d	-0.0008941226
229	0xbed8fcbb	-0.42380318
230	0xbe18232b	-0.14857166
231	0xbdd8e5a2	-0.10590674
232	0x3d1a7a72	0.03771443
233	0x3d90fb61	0.07079197
234	0x3e784223	0.24243979
235	0xbda31fcf	-0.079650514
236	0xbc83c3c3	-0.016084557
237	0xbc9e423c	-0.019318692
238	0x3f28ce0a	0.6593939
239	0x3e0810c2	0.13287643
240	0xbeacc771	-0.33745912
241	0x3ed4b467	0.41543886
242	0x3e2946cb	0.16530912
243	0xbe532811	-0.20620753
244	0x3ed048f6	0.40680665
245	0xbd0cf814	-0.034416273
246	0xbe7c8f01	-0.24663927
247	0x3e8fab0b	0.28060183
248	0x3eaef56f	0.34171626
249	0xbdfaffca	-0.12255819
250	0xbea7e3ed	-0.3279108
251	0xbf216490	-0.6304407
252	0xbc3b6230	-0.011436984
253	0xbf26808e	-0.6503991
254	0x3ea2656d	0.31718007
255	0xbeacc067	-0.3374054

network_body._body_endoder.seq_layers.2.bias f4 [128]
0	0xbcc531c6	-0.024071585
1	0x3cd7a75d	0.026324922
2	0x3ba83e03	0.0051343455
3	0x3d5a78e3	0.053337943
4	0x3cef59cb	0.029217621
5	0x3d703964	0.058648482
6	0x3bda7b65	0.006667542
7	0x3d42f827	0.047599938
8	0x3bb3fdc0	0.005492896
9	0x3dae0da1	0.08498693
10	0x3cc4de5b	0.024031809
11	0xbb678c09	-0.003533127
12	0x3da1ba94	0.07896915
13	0x3d4ce2c0	0.050020933
14	0x3d9c2522	0.0762427
15	0x3d47c5ae	0.048772506
16	0x3ced1c80	0.028944254
17	0x3d5d03f9	0.053958867
18	0xbb6afee1	-0.0035857486
19	0xbc36fc5e	-0.011168567
20	0x3c873fbf	0.016509889
21	0x3cc734ec	0.024317227
22	0x3d77a108	0.060456306
23	0x3c102798	0.008798502
24	0x3ab215da	0.0013586835
25	0x3d1dc0a9	0.038513813
26	0x3da80fea	0.0820616
27	0x3ce82d65	0.028341958
28	0x3da19011	0.078888066
29	0x3d9fdc2b	0.078056656
30	0x3dc91da7	0.09820109
31	0xbd45c6f8	-0.048285455
32	0x3d8d7905	0.06907848
33	0xbc1a47e2	-0.009416552
34	0x3c63f427	0.013913191
35	0x3c00d4d4	0.007863242
36	0x3cd043fa	0.025423039
37	0x3d91fe95	0.07128636
38	0xbd010823	-0.0315019
39	0x3d9bdbe5	0.07610301
40	0x3d5e93c8	0.054340154
41	0x3d2d36eb	0.042288702
42	0xbd8a3b2b	-0.06749567
43	0x3ded12ff	0.11575889
44	0xbc0e0643	-0.008668485
45	0x3c1f89a0	0.009737402
46	0x3db355f3	0.08756628
47	0x3cfe0257	0.031006975
48	0x3aa625da	0.0012676076
49	0xbc887fba	-0.016662467
50	0x3d476a72	0.0486855
51	0x3c4f218c	0.012642276
52	0x3cb523f3	0.022111868
53	0xbc3e0cae	-0.011599703
54	0x3ce1a212	0.027543101
55	0x3d2d5c30	0.042324245
56	0xbd2c2c6d	-0.042034555
57	0x39afb00b	0.00033509763
58	0xbc348998	-0.011019133
59	0x3d7aef97	0.061263647
60	0x3d8c6f8d	0.06857214
61	0x3d32074c	0.04346399
62	0x3c870d1f	0.016485749
63	0x3d17505a	0.036941864
64	0x3acbf3df	0.001556035
65	0x3d8abee3	0.0677469
66	0x3d8cdd64	0.068781644
67	0x3d8eba67	0.06969147
68	0x3c9fa60b	0.019488355
69	0x3d639c06	0.055568717
70	0xbc0dc047	-0.0086517995
71	0x3ca8a627	0.02058704
72	0x3c2657c8	0.010152765
73	0x3da04394	0.078253895
74	0xbc416215	-0.01180317
75	0x3c3dcc2d	0.011584324
76	0x3d5f59db	0.054529052
77	0x3d48d5b0	0.049031913
78	0x3d5515aa	0.052022614
79	0x3db85d02	0.09002115
80	0x3cf31b50	0.02967611
81	0xbd48a927	-0.04898944
82	0x3bbca9ef	0.0057575624
83	0x3ceda2b0	0.02900824
84	0x3d7ff1d0	0.06248647
85	0x3d5acf81	0.053420547
86	0x3d19afcd	0.037521172
87	0x3d55e44e	0.05221968
88	0x3d07d75a	0.03316436
89	0x3cfd3975	0.030911187
90	0xbb28b567	-0.002574289
91	0x3c95db26	0.018292975
92	0x3c8ed041	0.017433288
93	0x3c51e311	0.0128104845
94	0x3db53f41	0.08849955
95	0x3c3eae2a	0.011638204
96	0x3d3d87bd	0.04627203
97	0x3dafc148	0.08581787
98	0xbcd7fab0	-0.026364654
99	0x3c22dc2f	0.009940191
100	0x3c42445a	0.011857117
101	0x3cf185d7	0.029482765
102	0x3d8137c9	0.06309468
103	0xbb03d90d	-0.0020118386
104	0x3ddc797a	0.10765357
105	0x3b1ad250	0.0023623891
106	0x3d01cc39	0.031688903
107	0xbd67c280	-0.056581974
108	0x3cb4cf3d	0.022071475
109	0x3d83490a	0.064104155
110	0x3cb7e441	0.022447707
111	0x3d9dc630	0.07703817
112	0xbbd27d5f	-0.006423637
113	0xbd48b966	-0.049004935
114	0x3d0a9746	0.03383567
115	0x3d6c7677	0.057730164
116	0x3d511e0f	0.051054057
117	0x3c6dab05	0.014506106
118	0x3ca2a937	0.019856079
119	0x3c0f57f2	0.008748995
120	0x3d8f2d29	0.069910355
121	0x3dcce9aa	0.100055054
122	0x3da19aa6	0.07890825
123	0x3d93c496	0.0721523
124	0xbcf5e429	-0.030016022
125	0x3d235342	0.039874323
126	0xbca44ff2	-0.020057652
127	0x3d64eda0	0.05589068

network_body._body_endoder.seq_layers.2.weight f4 [128, 128]
0	0x3cf84c5e	0.030309852
1	0xbd091256	-0.033464752
2	0xbd80a1b7	-0.06280845
3	0x3e26beb9	0.16283692
4	0xbd1c2184	-0.0381179
5	0xbde3fca3	-0.11132171
6	0x3d6f988b	0.058495086
7	0xbe6524a9	-0.22377266
8	0xbd281a41	-0.041040663
9	0x3dc836e1	0.09776092
10	0x3daf9a18	0.08574313
11	0x3cd3c40b	0.025850317
12	0x3d232807	0.039833095
13	0x3d5c7d7e	0.053830616
14	0xbd8dda0a	-0.06926353
15	0x3b819ccf	0.0039554606
16	0x3c12b649	0.008954593
17	0xbc968268	-0.01837273
18	0xbdd4026c	-0.103520244
19	0x3d654ceb	0.055981558
20	0xbe921c46	-0.28537196
21	0x3d061774	0.03273721
22	0xbcd40d99	-0.02588539
23	0xbab5a884	-0.0013859426
24	0x3c9583eb	0.01825138
25	0x3da8699b	0.08223268
26	0x3e1baea5	0.1520334
27	0x3d5e6827	0.054298546
28	0xbc4f9fc2	-0.012672367
29	0x3c1ba6c5	0.00950021
30	0x3ccd8335	0.025086978
31	0x3ca7591d	0.020428235
32	0xbdc2ec4b	-0.095177256
33	0x3e0a6307	0.13514338
34	0x3e41f95a	0.18942776
35	0xbd25d3d1	-0.040485207
36	0xbd138fcb	-0.036025804
37	0x3db5a5a6	0.088694856
38	0x3dec2519	0.11530513
39	0x3daed763	0.085371755
40	0x3cd6496a	0.026158053
41	0x3d6e150a	0.058125533
42	0x3dd3d31d	0.10343001
43	0xbe062672	-0.13100603
44	0xbc2a20b6	-0.010383775
45	0xbcc0795e	-0.023495372
46	0x3da522e5	0.08063296
47	0x3e51063f	0.20412539
48	0xbdc4873c	-0.095961064
49	0x3d521da8	0.051297814
50	0xbde1096f	-0.109881274
51	0x3d80c546	0.06287627
52	0xbd522001	-0.051300053
53	0x3d7b0e9f	0.06129324
54	0xbd7c9788	-0.06166795
55	0xbdcd1577	-0.1001386
56	0xbda9b050	-0.08285582
57	0x3dfb222c	0.12262377
58	0x3e077e44	0.1323176
59	0xbe1069b5	-0.14102824
60	0xbdbfcf34	-0.09365693
61	0x3e087f22	0.13329747
62	0x3e2f9d0b	0.17149751
63	0xbd13547d	-0.035969246
64	0x3d007cb0	0.03136891
65	0x3db139ab	0.086535774
66	0xbb544675	-0.0032390628
67	0xbbdd163f	-0.0067470367
68	0x3d9f5826	0.07780485
69	0xbde134da	-0.10996409
70	0x3db3d263	0.087803625
71	0xbd081211	-0.033220354
72	0x3db60e44	0.0888944
73	0x3c2dc2d8	0.010605536
74	0x3e11d124	0.14239937
75	0x3e05dac4	0.13071734
76	0x3db4298e	0.087969884
77	0x3de524ee	0.111886844
78	0xbce907c1	-0.02844608
79	0xbc137a3b	-0.00900131
80	0xbdad3fa1	-0.08459402
81	0xbda667d5	-0.08125273
82	0xbe4eda9d	-0.20200582
83	0x3e49027c	0.19629854
84	0x3c656726	0.014001643
85	0xba7144b6	-0.0009203659
86	0xbdf2b7e5	-0.11851481
87	0xbdf6f5ba	-0.12058587
88	0x3b5f4e26	0.003407368
89	0xbd9f8420	-0.07788873
90	0x3c197ec7	0.009368605
91	0x3e0856a0	0.13314295
92	0x3e63bdd0	0.22240376
93	0x3de45844	0.11149648
94	0x3c8ae11a	0.01695304
95	0x3cbeb437	0.023279293
96	0x3d55ced0	0.052199185
97	0x3c9e432b	0.019319138
98	0x3e12e90c	0.14346713
99	0xbda8f847	-0.0825048
100	0x3d8681d8	0.065677345
101	0xbe504c2e	-0.2034156
102	0xbcb47373	-0.022027707
103	0xbcb3fdcb	-0.021971604
104	0x3da32622	0.07966258
105	0x3c8cbf19	0.017180966
106	0xbd8be98e	-0.068316564
107	0x3cddfdf8	0.02709864
108	0xbc20b44e	-0.009808613
109	0xbd477220	-0.048692822
110	0x3d0f7673	0.03502507
111	0xbd1609d3	-0.036630463
112	0x3dc676eb	0.096906506
113	0x3ce58e95	0.02802209
114	0x3d850471	0.06494988
115	0x3d91b36a	0.07114299
116	0xbda496eb	-0.08036598
117	0x3e1f94fb	0.15584175
118	0xbd883f86	-0.06652741
119	0xbdee9d8b	-0.11651143
120	0xbdc1d40d	-0.094642736
121	0xbc856a8b	-0.016286155
122	0xbde37a58	-0.111073196
123	0xbd8139ce	-0.063098535
124	0xbe0b6165	-0.13611372
125	0xbd95d8a3	-0.07316711
126	0x3cc38abf	0.02386987
127	0x3de81f5b	0.113341056
128	0xbda0314b	-0.07821902
129	0x3da9042a	0.08252747
130	0x3d1a6cb6	0.03770133
131	0x3c9f21e9	0.01942535
132	0x3da7b586	0.0818892
133	0xbd97cc17	-0.07411974
134	0xbc88f868	-0.016720012
135	0xbdd5038a	-0.10401066
136	0xbdc976f1	-0.098371394
137	0xbd3e9c98	-0.04653606
138	0x3e07b5de	0.1325297
139	0x3e2f6f61	0.17132331
140	0x3e40f06f	0.18841718
141	0x3e05b1c3	0.13056092
142	0xbd11b859	-0.0355762
143	0x3cd062d3	0.025437748
144	0xbd75b1ad	-0.059983898
145	0xbd0b0365	-0.033938784
146	0xbc609b17	-0.013708851
147	0xbd0da1a4	-0.03457798
148	0x3c1a23a0	0.009407908
149	0xbe6f8da7	-0.2339388
150	0x3d999118	0.074983776
151	0x3cc4c96f	0.024021832
152	0xbddfb427	-0.10923033
153	0xbe53f175	-0.20697577
154	0xbe147916	-0.14499316
155	0xbcea174a	-0.028575558
156	0x3e040929	0.1289412
157	0xbd49d67b	-0.04927681
158	0xbdb635a7	-0.08896952
159	0xbda2e482	-0.07953741
160	0x3e06eb68	0.13175738
161	0x3e4962d3	0.19666605
162	0xbe0b122b	-0.1358115
163	0x3d9f5d0d	0.0778142
164	0x3e155492	0.14583042
165	0x3ca3588d	0.019939685
166	0x3e086874	0.13321096
167	0xbaa94b8e	-0.0012916194
168	0x3da8ffd4	0.0825192
169	0xbcb4eca6	-0.022085499
170	0xbd4b0038	-0.049560755
171	0xbd2c6a53	-0.042093586
172	0xbdcbc12c	-0.09948954
173	0x3de8a3a9	0.11359341
174	0x3db65f2d	0.08904872
175	0x3da4d656	0.08048694
176	0xbcddb15a	-0.027062107
177	0xbda1d079	-0.07901091
178	0x3e3df824	0.1855169
179	0x3d45317b	0.04814289
180	0x3ddc7021	0.107635744
181	0xbd38a87d	-0.045082558
182	0xbe001a40	-0.12510014
183	0xbe274d20	-0.16338015
184	0xbe537103	-0.2064858
185	0x3d8a6e70	0.067593455
186	0x3e0d4154	0.13794452
187	0xbd1d325e	-0.038378112
188	0xbb9b9ed1	-0.004749157
189	0x3e1e70aa	0.15472665
190	0xbe08c1a4	-0.13355118
191	0xbc0c4d8e	-0.008563412
192	0x3d6b3ef2	0.057433076
193	0xbd08b45b	-0.033375125
194	0xbe1704c2	-0.14747909
195	0x3cd5d76b	0.026103696
196	0x3d70b6e8	0.058768183
197	0xbcf1ea93	-0.029530799
198	0xbd3537bb	-0.0442426
199	0xbd045913	-0.03231151
200	0xbc9e127a	-0.01929592
201	0xbd7ddba5	-0.061977047
202	0xbda41f9c	-0.080138415
203	0x3dc2464a	0.09486063
204	0x3d86192f	0.06547772
205	0x3abd8821	0.0014460125
206	0xbd6cf96e	-0.057855062
207	0xbdfae233	-0.12250175
208	0xbcd619d9	-0.026135372
209	0x3dd5fb30	0.10448301
210	0xbd31f0bd	-0.043442477
211	0xbe10d986	-0.14145479
212	0x3c80d442	0.015726212
213	0xbde6a46b	-0.11261829
214	0x3d3c3f88	0.045959026
215	0xbd4e9e8c	-0.05044417
216	0x3ce15433	0.02750597
217	0x3cf1ecd9	0.029531883
218	0xbd102092	-0.03518731
219	0xbdeeeb55	-0.1166598
220	0xbe1164ff	-0.14198683
221	0x3d3f9a58	0.046778053
222	0x3e1d0074	0.15332204
223	0xbd3f8e52	-0.046766587
224	0xbd374870	-0.044746816
225	0x3c7e0573	0.015504229
226	0xbe0aaa4f	-0.1354153
227	0x3d5ead80	0.05436468
228	0xbcdc0a93	-0.02686051
229	0x3c172194	0.009224314
230	0x3d4ff4ee	0.050770693
231	0xbcf181b4	-0.029480793
232	0xbd41d859	-0.047325466
233	0xbdbe39eb	-0.09288391
234	0x3c8b8348	0.017030373
235	0x39741b06	0.0002327972
236	0xbd6dfb20	-0.05810082
237	0x3e538609	0.20656599
238	0xbddc8343	-0.10767224
239	0xbd0261c2	-0.03183151
240	0xbbb366aa	-0.005474885
241	0x3d2b46c2	0.041815527
242	0x3da93a72	0.08263101
243	0x3d508a74	0.05091329
244	0x3d5fc581	0.054631714
245	0xbd9f568a	-0.07780178
246	0xbd5fffb9	-0.054687236
247	0x3d7a81ca	0.061158933
248	0xbc5db08c	-0.013530862
249	0x3e661e7d	0.22472568
250	0x3d3d6107	0.04623511
251	0x3ceca051	0.028885039
252	0xbda45a8b	-0.08025082
253	0xbd8baf22	-0.06820513
254	0xbe4335d5	-0.19063504
255	0xbd37ab3a	-0.04484103

network_body.observation_encoder.processors.0.normalizer.running_mean f4 [10]
0	0xb79b6f00	-1.8529128e-05
1	0x37af3560	2.088648e-05
2	0xb80a8f04	-3.3034958e-05
3	0x378dbe96	1.6897258e-05
4	0x3e62cc51	0.22148253
5	0x31900000	4.1909516e-09
6	0xb1e0c000	-6.541086e-09
7	0xb136650e	-2.6541929e-09
8	0xb2036000	-7.6470315e-09
9	0x3e63037a	0.22169295
