Assets/Result/SelfPlayEx-2/SelfPlayEx/SelfPlayEx-499556.onnx (onnx, 75705 bytes, 8 tensors)

49 f4 [10]
00000000: dc1a 4d40 728c 8940 a82d cc40 9c1b ed40
00000010: 21de 2e40 bcca 4d40 def3 8a40 eab6 cc40
00000020: 3a91 ee40 d463 2f40
3.2047644 4.298394 6.3805733 7.4096203 2.7323077 3.215499 4.342269 6.3973284
7.455228 2.740468

action_model._discrete_distribution.branches.0.bias f4 [3]
00000000: 1e3b 003c 0ac4 50bc f61a 6a3b
0.007826595 -0.012742052 0.0035721636

action_model._discrete_distribution.branches.0.weight f4 [3, 128]
00000000: 5def 15bb 27d4 de3a 5227 10bb 4bdb 073c
00000010: 4471 183c fbe2 cdbc df68 bfbb cdbf 44bc
00000020: 68c8 efbc 545f 1b3c f380 563c 5db1 713c
00000030: 8881 ed3b 863e 14bc e3a0 353c bdda 003c
00000040: 57db cabc 8476 50bc f4ad 26bc 43d9 61bc
00000050: 305d dc3b 3b22 ebbc e24b e23b a457 5abb
00000060: 92fd 84bb 64da 11bc 09e2 9c3c 5580 cc3c
00000070: 924f cd3c 3f58 733c 0f32 013d 8e7b 9fbc
00000080: 637e 333c 3298 00bc 2a1a 5abc dcbb 81bb
00000090: 4dba 82bc 28fd 0ebb 7f0c 4cbc 05b7 9a3c
000000a0: 2281 8c3c 50b6 093d bd2e c5bc f7b6 3a3d
000000b0: cee4 0eba 65a8 e7bb a2d3 fa3c 3a68 79bd
000000c0: ed51 9c3c c18d 44bc 78eb 943c a7f9 123c
000000d0: 6ad0 c43b 2d3e f2bc 1e76 823b a7e2 5ebc
000000e0: 6b3e f5bb e2a2 843b 82c3 02bc 4e65 293c
000000f0: a8e9 aa3c 4e2b 063d dcd6 1abd a134 783c
00000100: 244c efbc be43 073c 65ff 973c fe21 5dba
00000110: 39c9 6d3a 30b2 af3c f4e6 69bc f538 79bb
00000120: a541 0c3b 11fa 1d3c e26c 58bc e77e 7fbb
00000130: a9bd 72bc aba0 2bbc b957 3fbc 8012 543c
00000140: c582 ad3c 3bf4 b7ba 7738 7a3c b577 d13c
00000150: d890 bdbb ebdc cb3c abe8 cabc dca9 b5bc
00000160: 4ee0 67bb 0bf7 3e3c 4d25 d3bb a89e 713c
00000170: b7ff d3ba a417 00bb 9f2f a23c b932 a53c
00000180: cd6e 35bc 731e 553c 5b0a cfbb 8072 80bc
00000190: 46ec 2ebc e661 013c 79d8 2d3d f3bc 9e3c
000001a0: c791 6f3c 1c0d b0bc 3dff dbbc 4fb5 283a
000001b0: ca3d d03b 304a 75bb d971 233c 9857 9b3b
000001c0: c301 56bc 9f07 b6bc 5f8d 8ebc ea36 58bb
000001d0: f3f0 c5bc 293b a33c f9e1 d63c 1780 cd3c
000001e0: 0fbb 89bc 65a4 863c e6d3 b33c 6d88 8dbc
000001f0: cf98 9dbc e77c 893c 3f99 1bbd 2493 d73a
00000200: 9567 3b3d ae09 84bc f83a 553d 02c9 aabd
00000210: 9d8a 2e3d af2d 93bd f6d5 be3d dd76 56bd
00000220: 09b3 923a 8436 7ebd 9a20 883d b2bf 193d
00000230: 153f b0bd 16f1 34bd 1a24 8fbd 75aa 80bd
00000240: 2f21 a6bd 0f7f c1bd 1606 393d c3e3 933d
00000250: aa73 7c3d fdbe 49bb 5b8c 87bc ce6f f8bb
00000260: 6b7a 9b3d a3d0 82bd 344a b1bd 2f0f 123d
00000270: 4ca6 9abd 45d8 6ebd 393c 93bd 5cad e33c
00000280: f689 b6bd e374 4b3d d76d 3c3d 09ff 803d
00000290: 148b b63d 2704 d5bc 59b1 e03c 7b8e d7bd
000002a0: 0153 6cb9 4cd5 a73c 9467 ee3c aeda abbd
000002b0: 3ee5 803d 62c6 913d 6ba7 46bd 68e2 883a
000002c0: d69f 843c f8d6 063d b224 7dbc acc4 993d
000002d0: 1f35 02bc 880e 813d 3a49 d93c d162 54bd
000002e0: 1d4f d63b ff1a 263d df9f 093d 8dfa cfbd
000002f0: f92a 98bd a901 bdbc b229 1dbd 82e8 2a3d
00000300: 982e 80bc f8de a5bd da8c debd c771 8fbd
00000310: c60f 883d 8f88 323d 824c 1ebb 47ab 9d3d
00000320: 58cf 553d b6cd 4ebd c270 833d a21c fe3c
00000330: a5b1 febb aa68 36bd ed3a 95bd 2377 c4bd
00000340: 55f8 df3c cab1 e33c dbba 063d ba0a d73c
00000350: b974 c2bd e398 a53c c1c5 f1bc c978 b3bc
00000360: b2f6 a53c 8dd6 d93c 8023 823d 10e6 973d
00000370: f991 963d 12bd 223d be66 dabd cb96 0f3d
00000380: 30c2 76bd 4494 73bd c9c9 393d 168b 5c3d
00000390: 38ed 32bb e1f5 8a3d 2b10 a83c 3e71 cb3c
000003a0: 0886 94bd 2478 243d 26ec 22bd 01aa 063c
000003b0: 63c2 9d3d fb16 6bbd 72a5 4a3d 7a86 b3bc
000003c0: e617 7b3d 76b1 5b3c 27a2 54bd 9cb0 67bd
000003d0: cf0c 85bd cb93 2c3c ba0c ae3c bd1a 323d
000003e0: 2de8 c7bd f53d 96bd 25ab 0cbd 749c ccbd
000003f0: 92cb 553d 66ac 5a3d 9e75 1c3c ec49 8cbd
-0.0022878267 0.0017000482 -0.0021996093 0.00829203 0.009304348 -0.025132647 -0.005841359 -0.0120086195
-0.029270366 0.009483177 0.013092267 0.014751759 0.0072481073 -0.00904811 0.011085722 0.007864651
-0.024762793 -0.012723569 -0.01017331 -0.013784709 0.006724976 -0.028702846 0.0069060186 -0.0033316398
-0.0040585482 -0.008902166 0.01915075 0.024963537 0.025062356 0.0148525825 0.03154188 -0.019468095
0.010955426 -0.007848786 -0.013311902 -0.003959162 -0.015957976 -0.0021818373 -0.012454151 0.018886099
0.01715142 0.033621132 -0.024070138 0.045584645 -0.00054509647 -0.0070696347 0.030618493 -0.060890414
0.019082034 -0.011996687 0.018178686 0.008970655 0.00600629 -0.029570663 0.003981366 -0.013603843
-0.0074842474 0.0040477375 -0.007981183 0.010339094 0.02086337 0.032756142 -0.037802562 0.015149266
-0.029211111 0.008255897 0.018554399 -0.0008435546 0.0009070817 0.021447271 -0.014276255 -0.0038028334
0.0021401432 0.00964214 -0.013209553 -0.0038985552 -0.014815726 -0.010475318 -0.01167863 0.012943864
0.02118052 -0.0014034578 0.015272251 0.025569776 -0.005785089 0.024885615 -0.024769148 -0.022175722
-0.0035381499 0.011655579 -0.0064436556 0.014747299 -0.0016174231 -0.001954534 0.019798098 0.020165788
-0.01107378 0.013007748 -0.006318373 -0.015679598 -0.010676449 0.007896876 0.042442773 0.019377207
0.014622158 -0.021490626 -0.026855106 0.00064357085 0.006355022 -0.0037428252 0.009975874 0.0047406666
-0.013061943 -0.02222043 -0.017401395 -0.0032991716 -0.024162745 0.01992567 0.026230799 0.025085492
-0.01681283 0.016435811 0.021951627 -0.017276967 -0.019237904 0.01678319 -0.037987944 0.001644705
0.04575308 -0.016117897 0.05205819 -0.083391204 0.04261266 -0.07186448 0.093181536 -0.05235945
0.0011192273 -0.06206371 0.06646843 0.03753633 -0.08605782 -0.04417523 -0.06989308 -0.06282512
-0.08111798 -0.09448063 0.04517182 0.072211765 0.061633743 -0.0030784004 -0.016546419 -0.0075816875
0.07591709 -0.063874505 -0.08656731 0.03565901 -0.0755125 -0.05831172 -0.07189221 0.027792625
-0.08913033 0.04967202 0.04600319 0.06298644 0.08913246 -0.026002957 0.027428316 -0.10525223
-0.00022537635 0.02048745 0.029102124 -0.08391319 0.062937245 0.07117917 -0.048499506 0.0010443451
0.016189497 0.032919854 -0.015450643 0.07508215 -0.007947235 0.063016 0.026524175 -0.05185205
0.0065401928 0.04055309 0.03359973 -0.10155211 -0.074300714 -0.02307208 -0.038369842 0.041725643
-0.015647218 -0.080991685 -0.10866709 -0.07004123 0.066436335 0.043587264 -0.002415449 0.07698684
0.05219969 -0.05048915 0.06417991 0.031019513 -0.0077726417 -0.04453341 -0.0728663 -0.09593036
0.027340094 0.027794737 0.032893043 0.026250232 -0.09494919 0.020214504 -0.029513242 -0.02190818
0.020259235 0.026591564 0.06354427 0.07416928 0.07352061 0.039731093 -0.10664128 0.035055917
-0.060243785 -0.05946757 0.045358453 0.05384358 -0.0027302038 0.06785179 0.020515522 0.024834272
-0.07252127 0.040153638 -0.03977599 0.008219243 0.07703092 -0.057394963 0.049474187 -0.02191471
0.06130209 0.013409009 -0.051912453 -0.056564912 -0.06496584 0.010533283 0.021246303 0.04348253
-0.09761081 -0.07336036 -0.034342904 -0.099907786 0.052196093 0.05338707 0.0095495265 -0.06850037

network_body._body_endoder.seq_layers.0.bias f4 [128]
00000000: 83c5 2a3c 8dd4 943c 51dc e53c 5e84 463c
00000010: f8c9 1ebb 243c 583d 66f2 d83c af10 553d
00000020: 1541 4b3d 53f3 073c e358 4b3d 2d92 423d
00000030: a545 be3c 0095 333c b4ce 253d 7d22 833c
00000040: b102 c53c 421e 173b 9fe4 443d fb64 9abc
00000050: a590 bd3c af90 10bc c4c7 143d e44c de3c
00000060: 9237 09bc 2be4 733c 1a09 783d 1502 533c
00000070: b50f 20bd aa0f 7d3d 8401 b13c 8547 d83c
00000080: 5bf9 593d b418 833b 7799 9b3b 5d00 22bb
00000090: 1316 693d edd8 3f3d f4cb 0c3d 3fc1 733d
000000a0: f722 38bc a0f2 fc3c 8685 e33c 6866 a23d
000000b0: bbc2 d73b abae 1e3d b761 863d 729c 263d
000000c0: 29ba 50bc 4347 2b3d 815c 8bbc 1a53 0b3c
000000d0: 002e 713d 07f0 9c3c 31f5 ba3c 28e5 263d
000000e0: 9a38 6f3d d55d 90bc 33b0 803c 6e7b a2bc
000000f0: 7d8b 083d 5994 42bc 8c1c 083d aeae 863c
00000100: 2b83 ab3c dcf0 9abc 520a 0f3c 6003 a53d
00000110: 1583 f53c 78cc 643d fda5 4abd 3ddb fe3b
00000120: e4d1 1f3d b765 e73b 7331 88bb 6c12 0d3d
00000130: 6887 5c3d 2b3f dc3b a028 813d 0064 a83a
00000140: dadf 353d 1579 993c fe4d 863d d1f9 013d
00000150: 6db5 30bc cb53 383c 1fc3 493c 6405 cc3c
00000160: bdb6 953d 7eac 90bc f43d 1e3c 3a80 ba3c
00000170: cddf 88bb f22e 623d 1dd0 bc3c 109f cb3c
00000180: 8162 b4bc 1493 c6bc 8a4c 28ba 164c 5ebc
00000190: 56f9 c73c 4abb 4b3b 6dae 9c3d d06c dd3c
000001a0: 5f75 e23c c9cc 8dbc 8720 df3c e2d6 8e3d
000001b0: 3ade bf3d c29d af3c 17a1 843d 5b29 203d
000001c0: e653 6d3d 3067 db3c c2cc 27bc 368c 143d
000001d0: fee7 5a3c c1eb 123c be9d aa3b e30f 573d
000001e0: dd8f 05bc 2714 0f3d 9953 663c e929 cb3b
000001f0: abb9 513d 5d98 31bc f1eb a13c d216 3c3b
0.010423067 0.018167758 0.028059157 0.01211652 -0.002422927 0.05279173 0.026482772 0.052017864
0.049622614 0.008297759 0.049645316 0.047502685 0.023226568 0.010960817 0.04048033 0.016007656
0.024049135 0.0023058807 0.048069593 -0.01884698 0.023140261 -0.008823558 0.036323324 0.027136274
-0.008375065 0.014885942 0.060555555 0.012878914 -0.03907748 0.061782517 0.021607168 0.02640129
0.05321632 0.0040007476 0.004748519 -0.0024719455 0.056905817 0.046837736 0.034374192 0.059510466
-0.011238805 0.030877411 0.02777363 0.07929689 0.006584493 0.038740795 0.065616064 0.04067654
-0.012739697 0.041816007 -0.017011883 0.0085037 0.05888176 0.019157423 0.022821994 0.040745884
0.05840359 -0.017622868 0.015709018 -0.019834246 0.03333615 -0.011876189 0.03323035 0.016440716
0.02093657 -0.018913679 0.008730488 0.08057284 0.029969731 0.05585906 -0.049474705 0.0077776
0.039018527 0.007061686 -0.0041562854 0.034441397 0.05384007 0.0067213974 0.06306577 0.0012847185
0.044402935 0.018734494 0.065578446 0.031732384 -0.010785443 0.011250447 0.012314587 0.024904914
0.07310245 -0.017660376 0.009658325 0.022766221 -0.0041770698 0.05522055 0.023048455 0.02485612
-0.022019627 -0.024240054 -0.00064200966 -0.013567945 0.024410885 0.0031086975 0.076504566 0.027029425
0.027643858 -0.017309563 0.02723719 0.069745794 0.09368558 0.02143753 0.06476038 0.03910194
0.05794134 0.026782602 -0.010241689 0.036266528 0.013360975 0.008967341 0.0052067926 0.052505385
-0.008151975 0.03493133 0.014058017 0.0062000644 0.051202457 -0.010839549 0.019765826 0.0028700125

network_body._body_endoder.seq_layers.0.weight f4 [128, 10]
00000000: a0cb 383e f8b9 a73d 2164 d6bd d89b a9be
00000010: 0660 ce3c 37c8 f93e ee92 07be 07cf 983e
00000020: 814c 72bd c1b8 d43e d55e ca3d 9cb0 e1be
00000030: dc18 c8bd 187f 4d3e 514d 653e 6cfd a7be
00000040: 9fb2 aebe aa3f 0abf 3443 34be d7e3 23be
00000050: 0717 533f 5fc2 543d 1825 0d3f 8cff 0ebe
00000060: 2bc1 29be 7a26 cdbc ec75 a0be 23a3 023e
00000070: 818a d73e abc0 143e 06d5 0e3d 3968 073e
00000080: aae5 d4bd 5a1d 523e b772 43be fab1 a53e
00000090: 7098 f93e 8e9c 71be 1a77 223e d700 29be
000000a0: 4126 adbe 5711 f53c 3055 c03e fbe4 173e
000000b0: d5ef f4bc 280a c33e f1bf 1dbe aa80 bb3e
000000c0: 41bd e33e 1b03 093e 5691 80be 8c2c 03bf
000000d0: 88ac d13d 12e2 87be 77e4 74bc 30af 92be
000000e0: 3a4a a0be ce39 05be 96c5 9abd 42a1 2fbe
000000f0: d526 c73e 93f2 5bbe 4f5d f2be 2832 b0be
00000100: a9d7 0bbf d9f7 bd3e 4582 1c3e 8879 c73e
00000110: a3b4 e5bd 82c4 cd3e c1c3 0a3f 8018 4fbe
00000120: 923c b93d cf3c b5be 4fab 19be eb8e 17bd
00000130: 2c44 bbbe 63de 133f c0f4 3e3e b78b 8cbe
00000140: 4ad8 fcbe 3feb aebe 5485 04be 26ae f9be
00000150: 8618 193f 2a5f 81bd 550f f9be 1825 40be
00000160: 40d6 a73e 3062 613e 0891 61bc 69d0 07be
00000170: 0c93 b2be c497 c9ba 8d69 02be ded0 52be
00000180: 8c80 213d 1b22 02be 5e52 063e b912 c8bc
00000190: 5b72 963c c2d6 153e 10fc ccbd e25f 04be
000001a0: 908f 56bd 4bc1 c63d 611e e23d aa48 35bf
000001b0: cb4c 53be b2a4 abbe c7a2 f53d 843b babd
000001c0: 85a0 62ba e0e9 47bb cddf 463e 4bae 593e
000001d0: f085 7ebe 5a18 e23d 8b56 3bbe 8b8a e9be
000001e0: 30fc 12bf 8964 8cbe ff22 edbd 2276 0b3e
000001f0: 82ae ad3e 6c99 553e 48e4 a8be cb78 7a3e
00000200: a2ef 4e3d 3141 083e 71fc 2bbe 6297 a9be
00000210: aad0 dc3e 9ce8 843c f390 4c3e eef9 98be
00000220: 7c88 1bbe b710 1dbf 09b6 7f3d 12c7 a7bd
00000230: 994e 8d3e 7a6a fdbd 29eb 743e 55eb 5abf
00000240: 5f36 efbd 61f9 f2bd d847 24be 1dbb 083e
00000250: 4172 08bf 02d7 b6be 4e02 a4bd 5671 1bbe
00000260: 285b 263e 6e6d 8e3e bdc7 8d3e 0abd cbbe
00000270: 234e 393d 2d5d f33e be32 c4be 39a1 393d
00000280: 1828 cfbe 50cf b4bd 22c2 e9be 73dd 243d
00000290: ad6e 9d3c a53f 5dbe 4582 a3be c057 b43e
000002a0: e9ed 1cbf ff6c 323e cd82 b63e 27bc 6fbe
000002b0: 9b3a f63e 69c0 ca3e f9d0 e33d 706b d4bc
000002c0: 71b4 d2be 374f 94be 2b84 353d 8771 043f
000002d0: c455 e13c 39d0 05bf b9ee 8cbd aaf0 653e
000002e0: ae2f 4c3c a059 c23e c9c2 bebe daa8 593e
000002f0: fc5c 04bd 47b3 21bf 08e4 aa3d 3a99 753e
00000300: 328f eb3e 3575 b6bd b008 803e a222 29bc
00000310: 250b 8a3e dc05 1b3f e24b 83be 2d3a 0a3f
00000320: d31d 6e3e e3f2 b13c 6adc 9b3e 09e0 cfbd
00000330: 0245 16bf ab28 2cbe 560f 5b3f 0116 71be
00000340: 89ae a03e 8a90 053e 831e 0ebe a343 0bbf
00000350: fb05 373e 974d e53d fb97 963e afe6 b1be
00000360: b573 7c3e 09d0 c5bc aa5d fbbc ae4d b33d
00000370: 1b87 863e 9a67 153d 95fc 503b fa9f a0be
00000380: f221 8cbe 55f5 903e 0f0f 19bf 80cf ad3e
00000390: d2a3 283c 696c ddbe 229b 48be 5612 c8bd
000003a0: 2be9 303d 0518 163d 1df1 5d3e 56d8 0bbe
000003b0: 52bb c3bb 40c7 56bc 5165 263f 5808 c63d
000003c0: 9e9a a1be 45fe ed3e a290 303e 2b46 21be
000003d0: 3c9c d63e dbbc 8abc 86a7 50be 9b10 8e3e
000003e0: f8e8 a93e 53af f3bd e0c2 9abe 1bd2 20bf
000003f0: ba5b 29bc 8dac 28bf cc63 ab3e 4a2d a0be
0.18046427 0.081897676 -0.10468317 -0.33126712 0.025192272 0.48785564 -0.13239643 0.2984545
-0.05915499 0.41547206 0.09881369 -0.44080055 -0.097703665 0.20068014 0.22392775 -0.32810533
-0.34120652 -0.54003394 -0.17603761 -0.16004883 0.8245701 0.05194318 0.55134726 -0.13964671
-0.16577594 -0.025042761 -0.31339967 0.12757544 0.42097858 0.14526622 0.034871124 0.13223352
-0.103953674 0.20519009 -0.19086729 0.32362348 0.48749113 -0.23594877 0.15865746 -0.16504227
-0.33818248 0.029915495 0.37564993 0.14833443 -0.029899517 0.38093686 -0.15405251 0.366216
0.44480327 0.13380091 -0.25110883 -0.5123985 0.10237986 -0.26539665 -0.014947048 -0.28649282
-0.3130663 -0.13010332 -0.07557218 -0.17151359 0.38896814 -0.21479253 -0.47336814 -0.34413266
-0.54625946 0.37103155 0.15284069 0.38959908 -0.11216094 0.40188986 0.54204947 -0.2022419
0.09044756 -0.35397956 -0.15006755 -0.03700153 -0.3657545 0.5776121 0.18648052 -0.27450344
-0.49383765 -0.34163854 -0.12941486 -0.48765677 0.59803045 -0.06316979 -0.4864451 -0.1876415
0.32780647 0.22010112 -0.013767488 -0.13263096 -0.34877813 -0.0015380313 -0.12735577 -0.20587489
0.039429232 -0.12708323 0.13117358 -0.02442299 0.018365076 0.14632705 -0.100090146 -0.12927201
-0.052383006 0.097048365 0.110409506 -0.70814 -0.20634763 -0.3352409 0.11993938 -0.09093383
-0.0008645135 -0.003050439 0.1942131 0.21257894 -0.2485578 0.11039801 -0.18294732 -0.45613512
-0.5741606 -0.27420452 -0.115789406 0.13619283 0.339222 0.20859307 -0.32986665 0.24460141
0.0505215 0.13306119 -0.16795518 -0.33123308 0.43127948 0.016224198 0.19977169 -0.2987818
-0.15188783 -0.6135363 0.06242946 -0.081922665 0.27599028 -0.123738244 0.23917831 -0.8551534
-0.11680292 -0.118639715 -0.16043031 0.13352628 -0.5329934 -0.35710913 -0.08008252 -0.15179953
0.16245711 0.27817863 0.2769145 -0.39792663 0.045240533 0.47532025 -0.38319963 0.04531977
-0.40460277 -0.08828604 -0.45655924 0.040250253 0.019217813 -0.2160631 -0.31935325 0.35223198
-0.6130052 0.17424391 0.35646668 -0.23411618 0.48091587 0.39599922 0.11123843 -0.025930136
-0.4115329 -0.28966686 0.0443155 0.5173573 0.027506717 -0.5227085 -0.0688147 0.22455087
0.01246254 0.37959003 -0.37257984 0.21255818 -0.03231524 -0.6316418 0.08344275 0.23984233
0.46007687 -0.08909074 0.25006628 -0.0103231985 0.26961628 0.60555816 -0.25643831 0.5399502
0.23253565 0.021722263 0.304416 -0.10150153 -0.5869905 -0.16812389 0.85570276 -0.2354355
0.3138316 0.13043419 -0.13878827 -0.5440008 0.17873375 0.1119644 0.29412827 -0.3474631
0.24653514 -0.02414705 -0.030684311 0.087550506 0.26274952 0.036475755 0.0031888832 -0.31372052
-0.27369648 0.28312173 -0.597886 0.33947372 0.010292964 -0.43246773 -0.19590428 -0.09769122
0.043191116 0.036644 0.21674009 -0.13656744 -0.005973258 -0.013109028 0.64998347 0.0966956
-0.31563276 0.46483055 0.17242673 -0.15749423 0.41916072 -0.016935756 -0.20376405 0.27747044
0.33185554 -0.11898675 -0.30226803 -0.62820596 -0.010336811 -0.6588829 0.33474576 -0.31284553

network_body._body_endoder.seq_layers.2.bias f4 [128]
00000000: ad91 893b a600 3ebc 653d bb3a 29bc ca3c
00000010: 285f 663c a5b8 1c3d 8fa1 033d ac57 ae3c
00000020: 6909 4b3b 8744 0c3d dde7 1b3c 0446 f73b
00000030: 22ae 233d e30d 093d 8f15 2c3d 1d0f 3f3c
00000040: 5b19 c53c 5dc8 2f3d 7951 213c cc6b 8e3c
00000050: c401 bc3c f783 8b3c 673b 01bc f731 ac3c
00000060: 9540 4b3c e695 c23c 3e89 043d 4cb1 753c
00000070: 0e73 1b3d 643c 993c 4102 2b3d c5ac babb
00000080: 6e38 123d 28d1 d6ba df15 6a3c d19a 8a3c
00000090: 3081 f53c 827c ed3b eac9 82bb 9340 503d
000000a0: 8f51 373c 6f12 963c f891 b3bb 2c85 823d
000000b0: 0260 0f3c 7d6d ad3c ba38 f53c c998 d33c
000000c0: 07f4 3e3b b797 b0bb 4cce 8d3c 291f 023d
000000d0: de2d df3b 4ab9 373c 8d6c cc3b 4ed5 8b3c
000000e0: d8d0 f9bb a89b a13a dd8a 26bc 9b47 fb3c
000000f0: 50e2 ac3c e9b2 593c 9f9e d13c d4c7 fb3c
00000100: 2f94 fe3b ec0d 013d 282f 3d3d 9504 173d
00000110: 779e 6c3c a27b 5f3d a751 153c 00dc f13c
00000120: a119 003c 1d11 2d3d cb27 baba a8fd 283c
00000130: c2dc 043d b41b d43c 739f 193d 6c50 213d
00000140: 7724 b83c eaf0 2ebc 0996 9c3b 05c0 bd3b
00000150: 36f0 193d fbe2 4a3c 38f2 0b3d 5900 073d
00000160: 17db 0f3c 41ff 943a 14d3 e23a b82e be3c
00000170: 62ff d63c 1b33 7d3c f0c2 3c3d 2444 043c
00000180: 877e db3c 47f8 163d 3d2e 67bb 5150 873c
00000190: 4e66 3b3c a9e2 f33c 6683 b53c c1fa f2ba
000001a0: ed4f 2f3d fd49 293c 74b2 873c bcc3 a2bc
000001b0: 746e f43c d42b 123d a42c 3b3c a33c 4d3c
000001c0: 3036 653c c957 27bc 08ce 943c a5bf 9e3c
000001d0: 1320 e53c 394c 013c 95f5 8eb9 f88d 583b
000001e0: e797 1b3d 2d88 3d3d b45c ee3c 96ac 3a3d
000001f0: 33b6 0c3c ca93 033d e668 a23c 7784 ff3c
0.004198274 -0.011596834 0.0014285265 0.024747925 0.014060773 0.03826203 0.032136496 0.02128204
0.003098095 0.03424504 0.00951573 0.0075461883 0.039960988 0.03346051 0.042012747 0.011661318
0.024059942 0.04291569 0.009846085 0.017385386 0.02295006 0.0170307 -0.007887698 0.021019919
0.012405534 0.023753118 0.032357447 0.014995884 0.03795152 0.018705554 0.041750196 -0.0056968653
0.035698347 -0.0016389238 0.014287441 0.016919525 0.029968828 0.0072475085 -0.003991355 0.050842833
0.011188879 0.018319337 -0.0054800473 0.06373057 0.008750917 0.021170372 0.029934276 0.02582969
0.002913715 -0.0053891796 0.017310284 0.031767998 0.0068108877 0.01121361 0.006238526 0.017069485
-0.007623773 0.0012329714 -0.0101649435 0.030673793 0.021104008 0.013287284 0.025588332 0.030734934
0.0077691297 0.031507418 0.04618755 0.036869604 0.014442078 0.054561265 0.009113706 0.02952385
0.00781861 0.04225265 -0.0014202533 0.010314383 0.032437094 0.025892116 0.03750558 0.039383337
0.022478325 -0.010677556 0.004778628 0.005790713 0.0375826 0.012383218 0.034166545 0.032959316
0.008780262 0.0011367575 0.0017305338 0.023215637 0.026244823 0.015454079 0.046084344 0.008072887
0.026793731 0.03685787 -0.0035275363 0.01651779 0.011437966 0.029771166 0.022157382 -0.0018537865
0.042800833 0.010332582 0.016564585 -0.019868724 0.029837824 0.03568633 0.011424217 0.012526664
0.01398997 -0.010213801 0.01816465 0.019378493 0.027969396 0.007891708 -0.00027267323 0.0033043604
0.037986662 0.046272445 0.029096939 0.045574747 0.008588362 0.032123365 0.01982541 0.031191094

network_body._body_endoder.seq_layers.2.weight f4 [128, 128]
00000000: 2b31 263d 7689 cbbc 7778 6ebd 8321 373e
00000010: cd1d 9fbc d522 dabd e3af 8e3d 1391 69be
00000020: b866 3fbd 051d e23d e19c b93d 2e42 073d
00000030: e791 383d d409 6d3d e9a0 82bd 9f1c 84bc
00000040: 8534 39bb c889 52bc 0d28 a5bd d9a8 443d
00000050: dcc0 8fbe 2996 053d 82de fdbc b1b8 903c
00000060: 540e abba 8aa1 ab3d 27cb 1a3e 26cd 843d
00000070: f063 a13c a9b5 daba 4382 473d 00eb 193d
00000080: 4c4a 97bd 33e8 0d3e 362a 583e e7c7 05bd
00000090: f0c7 3e3b 7b07 9e3d 264a f83d 2650 a63d
000000a0: df76 043d 6fd5 833d 4066 ce3d 5fbb 0abe
000000b0: a620 f8bb 2a04 eeb9 764c ba3d cc13 4e3e
000000c0: 213e debd 12ef 5e3d 9458 dfbd 1b57 983d
000000d0: 1926 2cbd f9ee 9d3d b374 2cbd 3164 b1bd
000000e0: 2882 85bd a0f0 133e 90b0 083e 169f 07be
000000f0: 6dd2 b9bd 74bc 0c3e f457 2c3e 4d56 21bd
00000100: 7982 223d 9b93 ad3d 2749 45bc 11ef 003c
00000110: 0c2a 9d3d 199b cebd aaed f53d e4e7 52bd
00000120: 29ff be3d f614 983c 38e7 1e3e 6c6b 113e
00000130: cfeb b73d 6d3c 083e d85d 91bc 23d4 44bc
00000140: d2e3 74bd ca0b 9fbd 1537 37be 6370 443e
00000150: e405 643c 936b c73a 660e 24be 5096 f7bd
00000160: 9987 c8bc 7ba2 9abd 6697 643c c03e 0a3e
00000170: 4367 6b3e c546 ce3d 6079 a23c 1656 bc3c
00000180: d54c 013d 863f d03c 1db7 083e 1fa5 d4bd
00000190: 6498 6c3d 5991 49be a0c4 59bc 2936 15bd
000001a0: 1914 223d 67f0 e83c 6ef0 87bd 1bbc 3e3d
000001b0: 62c5 543c 064b 5fbd 2a5f 463d c658 21bd
000001c0: b469 ca3d 0b3d 1a3d 90eb a93d 3831 923d
000001d0: 1397 67bd 48e4 083e 2403 33bd 90c7 ccbd
000001e0: 23f4 a4bd 2baf 04bc 515a d8bd 3c8d 31bd
000001f0: 932a 03be 214d b0bd 76f3 ca3c d7ce b33d
00000200: 394a eebd 6bcc b53d 3d7a d93c 0a3a 2539
00000210: 952b 863d 5645 90bd 0d3d 69bd e7b2 91bd
00000220: 59f0 a3bd c860 e7bc 969f 053e 69a6 373e
00000230: 459d 4d3e 7f5e 143e bbfa 69bd 702f dfbb
00000240: ec38 c6bd 064e 43bd 26f6 8a3c c7cd 90bd
00000250: 215f 773c 236c 5dbe ec35 c63d 4b60 a43c
00000260: fd2f c2bd a285 72be 1f75 1fbe 7585 68bc
00000270: 0dc2 ff3d a06e b3bd 3e4e 93bd d8c9 f0bd
00000280: 0e61 d83d 62b8 453e 0cb6 eebd bc97 653d
00000290: fa57 0d3e 0791 533b 4ddc d23d 2aad 2cbd
000002a0: 924b 0f3d 0f0b c3bc 6a57 aabd 09ad 8cbd
000002b0: 1026 01be 1056 a93d 055b 583d d6f1 823d
000002c0: f227 f6bc faaa e3bd 5600 563e 23a7 913c
000002d0: 8055 b03d 2cf0 4cbd ee52 f0bd 18b3 2cbe
000002e0: d3b8 3ebe f868 303d 4e23 ff3d bb83 75bd
000002f0: 3284 5abc 7537 043e 585c 07be bfd1 8bbc
00000300: c9a5 0a3d 61aa 13bd 96ca 2abe 1eaa 1d3d
00000310: db7e 793d 81cd 46bd d149 b5bc 6b4f fdbc
00000320: 8c7f 01bd 7fd8 d5bd 701c d7bd d485 963d
00000330: 2c59 0b3d 7fec dabc 8cee 55bd 150f 2dbe
00000340: 61cb 62bd de19 f23d 0f6b 68bd 0329 07be
00000350: d9ae 22bc a670 c4bd 77ea 893b 4286 22bd
00000360: fa33 fb3c c95f 283d 050d 1dbd 0c8f 03be
00000370: 1661 fbbd ef6c 583a 9b6c 223e 2911 5dbd
00000380: f19c 50bd 7103 66bc 486f 0ebe bba5 8a3d
00000390: 183b 84bd ec52 acb9 7ebb 0c3d 3fd0 4cbd
000003a0: b06f 5abd 0b92 dcbd d7d6 293c 25ac 453c
000003b0: bd1b 97bd 9ee1 473e d172 f9bd 1dc3 51bd
000003c0: f5a3 b23c 24be 343d 22fc 4c3d d3aa 743d
000003d0: 1f6c 483d 04f0 c1bd dfaa 3dbd 1767 4b3d
000003e0: 26ee 4ebd 4321 563e cfd9 2f3d e972 b13b
000003f0: 8066 31bd 7d44 89bd 1fcb 20be a564 73bd
0.040574234 -0.02484582 -0.058220353 0.17883877 -0.01942339 -0.10651175 0.069671415 -0.22809248
-0.04672882 0.11040691 0.090631254 0.0330221 0.04506102 0.0578707 -0.063783474 -0.016126929
-0.0028260064 -0.012850232 -0.0806428 0.04801259 -0.28076828 0.032613907 -0.030989889 0.017666193
-0.0013050535 0.083804205 0.15116559 0.064844415 0.019700974 -0.0016686219 0.04870821 0.03757763
-0.07387218 0.13858108 0.21109852 -0.032661345 0.0029110871 0.077162705 0.12123518 0.08120756
0.032339927 0.064371936 0.100780964 -0.13548039 -0.0075722514 -0.00045398 0.09096615 0.2012474
-0.10851694 0.054427214 -0.10905567 0.07438489 -0.04202852 0.07711596 -0.04210348 -0.08661688
-0.06518966 0.1444726 0.13348603 -0.1324428 -0.09073339 0.13743764 0.16830426 -0.039388943
0.03967521 0.08475419 -0.012041367 0.007869498 0.076740354 -0.10088176 0.120082214 -0.05149068
0.09326012 0.018564682 0.1551789 0.14201134 0.08980524 0.133043 -0.017744943 -0.012013468
-0.05978758 -0.077659205 -0.17892106 0.19183497 0.01391742 0.0015214555 -0.16021118 -0.12089217
-0.02447872 -0.07550522 0.013952112 0.135005 0.2298861 0.10072092 0.019833267 0.022990268
0.031567413 0.025420915 0.13351102 -0.10383057 0.05776252 -0.19684352 -0.013291508 -0.036428604
0.039569948 0.028434945 -0.06637655 0.04656611 0.012986513 -0.054514907 0.0484306 -0.0393913
0.098834425 0.03765587 0.08296883 0.07138294 -0.05654056 0.13368332 -0.043704167 -0.09999001
-0.08054378 -0.008098404 -0.105641015 -0.043347582 -0.1280921 -0.08608461 0.024774294 0.08779686
-0.116352506 0.0887688 0.026547546 0.00015757247 0.06551281 -0.07044475 -0.05694299 -0.07114201
-0.08004827 -0.028244391 0.13049158 0.17934574 0.20079525 0.14489172 -0.05712388 -0.006811075
-0.09678826 -0.04768183 0.016963076 -0.07070499 0.015098364 -0.21623282 0.096782535 0.020065447
-0.09481809 -0.2368379 -0.15572022 -0.014191975 0.12488184 -0.087613344 -0.07192658 -0.11757249
0.10565387 0.19308618 -0.116558164 0.05605291 0.13803092 0.0032282488 0.10295925 -0.04215733
0.03498418 -0.023808984 -0.08317454 -0.06868941 -0.12612176 0.08268368 0.052821178 0.06393783
-0.030048344 -0.111165956 0.20898566 0.017779892 0.08610058 -0.050033733 -0.117345676 -0.16865194
-0.18625192 0.043068856 0.12457906 -0.05994008 -0.013337182 0.1291178 -0.1321882 -0.017067788
0.03384951 -0.036051158 -0.16678843 0.038492315 0.060911994 -0.048535828 -0.022129925 -0.030921659
-0.03161578 -0.10441684 -0.10503471 0.073497444 0.034020588 -0.026724098 -0.05222945 -0.16900285
-0.05536974 0.1182134 -0.056742724 -0.13199238 -0.009929382 -0.095917985 0.0042088586 -0.03967882
0.030664433 0.041106973 -0.038342495 -0.12847537 -0.12274377 0.00082559785 0.15861742 -0.053971443
-0.05093092 -0.014038906 -0.13909638 0.06769892 -0.06456584 -0.00032868178 0.034358494 -0.050003286
-0.05332917 -0.10770043 0.010366163 0.012064968 -0.073783375 0.1951966 -0.121801026 -0.051211465
0.021806696 0.044126645 0.05004514 0.059733223 0.048931237 -0.094696075 -0.046305533 0.04965886
-0.050520085 0.20911126 0.042932328 0.0054153097 -0.043310642 -0.06702516 -0.15702485 -0.059422154

network_body.observation_encoder.processors.0.normalizer.running_mean f4 [10]
00000000: 0087 71b8 152e 8838 3467 d7b8 d641 5c38
00000010: 600f 973c 0000 6032 0020 5cb2 b22d 0eb2
00000020: 0000 90af 660f 983c
-5.7584606e-05 6.493569e-05 -0.00010271222 5.2513402e-05 0.018439949 1.3038516e-08 -1.2812961e-08 -8.275878e-09
-2.6193447e-10 0.01856203
