Assets/Result/RollerBall-ppo-2/RollerBall/checkpoint.pt (torch, 442639 bytes, 44 tensors)

network_body.observation_encoder.processors.0.normalizer.running_mean f4 [6]
-0.18429263 -0.1916656 -0.062419493 0.0472862 0.14118259 0.39569512
00000000: 35b7 3cbe fd43 44be 95ab 7fbd 2daf 413d
00000010: 2b92 103e 8d98 ca3e

network_body.observation_encoder.processors.0.normalizer.running_variance f4 [6]
162639.14 159054.67 160131.42 146406.36 160678.48 158611.16
00000000: c9d3 1e48 ab53 1b48 db60 1c48 97f9 0e48
00000010: 9fe9 1c48 cae4 1a48

network_body.processors.0.normalizer.running_mean f4 [6]
-0.18429263 -0.1916656 -0.062419493 0.0472862 0.14118259 0.39569512
00000000: 35b7 3cbe fd43 44be 95ab 7fbd 2daf 413d
00000010: 2b92 103e 8d98 ca3e

network_body.processors.0.normalizer.running_variance f4 [6]
162639.14 159054.67 160131.42 146406.36 160678.48 158611.16
00000000: c9d3 1e48 ab53 1b48 db60 1c48 97f9 0e48
00000010: 9fe9 1c48 cae4 1a48

network_body._body_endoder.seq_layers.0.weight f4 [128, 6]
-0.35430187 -0.5230955 0.4339541 0.4959743 0.05357421 0.015450186 -0.25996903 0.6250355
0.2956146 0.3678947 0.8064042 -0.9112123 -0.7836042 -0.08776934 0.101887815 -0.019100385
0.5531461 0.35762334 0.1622516 -0.026488299 -0.19173765 -0.8955267 0.40274772 0.23203179
0.115029424 -0.7584985 -0.038642474 -0.6169007 -0.69502413 -0.77843004 0.08742903 0.49432683
0.9880407 -0.39339003 -0.07358785 -0.31020612 0.10978316 0.59937006 0.3068106 -0.36659753
0.33104753 0.37075222 -0.5839824 0.1152767 -0.7115721 -0.40903717 -0.01401213 0.20471554
0.6679503 -0.009958481 0.14301446 0.44677898 0.19857477 -0.15651357 0.48316658 -0.030209005
-0.18179569 0.20608886 -0.54553676 -0.33717746 -0.20163979 -0.4996062 -0.56797004 -0.40278846
-0.8527369 -0.17193878 -0.51878643 -0.30127943 0.12635571 -0.331197 0.62379897 -0.23520212
0.05852184 0.86417824 -0.5331494 -0.39347276 -0.31185484 0.15141112 0.33791682 -0.22432108
0.9452565 0.9988153 0.20305292 -0.6855781 -0.20145038 -0.24983855 0.41897172 0.565597
-0.1643628 0.00034514503 0.33042952 0.1396543 -0.49241433 0.14410426 -0.60316074 -0.045975365
-0.21461543 -0.28251317 0.14449841 0.38478795 0.041911434 0.3886251 0.2259268 -0.12872836
1.0017251 -0.24838771 0.076207995 0.8196674 -0.051321525 0.58623177 -0.698906 -0.7810943
-0.052248873 -0.38477314 -0.1428895 -0.71291226 0.13016458 -0.39580494 0.6647838 0.2903936
0.13895242 -0.5457136 0.51760393 0.4786161 -0.06194032 -0.19489473 0.24739645 -0.5193564
-0.30101722 0.61936754 -0.20171136 -0.6008729 0.41028523 0.6952164 0.17547318 0.036182046
0.41720995 -0.27041343 0.14150406 0.46378633 0.27767327 0.5378988 0.18583122 1.0273026
0.22975981 -0.25218222 -0.317059 -0.40897536 0.07020806 -0.7075843 -0.32842058 -0.38825247
-0.2537765 0.7808677 0.29200757 0.40553036 -0.27013454 -0.17344494 -0.6385404 -0.42758647
-0.2748574 0.8960871 0.3425694 -0.064323485 0.00078685733 0.23206665 -0.11129836 0.6481597
0.07059704 -0.8672057 -0.7232596 0.13773736 0.4923206 -0.08766644 -0.24476852 0.5923677
-0.17635427 -0.312246 -0.24300365 0.07005997 0.39670715 -0.09430928 -0.07801701 0.4173385
0.05074981 -0.59004474 0.25780424 -0.056996882 -0.61687034 0.13211186 -0.726565 0.34632513
-0.2974218 0.23231624 -0.91391075 -0.41571033 0.19584642 -0.3686308 0.3753924 0.17592125
-0.103949964 -0.65032256 0.34977165 -0.28356212 -0.46368197 0.21199685 0.61741155 0.29942402
0.2274805 -0.2337217 0.3037018 -0.855063 0.11389941 0.30053347 -0.038296442 0.7006505
-0.0506062 0.18557358 -0.12187147 -0.33978823 0.13937092 -0.65453804 -0.32175493 0.45893407
-0.7536031 -0.087677464 0.09818961 -0.23206261 0.073422536 0.42695692 -0.45886073 0.4959333
0.4547258 0.006379506 0.25999364 -0.59764737 -0.19858252 0.16854891 0.10453469 0.47175977
-0.40224335 -0.48529786 -0.4510502 0.092688896 -0.51367754 -0.1931945 -0.24929452 -0.37401736
-0.23464158 0.50470275 0.6320447 -0.643857 0.09170086 0.6024115 0.5605689 -0.22542928
00000000: 0e67 b5be 96e9 05bf 3b2f de3e 58f0 fd3e
00000010: a170 5b3d c722 7d3c a91a 85be 5402 203f
00000020: cc5a 973e b25c bc3e 8170 4e3f 3645 69bf
00000030: 499a 48bf 69c0 b3bd 8faa d03d 6978 9cbc
00000040: fc9a 0d3f 681a b73e 4925 263e fdfd d8bc
00000050: e056 44be 3d41 65bf f334 ce3e be99 6d3e
00000060: 8c94 eb3d f52c 42bf 9247 1ebd 34ed 1dbf
00000070: 1aed 31bf 3147 47bf fe0d b33d 6818 fd3e
00000080: 3cf0 7c3f 6b6a c9be 3ab5 96bd 56d3 9ebe
00000090: fed5 e03d 5170 193f 4716 9d3e acb2 bbbe
000000a0: 107f a93e 3cd3 bd3e df7f 15bf 3116 ec3d
000000b0: 9729 36bf 526d d1be 2293 65bc f3a0 513e
000000c0: cafe 2a3f e628 23bc 6272 123e 37c0 e43e
000000d0: 2f57 4b3e 1845 20be 9c61 f73e e078 f7bc
000000e0: a628 3abe f508 533e 4ca8 0bbf 86a2 acbe
000000f0: a97a 4ebe 62cc ffbe 7c66 11bf 4a3a cebe
00000100: f74c 5abf b810 30be 30cf 04bf 4c41 9abe
00000110: 6463 013e a792 a9be 4ab1 1f3f d3d8 70be
00000120: 99b4 6f3d c93a 5d3f 7b7c 08bf 4375 c9be
00000130: 70ab 9fbe 840b 1b3e 6f03 ad3e 6db4 65be
00000140: 54fc 713f 5cb2 7f3f 1bed 4f3e 0c82 2fbf
00000150: 0249 4ebe add5 7fbe 7683 d63e f7ca 103f
00000160: b94e 28be 95f4 b439 0f2e a93e 8901 0f3e
00000170: bb1d fcbe 1190 133e be68 1abf aa50 3cbd
00000180: 26c4 5bbe 91a5 90be 64f7 133e ed02 c53e
00000190: 53ab 2b3d def9 c63e 5b59 673e 5ed1 03be
000001a0: 8738 803f 5959 7ebe f012 9c3d b9d5 513f
000001b0: 8536 52bd 4913 163f 81eb 32bf ccf5 47bf
000001c0: ea02 56bd fc00 c5be a051 12be 6b81 36bf
000001d0: dd49 053e f2a6 cabe 452f 2a3f 78ae 943e
000001e0: 8b49 0e3e e3b3 0bbf b181 043f 2b0d f53e
000001f0: 22b5 7dbd 7c92 47be 7f55 7d3e 8bf4 04bf
00000200: ee1e 9abe df8e 1e3f 6c8d 4ebe ced2 19bf
00000210: e810 d23e b4f9 313f 3eaf 333e a033 143d
00000220: 8b9c d53e a173 8abe 71e6 103e 6775 ed3e
00000230: 312b 8e3e bcb3 093f 8a4a 3e3e a77e 833f
00000240: 2846 6b3e 071e 81be 8f55 a2be 3865 d1be
00000250: 3ec9 8f3d 3f24 35bf be26 a8be 07c9 c6be
00000260: feee 81be f2e6 473f 0482 953e ada1 cf3e
00000270: 134f 8abe 8d9b 31be 6277 23bf 9dec dabe
00000280: 1cba 8cbe f765 653f 4265 af3e 08bc 83bd
00000290: 1a45 4e3a e1a2 6d3e 65f0 e3bd cbed 253f
000002a0: 2e95 903d 3101 5ebf 8b27 39bf 060b 0d3e
000002b0: 7211 fc3e 768a b3bd 99a4 7abe 69a5 173f
000002c0: 3796 34be b5de 9fbe f3d5 78be 9a7b 8f3d
000002d0: 331d cb3e 3925 c1bd 62c7 9fbd 64ad d53e
000002e0: 08df 4f3d 2c0d 17bf ebfe 833e 9075 69bd
000002f0: 37eb 1dbf 5548 073e 2a00 3abf 8751 b13e
00000300: ac47 98be 4fe4 6d3e 0ef6 69bf fcd7 d4be
00000310: f78b 483e 2dbd bcbe 6f33 c03e b324 343e
00000320: b8e3 d4bd 8a7b 26bf 4515 b33e 0e2f 91be
00000330: b967 edbe b415 593e af0e 1e3f 1b4e 993e
00000340: a6f0 683e be54 6fbe cd7e 9b3e 69e5 5abf
00000350: 1844 e93d 86df 993e bbdc 1cbd d55d 333f
00000360: 7248 4fbd 0007 3e3e c097 f9bd b9f8 adbe
00000370: 40b7 0e3e ce8f 27bf 10bd a4be 68f9 ea3e
00000380: 22ec 40bf 3e90 b3bd a217 c93d d2a1 6dbe
00000390: 8e5e 963d 199a da3e cbef eabe f8ea fd3e
000003a0: d2d1 e83e 2d0b d13b e31d 853e 6bff 18bf
000003b0: 3759 4bbe 1698 2c3e 4916 d63d 7f8a f13e
000003c0: d7f2 cdbe f678 f8be 0df0 e6be add3 bd3d
000003d0: 5f80 03bf c7d4 45be 1047 7fbe 347f bfbe
000003e0: e245 70be 3334 013f aecd 213f d0d3 24bf
000003f0: a9cd bb3d a437 1a3f 7281 0f3f efd6 66be

network_body._body_endoder.seq_layers.0.bias f4 [128]
0.12297305 0.0054814355 0.06976109 -0.011526387 0.04063637 -0.05783189 -0.091317005 -0.019318832
0.029795416 0.006737061 0.0054832706 0.010118514 0.0014191463 0.07134226 0.08862387 0.02243319
0.051375307 0.045984797 -0.00032475806 0.082511455 0.10181683 0.08667626 -0.108219445 -0.1331352
-0.0037763487 0.09092575 -0.032243993 0.051400766 0.08913205 -0.03324063 0.04533634 -0.020739801
-0.03652415 -0.020995408 0.08841226 0.12090457 -0.015872007 -0.04320267 0.03564152 0.0943916
0.0114320405 0.07879743 -0.008224418 -0.10317797 -0.08878397 -0.0054147528 -0.04353236 -0.027992096
-0.037614554 0.05873057 -0.061536714 -0.07172716 0.06014934 0.04240175 0.027646279 -0.11320498
-0.003148087 -0.045294758 0.06259757 0.0011229832 -0.10037336 -0.020064091 0.14394093 -0.028866692
-0.020411642 -0.033452675 -0.026500951 -0.018261842 0.13151252 0.10347859 -0.015386131 0.059966527
0.003889752 0.029349308 -0.06765159 -0.049379997 -0.07720947 0.05827549 0.032420132 -0.014327297
-0.059146643 0.035147555 0.08215458 -0.0067996336 0.040146854 0.10782199 -0.008341036 -0.08016697
0.055694737 -0.012867433 0.04376521 0.09244522 -0.087477215 -0.012699136 0.0883273 -0.037493486
0.10880236 0.016556472 -0.024701986 -0.1370215 -0.009042054 0.079984345 -0.018148525 -0.12786953
0.012992366 -0.0003150001 0.035656232 0.01343359 -0.06970934 -0.023026293 0.014803139 0.08204393
0.016172314 -0.057096478 -0.07294736 0.12336287 -0.038897052 -0.01602369 -0.01951843 0.024139054
0.0012764023 -0.06656187 0.054130252 0.053423498 0.0062280027 0.014195148 -0.050600115 -0.06132306
00000000: 4bd9 fb3d 9d9d b33b e7de 8e3d 2cd9 3cbc
00000010: 5372 263d 22e1 6cbd 6904 bbbd 8742 9ebc
00000020: 8415 f43c 90c2 dc3b 02ad b33b 20c8 253c
00000030: a602 ba3a e41b 923d 6e80 b53d cfc5 b73c
00000040: ea6e 523d 8e5a 3c3d 4a44 aab9 c4fb a83d
00000050: 5885 d03d 5383 b13d 28a2 ddbd 9854 08be
00000060: 9e7c 77bb 4837 ba3d 4712 04bd 9c89 523d
00000070: dd8a b63d 5427 08bd 99b2 393d 84e6 a9bc
00000080: 599a 15bd 90fe abbc 7d11 b53d d19c f73d
00000090: 0306 82bc 48f5 30bd d8fc 113d 6250 c13d
000000a0: 744d 3b3c 8c60 a13d b6bf 06bc f94e d3bd
000000b0: 5fd4 b5bd 3d6e b1bb fd4e 32bd ae4f e5bc
000000c0: b811 1abd 778f 703d ec0d 7cbd b0e5 92bd
000000d0: 285f 763d 75ad 2d3d 737a e23c 03d8 e7bd
000000e0: 2350 4ebb ff86 39bd 2833 803d 1031 933a
000000f0: 8c90 cdbd 735d a4bc 4065 133e d779 ecbc
00000100: 5136 a7bc ac05 09bd 8618 d9bc dc99 95bc
00000110: 38ab 063e 95ec d33d 1c16 7cbc 769f 753d
00000120: 36eb 7e3b f66d f03c eb8c 8abd ae42 4abd
00000130: 0020 9ebd 48b2 6e3d f9ca 043d 0abd 6abc
00000140: c043 72bd e2f6 0f3d a940 a83d 76cf debb
00000150: 0771 243d c7d1 dc3d d7a8 08bc 952e a4bd
00000160: 2a20 643d edd1 52bc 2643 333d eb53 bd3d
00000170: 4127 b3bd 0910 50bc f2e4 b43d c592 19bd
00000180: c6d3 de3d 70a1 873c d25b cabc 5d4f 0cbe
00000190: 2025 14bc d5ce a33d 37ac 94bc 3bf0 02be
000001a0: efdd 543c 9926 a5b9 450c 123d 8f18 5c3c
000001b0: c5c3 8ebd a3a1 bcbc dd88 723c a606 a83d
000001c0: cd7b 843c ffdd 69bd 6d65 95bd aca5 fc3d
000001d0: 8452 1fbd 1d44 83bc 1de5 9fbc 44bf c53c
000001e0: f44c a73a 9751 88bd afb7 5d3d 99d2 5a3d
000001f0: 4614 cc3b c492 683c 1142 4fbd e42d 7bbd

network_body._body_endoder.seq_layers.2.weight f4 [128, 128]
0.08896888 0.07927385 0.21790026 -0.04812575 -0.13150008 -0.107633 -0.18431018 -0.043429162
0.04987006 0.06722027 -0.014107416 0.25955215 -0.028101426 0.08834756 0.07400973 0.052291967
-0.17673442 -0.034422353 -0.041005086 0.07107167 0.004512231 -0.09719087 0.07969853 -0.112659715
-0.046755556 -0.046738427 -0.009406456 -0.027284218 -0.107307434 -0.02312887 -0.22883543 -0.12916231
0.04323969 -0.02155927 0.1793025 -0.15967928 -0.0014851188 0.17272867 0.04401672 -0.08189087
-0.01516235 0.110819176 0.14462383 0.025717666 0.09796691 -0.0374468 0.0068016336 0.13944814
0.07335882 0.007870833 0.07635473 -0.13893121 -0.065045536 -0.03612104 -0.16545673 0.049029823
-0.02406495 0.119838886 -0.015447262 0.06993858 0.060320005 -0.017286386 -0.068559244 -0.036159426
0.111008205 0.025087895 0.029291192 0.20987107 0.04403645 -0.10635348 0.032952398 -0.006808272
-0.026911408 0.050816983 0.118894 -0.1947979 -0.03066337 0.040423162 0.13623446 -0.10205833
-0.014359497 -0.25928438 0.04916761 0.08272002 0.09688819 0.064402595 0.10075191 0.17246087
0.06791123 -0.03448686 0.1276641 0.047624517 0.030294415 0.035526697 -0.08219918 -0.0015306666
0.06534546 0.018267047 -0.108638786 -0.036695838 0.058791835 -0.07192683 0.005255734 0.14438434
-0.06104959 -0.004247746 0.09622889 -0.007840911 0.040663317 -0.017504135 0.006921141 0.050585628
-0.009171281 -0.11454095 -0.012106811 0.08823758 -0.15395269 -0.04734415 0.09611867 -0.07388728
0.040090676 -0.00277263 -0.22091004 0.06973621 0.18064658 0.031940814 -0.10264057 -0.0037808844
0.105365135 0.089135855 0.17243063 0.033574063 -0.10948653 0.05200292 0.057294343 0.15958484
0.026059635 -0.17968176 -0.07416564 0.09994959 -0.0949641 0.00048933626 0.047947094 -0.13250183
0.1759492 -0.0016671238 -0.045732915 -0.06786587 0.00781511 -0.110486045 -0.029329529 -0.05093499
0.032290284 -0.02964755 0.186482 0.043898605 0.030655423 0.076141864 -0.08792477 -0.23355998
0.10576921 -0.15859422 0.21258466 0.053953797 -0.110115044 0.04593077 -0.097854696 -0.06585371
0.018439587 -0.0072540445 -0.05796969 0.039457563 -0.04882882 -0.040660184 -0.16889784 -0.048465345
0.041737147 -0.04716487 0.012555406 -0.035516914 -0.2925201 0.10817659 0.093619354 0.06600144
-0.0028743716 0.05581543 0.17849725 0.105582856 0.04506371 -0.19224635 0.06253613 0.034680255
-0.008107765 -0.03497797 -0.20621711 0.031364482 0.0927493 -0.16757661 -0.26582152 0.1648843
0.10780239 0.10130846 -0.03363961 -0.09489598 -0.073524155 0.01621743 0.0030790372 -0.044311456
-0.042023893 -0.03402016 0.0022811703 -0.034553133 0.07042664 0.036827747 -0.13345668 -0.056073878
-0.058574233 -0.01816358 0.08748674 -0.018464096 -0.023569511 -0.22218673 -0.09709194 -0.047214773
-0.00765334 -0.16090529 -0.1907703 -0.1060523 -0.066386856 -0.01810899 -0.21572955 -0.0426148
-0.18319806 -0.107834764 0.098427966 -0.013384128 -0.1212639 0.075089216 -0.0014527324 -0.082435034
-0.12490297 0.115494594 0.096854836 0.16795717 0.08793929 -0.18123421 -0.09626737 0.06681412
0.03242334 0.00083696627 -0.13998629 0.14335464 0.07434631 0.121073164 -0.01557639 -0.21900208
00000000: 5135 b63d 545a a23d 3f21 5f3e 821f 45bd
00000010: f5a7 06be b16e dcbd cfbb 3cbe c7e2 31bd
00000020: 8c44 4c3d c8aa 893d cb22 67bc 05e4 843e
00000030: f634 e6bc 91ef b43d 6a92 973d 1a30 563d
00000040: def9 34be 74fe 0cbd f3f4 27bd 068e 913d
00000050: 56db 933b 020c c7bd fc38 a33d 23ba e6bd
00000060: c182 3fbd cb70 3fbd 891d 1abc 2783 dfbc
00000070: 00c4 dbbd c278 bdbc d653 6abe 2043 04be
00000080: 1a1c 313d 119d b0bc 139b 373e f782 23be
00000090: 51a8 c2ba c9df 303e e04a 343d 67b6 a7bd
000000a0: 816b 78bc 2af5 e23d 4518 143e dbad d23c
000000b0: e0a2 c83d d161 19bd 3de0 de3b 7ecb 0e3e
000000c0: 263d 963d abf4 003c de5f 9c3d fc43 0ebe
000000d0: 9836 85bd a8f3 13bd 7d6d 29be 7fd3 483d
000000e0: dc23 c5bc 176e f53d 8316 7dbc f53b 8f3d
000000f0: 1c12 773d 2e9c 8dbc ca68 8cbd e81b 14bd
00000100: 4558 e33d 2185 cd3c 15f4 ef3c 71e8 563e
00000110: 915f 343d dacf d9bd 18f9 063d ed17 dfbb
00000120: 5075 dcbc 7825 503d b37e f33d 1a79 47be
00000130: bf31 fbbc c292 253d 0c81 0b3e f503 d1bd
00000140: 1944 6bbc ecc0 84be fa63 493d 1d69 a93d
00000150: 516d c63d 82e5 833d 0457 ce3d 9599 303e
00000160: 0b15 8b3d 1842 0dbd 61ba 023e ed11 433d
00000170: fe2b f83c 7184 113d 0b58 a8bd a6a0 c8ba
00000180: d7d3 853d c6a4 953c 037e debd 604e 16bd
00000190: b5cf 703d 604e 93bd 4b38 ac3b 7dd9 133e
000001a0: 230f 7abd ad30 8bbb a713 c53d 2a77 00bc
000001b0: 948e 263d d564 8fbc bdca e23b e032 4f3d
000001c0: 2443 16bc 7294 eabd a55b 46bc e8b5 b43d
000001d0: c6a5 1dbe f0eb 41bd ded9 c43d 3752 97bd
000001e0: 1f36 243d 03b5 35bb 3e36 62be dcd1 8e3d
000001f0: 6bfb 383e 5fd4 023d 3835 d2bd b7c8 77bb
00000200: adc9 d73d dc8c b63d a891 303e f584 093d
00000210: 793a e0bd 0401 553d 79ad 6a3d 356a 233e
00000220: 047b d53c 7ffe 37be 28e4 97bd 5fb2 cc3d
00000230: 8a7c c2bd cd46 003a 2c64 443d 8fae 07be
00000240: 072c 343e 6483 daba 7052 3bbd 43fd 8abd
00000250: f20a 003c 8246 e2bd 7b44 f0bc 35a1 50bd
00000260: d142 043d 6bdf f2bc 23f5 3e3e 06cf 333d
00000270: 1521 fb3c 44f0 9b3d e711 b4bd 592a 6fbe
00000280: 879d d83d 8666 22be cbaf 593e a8fe 5c3d
00000290: ff83 e1bd e721 3c3d 0b68 c8bd 4fde 86bd
000002a0: 9e0e 973c 56b3 edbb a071 6dbd 419e 213d
000002b0: bb00 48bd 4b8b 26bd 8ef3 2cbe 9983 46bd
000002c0: 92f4 2a3d f32f 41bd 31b5 4d3c 2f7a 11bd
000002d0: 32c5 95be b08b dd3d 81bb bf3d c32b 873d
000002e0: f45f 3cbb b89e 643d fcc7 363e d33b d83d
000002f0: ba94 383d 3adc 44be f112 803d e20c 0e3d
00000300: 6ed6 04bc 0f45 0fbd 942a 53be 0b78 003d
00000310: 58f3 bd3d 3499 2bbe c219 88be 6ed7 283e
00000320: 80c7 dc3d cf7a cf3d b0c9 09bd d358 c2bd
00000330: d593 96bd 6ada 843c acc9 493b ee7f 35bd
00000340: 3f21 2cbd b958 0bbd b07f 153b 9687 0dbd
00000350: d83b 903d b1d8 163d dea8 08be b9ad 65bd
00000360: 89eb 6fbd cacb 94bc 3f2c b33d 0442 97bc
00000370: d914 c1bc eb84 63be 24d8 c6bd 4764 41bd
00000380: dfc8 fabb 5bc4 24be 4a59 43be f331 d9bd
00000390: d5f5 87bd 4e59 94bc 35e8 5cbe db8c 2ebd
000003a0: 4698 3bbe 79d8 dcbd 9a94 c93d 1a49 5bbc
000003b0: 3559 f8bd 60c8 993d 9c69 beba b3d3 a8bd
000003c0: 21cd ffbd 6e88 ec3d d45b c63d f7fc 2b3e
000003d0: 8419 b43d 7695 39be d427 c5bd d7d5 883d
000003e0: 56ce 043d db67 5b3a 9158 0fbe 8fcb 123e
000003f0: e142 983d 35f5 f73d 1d34 7fbc 1542 60be

network_body._body_endoder.seq_layers.2.bias f4 [128]
0.022951642 0.11510465 0.011480351 0.008056809 -0.064847514 -0.0280078 0.09712899 0.09093261
0.016273268 0.10998256 -0.02470382 0.045965772 0.108614914 0.10721958 0.13560422 0.13575175
-0.021772135 0.024822224 -0.036859274 -0.0031406297 0.087249756 -0.011194422 0.015381275 -0.018112341
0.11454382 0.10896594 -0.0015238082 0.025865288 0.14562026 0.007370331 0.087439455 -0.06979153
-0.052889496 -0.0068624653 -0.07391077 -0.04901457 -0.06459391 -0.026371632 -0.0053332793 0.13749939
-0.06016918 -0.04057745 -0.01449165 0.11775264 -0.0020004313 -0.017682256 0.019414313 -0.011622919
-0.054920986 0.01268406 -0.021693362 -0.07515139 -0.016749384 -0.007944322 0.04151449 0.14067563
0.13224295 0.02253921 0.0012337578 0.04177717 0.046141338 -0.0064547756 -0.0412193 -0.014849947
0.09295215 0.03759163 -0.03422992 0.16124012 -0.010509862 0.15439145 -0.036684625 -0.0022807417
-0.02333056 0.02578357 0.1078424 -0.054924846 0.016861027 0.14313512 0.055865027 -0.08144098
0.060088646 0.037791822 -0.027258782 0.1421474 -0.029891012 0.08462203 0.13930978 0.10285131
-0.009152659 0.07342241 0.09501291 0.13162702 -0.04677026 0.062352244 0.017980132 -0.05259096
0.10289384 0.10697917 0.05186018 0.14845632 0.0032013156 -0.02413788 0.12407336 0.059934452
0.075385876 -0.07449173 -0.023687692 -0.036182046 -0.049102668 0.021003678 -0.040781386 0.08650567
0.110907264 0.004662932 0.0487387 0.1063926 0.11108237 -0.06714046 0.0794374 0.107180886
-0.02488383 0.07186941 0.088913105 -0.012460266 -0.077462465 0.007814008 0.08072432 0.156941
00000000: 1505 bc3c fdbb eb3d 1518 3c3c b500 043c
00000010: c6ce 84bd 9d70 e5bc 90eb c63d e03a ba3d
00000020: 844f 853c 893e e13d aa5f cabc 9b46 3c3d
00000030: 7f71 de3d f095 db3d d5db 0a3e 8202 0b3e
00000040: 7a5b b2bc fa57 cb3c c0f9 16bd 06d3 4dbb
00000050: 00b0 b23d cf68 37bc be01 7c3c 5560 94bc
00000060: f395 ea3d 8929 df3d 85ba c7ba 71e3 d33c
00000070: 7a1d 153e d182 f13b 7513 b33d ddee 8ebd
00000080: a8a2 58bd 88de e0bb 885e 97bd 80c3 48bd
00000090: d049 84bd 5209 d8bc cac2 aebb a4cc 0c3e
000000a0: f573 76bd 8a34 26bd 636e 6dbc 4c28 f13d
000000b0: ab19 03bb 61da 90bc c40a 9f3c 0e6e 3ebc
000000c0: d4f4 60bd ced0 4f3c 47b6 b1bc f9e8 99bd
000000d0: 0136 89bc e728 02bc 190b 2a3d 460d 103e
000000e0: b26a 073e 26a4 b83c 0bb6 a13a 8a1e 2b3d
000000f0: b3fe 3c3d 9582 d3bb 92d5 28bd 314d 73bc
00000100: b25d be3d aef9 193d ac34 0cbd 211c 253e
00000110: 8e31 2cbc cb18 1e3e 9e42 16bd 7f78 15bb
00000120: bb1f bfbc 1138 d33c 7adc dc3d e0f8 60bd
00000130: 2320 8a3c 0392 123e bad2 643d 87ca a6bd
00000140: 831f 763d 99cb 1a3d cf4d dfbc 178f 113e
00000150: ffdd f4bc 514e ad3d 39a7 0e3e b5a3 d23d
00000160: 09f5 15bc 7d5e 963d 2196 c23d 3cc9 063e
00000170: 2c92 3fbd 1165 7f3d 124b 933c 9e69 57bd
00000180: 01ba d23d e517 db3d 576b 543d ef04 183e
00000190: 2acd 513b cebc c5bc 2c1a fe3d d47d 753d
000001a0: e963 9a3d 1f8f 98bd b10c c2bc a033 14bd
000001b0: e11f 49bd e80f ac3c 620a 27bd e229 b13d
000001c0: 5923 e33d 82cb 983b 3ba2 473d 5de4 d93d
000001d0: 277f e33d f080 89bd 13b0 a23d a781 db3d
000001e0: 2dd9 cbbc 4530 933d 1318 b63d 2526 4cbc
000001f0: a4a4 9ebd 5306 003c cb52 a53d 24b5 203e

action_model._continuous_distribution.log_sigma f4 [1, 2]
-0.12771937 -0.09710277
00000000: dec8 02be d1dd c6bd

action_model._continuous_distribution.mu.weight f4 [2, 128]
-0.06817878 -0.078096986 0.07093422 -0.054449312 -0.018562498 0.048851635 -0.09694445 0.06431875
0.10134171 -0.031793505 -0.033086143 0.110111065 0.10308508 -0.064456865 -0.008574685 -0.020593558
-0.036539316 -0.096394286 0.036907956 -0.051835425 -0.026676232 0.081268236 0.08479298 -0.037800673
0.10051035 -0.06944076 0.023822665 0.07879402 0.015504337 -0.060930133 0.040828556 -0.01206517
0.011901934 -0.026625821 0.0035121134 -0.06914883 -0.007068182 0.03841945 0.077670805 -0.019735444
-0.022729341 0.02216244 0.06504898 -0.07378346 0.05999959 0.01904502 -0.048918154 0.00410624
-0.011106511 -0.008835652 -0.039746087 0.014151274 0.037628587 0.0375611 -0.010780191 -0.077450946
-0.09444368 0.09680672 -0.054204922 0.071651295 0.08994573 0.022990162 0.005697457 0.027029058
0.10222705 -0.061541084 0.03022562 0.08120069 -0.0239147 -0.065361924 -0.031678747 0.041414794
-0.05319056 -0.048423577 -0.045942027 -0.04764858 -0.06780412 -0.0986633 -0.0869849 0.003791937
-0.067512035 0.080882914 0.06057528 -0.058523864 0.013339255 0.07847066 -0.081292935 -0.07318175
0.10975171 -0.067061916 -0.06823116 0.0024087217 -0.011655492 -0.09846952 -0.037517186 0.023620907
-0.09989229 -0.023647752 -0.024790468 -0.08811471 -0.036123745 0.035338894 -0.08638315 -0.059883993
-0.05986466 -0.040970184 0.08723372 -0.04373296 -0.023718005 0.06590555 0.01620529 0.077349745
-0.05800221 0.04514213 -0.047497604 0.10146408 -0.107291915 -0.010176926 -0.10169491 -0.11083749
-0.01984897 -0.062436983 -0.0032769341 -0.030139772 -0.018258568 0.08160939 0.15088984 -0.12074856
-0.0038349123 -0.065508425 0.0056764693 0.02627594 0.029742975 -0.0005279009 -0.061272737 -0.108444355
-0.034085646 -0.07729593 0.0098759085 -0.03287664 -0.07331694 -0.029282544 -0.08505752 -0.07822148
0.005641604 0.020399986 0.043100525 0.08631798 -0.034425765 0.048608933 -0.017152427 0.10558108
-0.099880725 -0.08150191 0.1164511 -0.02475355 -0.123639435 0.019111307 -0.06778215 0.041006174
0.06285281 0.048426762 0.023086231 0.038171668 0.06167518 0.07131347 -0.012874575 -0.073901266
0.05611147 0.09173286 0.045311496 -0.06668057 0.050598793 -0.0014746704 -0.04151779 0.08744555
0.098265044 -0.016711026 0.10933589 0.02509789 0.07251351 0.095209636 -0.028233932 -0.073867515
-0.05324125 -0.009748342 0.119090304 -0.032130428 -0.058239695 -0.013358177 0.0569772 0.10608709
-0.097662374 -0.0046228734 0.0053686714 -0.143766 0.10379717 -0.104741484 0.061084263 0.1123697
0.090747826 -0.0435198 -0.064599745 0.0066648135 -0.019851454 -0.07428793 -0.033547267 0.01670843
-0.041399207 -0.043796055 0.022472525 -0.095904164 0.08245689 -0.06300484 -0.089200646 -0.071472034
0.005224641 -0.05903084 -0.07726215 -0.10139298 0.018677263 -0.024397459 0.10969323 0.06702388
0.004118538 -0.03796294 -0.013767767 -0.08089614 0.0064657144 -0.00244543 -0.07384265 -0.02463616
-0.036782872 0.011152016 0.036737096 0.0127885565 0.009838378 -0.01651499 0.09258214 -0.09308008
-0.048788317 -0.0035820396 -0.02108662 -0.09214947 -0.08311967 0.03772275 -0.042608604 -0.057766438
0.11265801 -0.021376751 -0.06200732 0.07828557 0.025778616 -0.019509984 -0.05972052 -0.11386328
00000000: 51a1 8bbd 50f1 9fbd f645 913d 3e06 5fbd
00000010: 6110 98bc a718 483d d08a c6bd 8cb9 833d
00000020: 3e8c cf3d e839 02bd 5685 07bd e981 e13d
00000030: 451e d33d f601 84bd d67c 0cbc d2b3 a8bc
00000040: 40aa 15bd 5e6a c5bd cc2c 173d 6251 54bd
00000050: 1d88 dabc f66f a63d f1a7 ad3d e1d4 1abd
00000060: 5fd8 cd3d f536 8ebd c027 c33c c25e a13d
00000070: e705 7e3c e091 79bd d83b 273d feac 45bc
00000080: 5400 433c 651e dabc 7c2b 663b e79d 8dbd
00000090: 359c e7bb b75d 1d3d df11 9f3d 3aac a1bc
000000a0: e232 babc 018e b53c 6638 853d c81b 97bd
000000b0: 21c2 753d 4d04 9c3c 675e 48bd a38d 863b
000000c0: 15f8 35bc 69c3 10bc cbcc 22bd bfda 673c
000000d0: 6f20 1a3d abd9 193d 669f 30bc 9a9e 9ebd
000000e0: b06b c1bd 9a42 c63d fb05 5ebd eabd 923d
000000f0: 7835 b83d dd55 bc3c bcb1 ba3b 0b6c dd3c
00000100: 6a5c d13d 8112 7cbd b89b f73c 8c4c a63d
00000110: c3e8 c3bc 79dc 85bd 93c1 01bd 8fa2 293d
00000120: 58de 59bd cd57 46bd b52d 3cbd 282b 43bd
00000130: e3dc 8abd fc0f cabd 2425 b2bd 2582 783b
00000140: c043 8abd f1a5 a53d c91d 783d b8b6 6fbd
00000150: e48c 5a3c 3ab5 a03d e97c a6bd 50e0 95bd
00000160: 81c5 e03d c257 89bd c7bc 8bbd a5db 1d3b
00000170: adf6 3ebc 63aa c9bd 9fab 19bd a280 c13c
00000180: 5494 ccbd eeb8 c1bc 6115 cbbc 7c75 b4bd
00000190: 7ef6 13bd 84bf 103d a6e9 b0bd eb48 75bd
000001a0: a534 75bd 5ad0 27bd 98a7 b23d 5521 33bd
000001b0: 434c c2bc 7df9 863d f5c0 843c 8b69 9e3d
000001c0: ba93 6dbd f4e6 383d d98c 42bd 66cc cf3d
000001d0: ddbb dbbd 1fbd 26bc 6c45 d0bd c4fe e2bd
000001e0: 4f9a a2bc ecbd 7fbd d5c1 56bb afe7 f6bc
000001f0: fe92 95bc d322 a73d de82 1a3e 054b f7bd
00000200: 2753 7bbb 4829 86bd ad01 ba3b a440 d73c
00000210: 8aa7 f33c d462 0aba 1ff9 7abd 1318 debd
00000220: 649d 0bbd 544d 9ebd 90ce 213c a8a9 06bd
00000230: 3127 96bd f2e1 efbc a332 aebd 9532 a0bd
00000240: 34dd b83b df1d a73c 2d8a 303d 7bc7 b03d
00000250: 0802 0dbd 291a 473d 3f83 8cbc e53a d83d
00000260: 448e ccbd 79ea a6bd ea7d ee3d f5c7 cabc
00000270: ac36 fdbd 518f 9c3c 5ed1 8abd 17f6 273d
00000280: f9b8 803d 245b 463d 561f bd3c e559 1c3d
00000290: 1d9f 7c3d cc0c 923d e2ef 52bc 8c59 97bd
000002a0: 24d5 653d 70de bb3d 8c98 393d d38f 88bd
000002b0: ae40 4f3d ba49 c1ba 8f0e 2abd a716 b33d
000002c0: 2f3f c93d 90e5 88bc 7feb df3d 179a cd3c
000002d0: f781 943d 45fd c23d d94a e7bc da47 97bd
000002e0: 7f13 5abd 83b7 1fbc 9ee5 f33d 329b 03bd
000002f0: bf8c 6ebd 41dc 5abc ed60 693d 3044 d93d
00000300: 3603 c8bd 797b 97bb aeeb af3b 6537 13be
00000310: 9c93 d43d b482 d6bd 7e33 7a3d 1622 e63d
00000320: ffd9 b93d d141 32bd df4c 84bd 8264 da3b
00000330: 849f a2bc 4524 98bd dc68 09bd 1ee0 883c
00000340: 3792 29bd 7e63 33bd 4d18 b83c 6769 c4bd
00000350: 28df a83d ae08 81bd d4ae b6bd ee5f 92bd
00000360: 7733 ab3b 52ca 71bd 9e3b 9ebd 1fa7 cfbd
00000370: 0f01 993c 2edd c7bc d8a6 e03d d143 893d
00000380: cdf4 863b 077f 1bbd 3392 61bc e0ac a5bd
00000390: 58de d33b 8243 20bb d13a 97bd c6d1 c9bc
000003a0: a3a9 16bd f2b6 363c a379 163d 1887 513c
000003b0: 2631 213c 724a 87bc b49b bd3d c5a0 bebd
000003c0: 42d6 47bd a7c0 6abb d9bd acbc dcb8 bcbd
000003d0: a53a aabd 2c83 1a3d 5c86 2ebd 809c 6cbd
000003e0: 3eb9 e63d 4c1e afbc 63fb 7dbd 2f54 a03d
000003f0: ad2d d33c 67d3 9fbc 819d 74bd 2731 e9bd

action_model._continuous_distribution.mu.bias f4 [2]
-0.016562475 -0.088614486
00000000: 07ae 87bc 837b b5bd

exp_avg f4 [128, 6]
-0.00052427565 -0.0035692346 0.004387288 0.005729841 0.00044321685 0.008760076 0.0016187143 -0.0008734911
-0.0028820504 -0.0024535751 0.003916672 -0.00027779365 7.741606e-06 -0.0006516465 -0.00027271287 -0.006033418
0.0030022536 0.0012889724 0.0034487708 -0.002314257 -0.00035593554 -0.001829673 0.0043470524 -0.0008400548
-0.0027035621 2.3256325e-06 0.0014649422 -0.002586005 -0.0004513441 -0.0042811655 0.0018493526 0.0039566397
0.0005068804 -0.0005405745 0.00093974656 0.0017505658 0.0003952308 0.00069561804 0.00021469622 -0.0029751472
0.0019069259 -0.0013411358 -0.00062465 -0.0022059048 0.00091645255 7.167824e-05 0.0009576585 -0.0019501201
-0.0018344821 -0.0022183638 -0.0008685388 0.00025039943 -0.00073051965 -0.00042039325 -0.0019334173 0.0008039021
0.00048912753 -0.0006571614 -0.0016818572 -0.0016911591 -0.0010923399 -0.0020078504 0.0013647905 0.00012557278
-0.0008322465 -0.003652909 0.0015198486 0.00076702517 -0.0027750728 -0.0033124762 0.0040700887 -7.44103e-05
0.0022261317 -0.0020761949 0.004215456 0.005290593 0.0028309007 0.0011961189 -0.00018487374 -0.004593315
0.0020224215 0.004225671 0.00036030228 0.006134047 -0.00034711734 -0.0019219229 0.0021879324 0.0035374372
-0.00076829124 0.0053003426 -0.0013427201 0.0013144427 -4.6832058e-05 0.00049108 0.0004986802 9.839344e-06
-9.21385e-05 -0.0007471253 0.000536185 0.0012710984 -0.001606012 0.001434024 -0.0002976119 -0.00054128957
7.0257905e-05 -0.0013647178 -0.0010087419 -0.001114384 0.00030274977 -0.011661978 0.0015461983 0.0021819174
0.00382097 -0.011197317 0.001475545 -0.0024647668 -0.0012607508 -0.0010366034 0.004776035 0.0024922024
-0.0002810435 -0.002327825 0.0022183987 0.0034952397 0.0008573131 0.005374258 -0.0020556392 0.0017320344
0.004287031 0.001855434 -0.0003846957 0.0066271406 0.0013039178 0.0011599156 0.00095936016 -0.00034605258
0.0020725627 0.00074304326 0.0006773976 0.0011312964 -0.0013339514 -0.00029439313 0.00023679285 -0.00019704674
-0.0029332864 -0.0031099867 0.00237797 0.0011662415 -0.0038427133 -0.0059136357 -0.00035122025 -0.0016503703
0.0005186157 0.0015391058 -0.0002826567 0.0021727625 -0.00041125642 -0.000823181 0.0009828027 0.0030576382
-0.0004263832 0.0007255572 -0.003224285 -0.00031693932 -0.0017248979 0.0022730154 -0.0010759447 0.002290431
-0.0019789306 0.0020426603 0.005102593 0.0052818083 -0.004029448 0.0056777047 0.001428541 -0.003621388
0.0030466653 0.0024439942 0.0026755182 -0.0019226813 -0.0022552288 -3.064275e-05 0.0024127504 0.00027333523
-0.0008858876 0.0020490682 -0.00044243774 0.0014768878 -0.0012401376 0.00050048466 0.00069824513 0.0004501947
-0.001737743 -0.0062077534 0.0025043122 0.0026458292 -0.0006113774 -0.006490237 0.0024534287 -0.003164162
0.0012120086 0.0010146245 0.002803129 -0.0024788922 5.944655e-05 -0.0013003533 0.0027688364 0.0029802956
-0.0011487136 0.004941094 -0.0032022896 -0.001630057 -0.0013456601 0.0027176056 -0.002534096 -0.0010902779
-0.00022098025 -0.0038151976 0.00021228315 0.00040952282 0.0013890428 -0.0049671694 -0.0011724359 -0.0021786503
0.00232122 0.002083454 0.0001705217 -0.00210496 -0.0020076816 0.0008220166 -0.0008334047 0.0004465133
-0.0012313902 0.0015119287 -0.0030026261 0.0032161423 -0.0016015127 0.0011695473 -0.0033934556 -0.00033474521
-0.0005011154 -0.00087491254 0.00053286075 -0.00097470166 0.0006631451 -0.0012094694 0.0024855533 -0.0006905521
0.0002447712 0.0010245998 0.0024568145 0.005007442 0.0010996986 0.0018643164 0.0006997714 -0.0023843644
00000000: 8b6f 09ba d2e9 69bb 3dc3 8f3b 64c1 bb3b
00000010: 8f5f e839 6c86 0f3c 0a2b d43a fffa 64ba
00000020: c8e0 3cbb 29cc 20bb 6d57 803b d5a4 91b9
00000030: f2e1 0137 42d3 2aba e7fa 8eb9 fab3 c5bb
00000040: 75c1 443b bdf2 a83a c604 623b caaa 17bb
00000050: dc9c bab9 a3d1 efba b871 8e3b 2037 5cba
00000060: 3f2e 31bb 1012 1c36 4e03 c03a f779 29bb
00000070: 61a2 ecb9 0549 8cbb fa65 f23a b3a6 813b
00000080: 2be0 043a 57b5 0dba 5359 763a 3e73 e53a
00000090: fb36 cf39 235a 363a 1420 6139 b0fa 42bb
000000a0: d1f1 f93a 0dc9 afba 8dbf 23ba f190 10bb
000000b0: 173e 703a f651 9638 600b 7b3a 2c9b ffba
000000c0: 0173 f0ba f861 11bb a7ae 63ba 0b48 8339
000000d0: 5880 3fba 3a68 dcb9 b86a fdba f5bc 523a
000000e0: cb38 003a 5b45 2cba c371 dcba e2a9 ddba
000000f0: d82c 8fba 2496 03bb c5e2 b23a 30ac 0339
00000100: 1e2b 5aba a565 6fbb a835 c73a 3012 493a
00000110: ffdd 35bb 2116 59bb 615e 853b ba0c 9cb8
00000120: 4be4 113b c510 08bb cf21 8a3b b65c ad3b
00000130: a286 393b 17c7 9c3a abda 41b9 8583 96bb
00000140: 9a8a 043b 7f77 8a3b f4e6 bc39 1e00 c93b
00000150: 4dfd b5b9 08e9 fbba 6a63 0f3b 59d4 673b
00000160: 2767 49ba 7fae ad3b 36fe afba 6149 ac3a
00000170: 8a6d 44b8 d2bb 003a ddb9 023a a913 2537
00000180: 7b3a c1b8 bbda 43ba c48e 0c3a fc9a a63a
00000190: d280 d2ba dcf5 bb3a cb08 9cb9 54e5 0dba
000001a0: 6d57 9338 55e0 b2ba c337 84ba 8610 92ba
000001b0: 63ba 9e39 e211 3fbc cea9 ca3a 80fe 0e3b
000001c0: 3d69 7a3b f474 37bc 1367 c13a ed87 21bb
000001d0: c73f a5ba a3de 87ba 4980 9c3b 3854 233b
000001e0: 0559 93b9 6c8e 18bb 8e62 113b 6410 653b
000001f0: 4fbd 603a 8b1a b03b e7b7 06bb 6e05 e33a
00000200: 397a 8c3b 0932 f33a fcb0 c9b9 7c28 d93b
00000210: 39e8 aa3a 4f08 983a 927d 7b3a 646e b5b9
00000220: d5d3 073b cac8 423a 6293 313a 0248 943a
00000230: fbd7 aeba c758 9ab9 994b 7839 559e 4eb9
00000240: 613c 40bb ebd0 4bbb b7d7 1b3b 92dc 983a
00000250: 08d6 7bbb 2cc7 c1bb fc23 b8b9 3d51 d8ba
00000260: b6f3 073a d2bb c93a 8a31 94b9 e864 0e3b
00000270: e79d d7b9 beca 57ba 63d1 803a a862 483b
00000280: 2f8c dfb9 5233 3e3a 874e 53bb e02a a6b9
00000290: f815 e2ba dff6 143b b706 8dba 0e1b 163b
000002a0: f2b0 01bb 27de 053b a733 a73b 0513 ad3b
000002b0: 7609 84bb 0a0c ba3b e23d bb3a cf54 6dbb
000002c0: 90aa 473b 6b2b 203b bf57 2f3b 7b02 fcba
000002d0: 76cc 13bb 6786 00b8 3c1f 1e3b 6f4e 8f39
000002e0: e93a 68ba a949 063b fdf6 e7b9 2294 c13a
000002f0: 1d8c a2ba f532 033a 700a 373a 1c08 ec39
00000300: fbc4 e3ba 696a cbbb 631f 243b a665 2d3b
00000310: d844 20ba 0eac d4bb b4c9 203b d45d 4fbb
00000320: 43dc 9e3a 26fd 843a b3b4 373b e974 22bb
00000330: 3f56 7938 9e70 aaba 5e75 353b 1051 433b
00000340: 6f90 96ba e7e8 a13b 81dd 51bb a3a7 d5ba
00000350: dc60 b0ba db19 323b 1313 26bb a8e7 8eba
00000360: efb6 67b9 6508 7abb 5398 5e39 39b5 d639
00000370: 8b10 b63a a3c3 a2bb 6cac 99ba b0c7 0ebb
00000380: 9c1f 183b 8f8a 083b 12ce 3239 5ef3 09bb
00000390: 4f93 03bb 9a7c 573a d878 5aba 001a ea39
000003a0: 9966 a1ba e92b c63a b5c7 44bb eac5 523b
000003b0: d9e9 d1ba 7f4b 993a bd64 5ebb be80 afb9
000003c0: 495d 03ba 635a 65ba aeaf 0b3a 1f83 7fba
000003d0: ead6 2d3a 0f87 9eba aae4 223b 2b06 35ba
000003e0: a254 8039 dd4b 863a 8202 213b 7815 a43b
000003f0: c323 903a 145c f43a dd70 373a ff42 1cbb

exp_avg_sq f4 [128, 6]
0.0006615107 0.0007216189 0.00049038144 0.00072899286 0.0005527988 0.0008492557 0.000362506 0.0003849353
0.00026960045 0.00037758873 0.00027182244 0.00047314688 0.0011269096 0.0011111394 0.00087397645 0.0009048642
0.00071114174 0.0009775099 0.00033685812 0.00034848799 0.00018107134 0.00031444512 0.00023473799 0.0002632254
0.00038545096 0.00041674983 0.00022264209 0.00029122716 0.0002707689 0.00053813116 0.00026267619 0.00023723974
0.0001212954 0.00018623512 0.00014384689 0.00024611087 6.837588e-05 7.373299e-05 4.3468943e-05 4.9179376e-05
4.5212833e-05 7.0163456e-05 6.63915e-05 7.865405e-05 5.3182885e-05 6.726209e-05 4.925602e-05 6.0846633e-05
6.220378e-05 5.340491e-05 3.421406e-05 5.2582593e-05 4.511226e-05 7.117299e-05 0.00033944295 0.00032651584
0.00023513702 0.00036915456 0.00026829212 0.00038640026 0.00029993843 0.00030196705 0.00020636606 0.00022953852
0.00020771149 0.00031416997 0.00012207119 0.00013004345 8.327441e-05 8.575968e-05 7.023765e-05 0.00013298575
0.00034310576 0.00033383875 0.00021651083 0.00023023745 0.00022990431 0.00027558327 0.00034422378 0.0003906165
0.00026585325 0.0005208645 0.0003357971 0.0005029597 0.00032176936 0.00032520804 0.00023260618 0.0003240523
0.00029835684 0.00043387164 0.0006143175 0.0005882795 0.0005054767 0.00062327477 0.00045479945 0.0005783714
0.00025828832 0.00025734765 0.00019978301 0.00023201355 0.00019421542 0.00024033636 0.0002040764 0.00020524509
0.00014901375 0.00018990855 0.00014953743 0.00020253802 0.0013425826 0.0012741423 0.0008100928 0.0010319289
0.0008077669 0.001298865 0.0003772532 0.00041821232 0.00022513192 0.00030580917 0.0002712721 0.00035173615
0.00026477658 0.00030395054 0.00017738214 0.0003068114 0.00024577632 0.00039883688 0.00036815228 0.00040561703
0.00030263525 0.00038036657 0.0002895456 0.0005899121 7.4192314e-05 7.3866846e-05 3.9038765e-05 5.9051446e-05
5.8184785e-05 7.00478e-05 2.0842765e-05 2.3067223e-05 1.7121112e-05 2.1024682e-05 1.6710263e-05 2.2645529e-05
0.0006490394 0.00075230113 0.0003994615 0.0005493733 0.00046962025 0.0008821261 0.00016494081 0.000177149
0.00015242855 0.00018469947 0.00011919344 0.00016619134 0.000101233236 0.0001009174 8.927394e-05 7.263841e-05
6.032614e-05 8.1754144e-05 0.00025281456 0.00023620624 0.00016279788 0.00022531245 0.00015856232 0.0002508756
0.00036330565 0.0004279009 0.0002772386 0.00034821182 0.0002532827 0.00044942673 0.00022575704 0.00021691687
0.00014133578 0.00015526362 0.00015541886 0.00019616996 0.00010501731 0.00010292052 6.688431e-05 0.00012452077
7.6503624e-05 0.00012130728 0.0002752255 0.0002561963 0.00022243222 0.00023672634 0.00019326858 0.00021295786
0.0006000059 0.0006546311 0.00048844307 0.00046254115 0.0003819195 0.00069489307 0.00042468612 0.00045229285
0.00023764573 0.00038077755 0.00031914195 0.0004837456 0.0006309817 0.00068629347 0.0005354904 0.00079058524
0.0005697163 0.0007466751 0.000390595 0.00036996606 0.00021238833 0.00031038187 0.00026137926 0.00031159385
0.00042429776 0.0004434963 0.00025062906 0.00032481947 0.0003046875 0.00066054566 0.00013719032 0.00013422052
0.00012320868 9.933075e-05 8.3756146e-05 0.00014525205 0.00010597661 9.897628e-05 0.000115286624 0.00012619678
6.592662e-05 0.00011773245 0.00024253261 0.00024459185 0.00014818802 0.00020435383 0.00016569885 0.00020859067
9.328364e-05 0.00010082286 8.131515e-05 7.774254e-05 6.765645e-05 9.646473e-05 0.00037720863 0.00041519248
0.0003278152 0.0004469538 0.00030213475 0.00048256823 0.00039331702 0.00041960244 0.00021422758 0.00031444465
00000000: 3b69 2d3a 062b 3d3a f18c 003a e219 3f3a
00000010: b3e9 103a 96a0 5e3a bb0e be39 24d1 c939
00000020: 2959 8d39 1af7 c539 6483 8e39 b310 f839
00000030: d0b4 933a a7a3 913a 911b 653a 6934 6d3a
00000040: ea6b 3a3a ca1f 803a 559c b039 44b5 b639
00000050: f8dd 3d39 1cdc a439 0024 7639 8401 8a39
00000060: 5a16 ca39 377f da39 0875 6939 d9af 9839
00000070: fdf5 8d39 5f11 0d3a cdb7 8939 8fc3 7839
00000080: f95f fe38 1c48 4339 9bd5 1639 7108 8139
00000090: 0565 8f38 19a1 9a38 6c52 3638 f445 4e38
000000a0: e9a2 3d38 b824 9338 aa3b 8b38 12f3 a438
000000b0: b010 5f38 0f0f 8d38 4098 4e38 9335 7f38
000000c0: 6673 8238 16ff 5f38 1181 0f38 218c 5c38
000000d0: ec36 3d38 b542 9538 43f7 b139 3730 ab39
000000e0: 1d8f 7639 168b c139 8fa9 8c39 c495 ca39
000000f0: 0e41 9d39 5551 9e39 f863 5839 47b0 7039
00000100: 21cd 5939 2eb7 a439 3c00 0039 465c 0839
00000110: 9ca3 ae38 e1d9 b338 8d4c 9338 1772 0b39
00000120: e0e2 b339 1407 af39 2f07 6339 e56b 7139
00000130: 7812 7139 297c 9039 ef78 b439 a9cb cc39
00000140: 3862 8b39 a08a 083a ed0d b039 0ed9 033a
00000150: 27b3 a839 af80 aa39 bfe7 7339 90e5 a939
00000160: c76c 9c39 4479 e339 260a 213a c536 1a3a
00000170: f881 043a 4363 233a 2672 ee39 d99d 173a
00000180: df6a 8739 9eec 8639 d87c 5139 aa48 7339
00000190: 4ea6 4b39 cd02 7c39 57fd 5539 0f37 5739
000001a0: 9340 1c39 3022 4739 26cd 1c39 6360 5439
000001b0: 99f9 af3a 1f01 a73a 685c 543a ca41 873a
000001c0: 52c0 533a ad3e aa3a 11ca c539 8243 db39
000001d0: 6411 6c39 0355 a039 8639 8e39 3a69 b839
000001e0: b6d1 8a39 8d5b 9f39 a8ff 3939 87db a039
000001f0: 8adb 8039 fb1a d139 9004 c139 ffa8 d439
00000200: 04ab 9e39 f06b c739 27ce 9739 55a4 1a3a
00000210: b297 9b38 f6e8 9a38 8ebd 2338 02ae 7738
00000220: 700b 7438 a0e6 9238 7fd7 ae37 7c80 c137
00000230: 4f9f 8f37 295e b037 042d 8c37 e7f6 bd37
00000240: 4c24 2a3a 1336 453a d16e d139 d103 103a
00000250: 5d37 f639 7b3e 673a f6f3 2c39 13c1 3939
00000260: 3ad5 1f39 e3ab 4139 7ef7 f938 a643 2e39
00000270: 2e4d d438 9ea3 d338 9538 bb38 7355 9838
00000280: b306 7d38 6c73 ab38 328c 8439 21ae 7739
00000290: b9b4 2a39 da41 6c39 c043 2639 f487 8339
000002a0: 0f7a be39 e357 e039 565a 9139 3390 b639
000002b0: 07cb 8439 09a1 eb39 32b9 6c39 2e74 6339
000002c0: 8933 1439 43ce 2239 eff7 2239 f9b2 4d39
000002d0: bd3c dc38 09d7 d738 3e44 8c38 ca91 0239
000002e0: 9270 a038 5a66 fe38 244c 9039 1652 8639
000002f0: b23c 6939 be39 7839 24a8 4a39 714d 5f39
00000300: b749 1d3a 8d9b 2b3a dc0a 003a 3981 f239
00000310: 5e3c c839 7c29 363a 68a8 de39 b821 ed39
00000320: 8a30 7939 19a3 c739 8252 a739 3c9f fd39
00000330: 7768 253a 60e8 333a 2760 0c3a 473f 4f3a
00000340: 0459 153a 85bc 433a c6c8 cc39 01f8 c139
00000350: 8fb4 5e39 c0ba a239 bb09 8939 6b5d a339
00000360: 4874 de39 1185 e839 dd66 8339 884c aa39
00000370: 77be 9f39 7828 2d3a bfda 0f39 8cbd 0c39
00000380: 9431 0139 ca4f d038 3da6 af38 cd4e 1839
00000390: c23f de38 7c91 cf38 09c6 f138 b153 0439
000003a0: 1642 8a38 21e7 f638 5a50 7e39 903c 8039
000003b0: eb62 1b39 d047 5639 72bf 2d39 22b9 5a39
000003c0: 46a1 c338 dc70 d338 bd87 aa38 b509 a338
000003d0: c8e2 8d38 1c4d ca38 16c4 c539 31ae d939
000003e0: 9dde ab39 2055 ea39 d767 9e39 3601 fd39
000003f0: 1e36 ce39 16fe db39 47a2 6039 0cdc a439

exp_avg f4 [128]
0.0011581766 0.0026402762 0.0048705777 0.0029405893 -0.0032866981 0.0022524823 0.00054219493 -0.0009955014
-0.0012848284 -0.0017710578 -0.001875874 0.0019068281 -0.0012415968 0.0006135739 0.0010752355 -0.0029847983
0.0020170934 0.0019188619 -0.0017431347 0.003872458 6.146853e-05 -0.002946754 0.0017098738 -0.00032818984
-0.0003359293 0.00068854936 -0.0018251671 -0.00087393954 -0.0024656223 -0.0011115456 -0.0024072656 -0.0020572292
-0.001700862 0.001950686 0.0030278836 -0.0010868075 0.0009779953 -0.0017702881 -0.0012873213 -0.0030511685
-0.00062244537 0.0013491957 0.0023380506 0.0008054605 0.002323553 -0.0015019524 -5.0270603e-05 -0.00069151097
0.0034680604 -0.0014853808 -4.9306283e-05 0.0039677485 -0.006500226 0.0003989911 0.00072875223 0.0004885809
0.0003020992 0.0006432121 0.0017947354 -0.0010438705 0.0006082826 -0.00065308943 -0.0017750545 0.002662453
0.0013723058 0.0021170275 -0.0013809269 0.0004892119 0.004555357 -0.005314878 -0.00096442504 0.0042740246
0.002020878 0.0024554487 0.00062980235 0.0008537783 -0.0018522919 0.004523949 0.0011964118 7.765418e-05
0.000633267 -0.0034114097 -0.00014241174 0.0011007154 0.00869956 -0.0013463647 -0.002472106 0.0021550003
-0.000867549 0.0017962862 0.0030624138 0.0008988324 -1.372469e-05 -0.0019343301 -0.0033317662 -0.00242099
0.0027377887 -0.0036223852 -0.002071421 -0.0007700852 -0.0014850124 -0.0051214434 -9.558779e-05 0.00018025788
-0.00058820104 -0.00078623026 0.0022048997 0.0011687815 -0.0016134953 -0.0007449322 0.0016600889 0.0012747005
-0.0029235077 0.0018062541 0.0046703424 0.00040356378 -0.00036850802 -0.00219475 0.003754062 0.0010362058
-0.0009785474 -2.7978786e-05 -0.0039015003 0.0030261592 0.0054601827 0.0009103393 0.0033861184 -0.0027271137
00000000: f5cd 973a 7c08 2d3b 5e99 9f3b e7b6 403b
00000010: a565 57bb 629e 133b 1622 0e3a 7c7b 82ba
00000020: b067 a8ba d722 e8ba e3df f5ba 89ee f93a
00000030: 13bd a2ba 3fd8 203a ebee 8c3a 9b9c 43bb
00000040: 3631 043b 5282 fb3a e579 e4ba 10c9 7d3b
00000050: aae8 8038 541e 41bb d81d e03a e510 acb9
00000060: ab1f b0b9 c47f 343a 723a efba 1719 65ba
00000070: 4796 21bb 48b1 91ba 37c3 1dbb 94d2 06bb
00000080: 75ef deba 29ae ff3a 756f 463b 3573 8eba
00000090: 1430 803a 0309 e8ba 56bb a8ba 1df6 47bb
000000a0: 9a2b 23ba 7fd7 b03a fb39 193b 8a25 533a
000000b0: c046 183b 29dd c4ba a6d9 52b8 8446 35ba
000000c0: 6648 633b 1cb1 c2ba 38ce 4eb8 e303 823b
000000d0: d9ff d4bb ae2f d139 bc09 3f3a 1c14 003a
000000e0: 1163 9e39 3c9d 283a 543d eb3a 7bd2 88ba
000000f0: 2775 1f3a 1734 2bba f2a8 e8ba 8d7c 2e3b
00000100: f1de b33a d4bd 0a3b 3800 b5ba 743e 003a
00000110: 1b45 953b 6e28 aebb 78d1 7cba 1e0d 8c3b
00000120: b570 043b 98eb 203b 5219 253a 18d0 5f3a
00000130: 9ac8 f2ba a33d 943b ebd0 9c3a 45da a238
00000140: d401 263a f591 5fbb 5c54 15b9 e145 903a
00000150: 9988 0e3c 8178 b0ba 0e03 22bb e83a 0d3b
00000160: 3a6c 63ba 5d71 eb3a c7b2 483b 9f9f 6b3a
00000170: 1843 66b7 5989 fdba c359 5abb 79a9 1ebb
00000180: 796c 333b 8a65 6dbb adc0 07bb 8bdf 49ba
00000190: bfa4 c2ba c8d1 a7bb 4e76 c8b8 9b03 3d39
000001a0: 8131 1aba 051b 4eba 1480 103b cd31 993a
000001b0: eb7b d3ba 8e47 43ba 5797 d93a da13 a73a
000001c0: 5298 3fbb d5bf ec3a ac09 993b 6a95 d339
000001d0: 4f34 c1b9 cbd5 0fbb b606 763b 4cd1 873a
000001e0: 9a42 80ba fcb3 eab7 50b0 7fbb 8752 463b
000001f0: 55eb b23b d6a3 6e3a a4e9 5d3b 60b9 32bb

exp_avg_sq f4 [128]
0.00059279485 0.0003410677 0.00095537276 0.0002494189 0.00031281306 0.00018583816 5.5649267e-05 6.008351e-05
4.715571e-05 0.00030321718 0.0002484594 9.755236e-05 0.00028118427 0.00035868032 0.00029187847 0.000551005
0.00022914981 0.00016874222 0.0010642909 0.00031493526 0.00024211087 0.0003379852 5.6649427e-05 1.8548491e-05
0.0005372504 0.00014818074 8.3544386e-05 0.00020223306 0.0002979618 0.0001804142 9.223736e-05 0.00022743458
0.0005148603 0.0003438683 0.00063502445 0.00028693423 0.00034785242 0.0001182104 9.594036e-05 0.00018234648
8.034082e-05 0.00036960724 0.00030823468 2.62513e-05 0.00014193049 0.0012902367 0.00011818228 5.9306458e-05
0.0002899669 0.0006903367 8.124254e-05 0.00018766332 0.0006456691 5.9452082e-05 0.00015221033 8.07014e-05
0.00013261846 0.0001630619 0.00035391765 3.1228035e-05 5.9690996e-05 0.0005100883 0.0003415959 0.0001567129
0.0003972702 0.00010498979 0.00020883897 1.8417744e-05 0.00096185814 0.00090917404 8.519138e-05 0.00018808938
7.2982184e-05 0.00026570013 5.051551e-05 0.00025469926 0.00031472117 0.0007903302 0.00019034457 6.843429e-05
6.04472e-05 0.00023307912 0.0002373637 0.00015301562 0.0005677588 8.200577e-05 0.00029692787 0.0003526321
0.00018739572 0.00011811622 0.0004178632 9.803635e-05 0.00021280104 0.00015379714 0.00029292385 0.00046023948
0.00049559533 0.00046993306 0.00041011127 6.568478e-05 0.00019304828 0.00057235616 0.00018351273 0.00015375581
0.00017486613 0.00011066928 0.00023072984 3.0133904e-05 0.0001892446 9.825776e-05 0.00012791634 0.00013149834
0.000100014586 0.00022325234 0.0001902633 0.00016999674 2.3629505e-05 0.00015832612 0.00038233507 0.00021788794
5.0352675e-05 1.3502427e-05 0.0005739353 0.00027884552 0.000427795 0.00030545474 0.00020846378 0.00017106716
00000000: ca65 1b3a 55d1 b239 fb71 7a3a 70c4 8239
00000010: 0f01 a439 8ddd 4239 f268 6938 2d02 7c38
00000020: 0fc9 4538 1ff9 9e39 a843 8239 0695 cc38
00000030: ea6b 9339 420d bc39 4407 9939 5271 103a
00000040: ef47 7039 65f0 3039 ad7f 8b3a e51d a539
00000050: 24df 7d39 9b33 b139 dc9a 6d38 9598 9b37
00000060: 44d6 0c3a f760 1b39 8d34 af38 860e 5439
00000070: c137 9c39 912d 3d39 8e6f c138 817b 6e39
00000080: b1f7 063a 3949 b439 c577 263a a96f 9639
00000090: f65f b639 bae7 f738 9733 c938 4334 3f39
000000a0: a67c a838 d8c7 c139 8f9a a139 3d36 dc37
000000b0: 2dd3 1439 291d a93a a1d8 f738 d3bf 7838
000000c0: b306 9839 b6f7 343a c260 aa38 7dc7 4439
000000d0: 1f42 293a 305c 7938 a69a 1f39 3c3e a938
000000e0: 7f0f 0b39 98fb 2a39 068e b939 d9fa 0238
000000f0: b85c 7a38 72b7 053a 3a18 b339 4c53 2439
00000100: b448 d039 f72d dc38 c9fb 5a39 ce7f 9a37
00000110: 3525 7c3a a355 6e3a c6a8 b238 dc39 4539
00000120: 030e 9938 ab4d 8b39 9ee0 5338 2889 8539
00000130: 2901 a539 292e 4f3a 3b97 4739 6184 8f38
00000140: b088 7d38 b366 7439 d5e4 7839 d172 2039
00000150: a6d5 143a 83fa ab38 fcac 9b39 7be1 b839
00000160: a87f 4439 2ab5 f738 a614 db39 dd98 cd38
00000170: 5823 5f39 9b44 2139 9393 9939 4c4c f139
00000180: d7ea 013a 5961 f639 3404 d739 3fc0 8938
00000190: 016d 4a39 2c0a 163a 536d 4039 8339 2139
000001a0: 455c 3739 1e17 e838 12f0 7139 11c8 fc37
000001b0: f66f 4639 bc0f ce38 4821 0639 d1e2 0939
000001c0: ecbe d138 d818 6a39 6a81 4739 2741 3239
000001d0: fa37 c637 5804 2639 2574 c839 d978 6439
000001e0: c631 5338 7b88 6237 2574 163a 0332 9239
000001f0: ac49 e039 7125 a039 1297 5a39 7e60 3339
