Assets/Result/RollerBall-ppo-2/RollerBall.onnx (onnx, 72954 bytes, 9 tensors)

50 f4 [6]
2.4068272 2.380157 2.3881998 2.2835596 2.3922758 2.376836
00000000: 7509 1a40 7e54 1840 44d8 1840 d725 1240
00000010: 0c1b 1940 151e 1840

action_model._continuous_distribution.log_sigma f4 [1, 2]
-0.12771937 -0.09710277
00000000: dec8 02be d1dd c6bd

action_model._continuous_distribution.mu.bias f4 [2]
-0.016562475 -0.088614486
00000000: 07ae 87bc 837b b5bd

action_model._continuous_distribution.mu.weight f4 [2, 128]
-0.06817878 -0.078096986 0.07093422 -0.054449312 -0.018562498 0.048851635 -0.09694445 0.06431875
0.10134171 -0.031793505 -0.033086143 0.110111065 0.10308508 -0.064456865 -0.008574685 -0.020593558
-0.036539316 -0.096394286 0.036907956 -0.051835425 -0.026676232 0.081268236 0.08479298 -0.037800673
0.10051035 -0.06944076 0.023822665 0.07879402 0.015504337 -0.060930133 0.040828556 -0.01206517
0.011901934 -0.026625821 0.0035121134 -0.06914883 -0.007068182 0.03841945 0.077670805 -0.019735444
-0.022729341 0.02216244 0.06504898 -0.07378346 0.05999959 0.01904502 -0.048918154 0.00410624
-0.011106511 -0.008835652 -0.039746087 0.014151274 0.037628587 0.0375611 -0.010780191 -0.077450946
-0.09444368 0.09680672 -0.054204922 0.071651295 0.08994573 0.022990162 0.005697457 0.027029058
0.10222705 -0.061541084 0.03022562 0.08120069 -0.0239147 -0.065361924 -0.031678747 0.041414794
-0.05319056 -0.048423577 -0.045942027 -0.04764858 -0.06780412 -0.0986633 -0.0869849 0.003791937
-0.067512035 0.080882914 0.06057528 -0.058523864 0.013339255 0.07847066 -0.081292935 -0.07318175
0.10975171 -0.067061916 -0.06823116 0.0024087217 -0.011655492 -0.09846952 -0.037517186 0.023620907
-0.09989229 -0.023647752 -0.024790468 -0.08811471 -0.036123745 0.035338894 -0.08638315 -0.059883993
-0.05986466 -0.040970184 0.08723372 -0.04373296 -0.023718005 0.06590555 0.01620529 0.077349745
-0.05800221 0.04514213 -0.047497604 0.10146408 -0.107291915 -0.010176926 -0.10169491 -0.11083749
-0.01984897 -0.062436983 -0.0032769341 -0.030139772 -0.018258568 0.08160939 0.15088984 -0.12074856
-0.0038349123 -0.065508425 0.0056764693 0.02627594 0.029742975 -0.0005279009 -0.061272737 -0.108444355
-0.034085646 -0.07729593 0.0098759085 -0.03287664 -0.07331694 -0.029282544 -0.08505752 -0.07822148
0.005641604 0.020399986 0.043100525 0.08631798 -0.034425765 0.048608933 -0.017152427 0.10558108
-0.099880725 -0.08150191 0.1164511 -0.02475355 -0.123639435 0.019111307 -0.06778215 0.041006174
0.06285281 0.048426762 0.023086231 0.038171668 0.06167518 0.07131347 -0.012874575 -0.073901266
0.05611147 0.09173286 0.045311496 -0.06668057 0.050598793 -0.0014746704 -0.04151779 0.08744555
0.098265044 -0.016711026 0.10933589 0.02509789 0.07251351 0.095209636 -0.028233932 -0.073867515
-0.05324125 -0.009748342 0.119090304 -0.032130428 -0.058239695 -0.013358177 0.0569772 0.10608709
-0.097662374 -0.0046228734 0.0053686714 -0.143766 0.10379717 -0.104741484 0.061084263 0.1123697
0.090747826 -0.0435198 -0.064599745 0.0066648135 -0.019851454 -0.07428793 -0.033547267 0.01670843
-0.041399207 -0.043796055 0.022472525 -0.095904164 0.08245689 -0.06300484 -0.089200646 -0.071472034
0.005224641 -0.05903084 -0.07726215 -0.10139298 0.018677263 -0.024397459 0.10969323 0.06702388
0.004118538 -0.03796294 -0.013767767 -0.08089614 0.0064657144 -0.00244543 -0.07384265 -0.02463616
-0.036782872 0.011152016 0.036737096 0.0127885565 0.009838378 -0.01651499 0.09258214 -0.09308008
-0.048788317 -0.0035820396 -0.02108662 -0.09214947 -0.08311967 0.03772275 -0.042608604 -0.057766438
0.11265801 -0.021376751 -0.06200732 0.07828557 0.025778616 -0.019509984 -0.05972052 -0.11386328
00000000: 51a1 8bbd 50f1 9fbd f645 913d 3e06 5fbd
00000010: 6110 98bc a718 483d d08a c6bd 8cb9 833d
00000020: 3e8c cf3d e839 02bd 5685 07bd e981 e13d
00000030: 451e d33d f601 84bd d67c 0cbc d2b3 a8bc
00000040: 40aa 15bd 5e6a c5bd cc2c 173d 6251 54bd
00000050: 1d88 dabc f66f a63d f1a7 ad3d e1d4 1abd
00000060: 5fd8 cd3d f536 8ebd c027 c33c c25e a13d
00000070: e705 7e3c e091 79bd d83b 273d feac 45bc
00000080: 5400 433c 651e dabc 7c2b 663b e79d 8dbd
00000090: 359c e7bb b75d 1d3d df11 9f3d 3aac a1bc
000000a0: e232 babc 018e b53c 6638 853d c81b 97bd
000000b0: 21c2 753d 4d04 9c3c 675e 48bd a38d 863b
000000c0: 15f8 35bc 69c3 10bc cbcc 22bd bfda 673c
000000d0: 6f20 1a3d abd9 193d 669f 30bc 9a9e 9ebd
000000e0: b06b c1bd 9a42 c63d fb05 5ebd eabd 923d
000000f0: 7835 b83d dd55 bc3c bcb1 ba3b 0b6c dd3c
00000100: 6a5c d13d 8112 7cbd b89b f73c 8c4c a63d
00000110: c3e8 c3bc 79dc 85bd 93c1 01bd 8fa2 293d
00000120: 58de 59bd cd57 46bd b52d 3cbd 282b 43bd
00000130: e3dc 8abd fc0f cabd 2425 b2bd 2582 783b
00000140: c043 8abd f1a5 a53d c91d 783d b8b6 6fbd
00000150: e48c 5a3c 3ab5 a03d e97c a6bd 50e0 95bd
00000160: 81c5 e03d c257 89bd c7bc 8bbd a5db 1d3b
00000170: adf6 3ebc 63aa c9bd 9fab 19bd a280 c13c
00000180: 5494 ccbd eeb8 c1bc 6115 cbbc 7c75 b4bd
00000190: 7ef6 13bd 84bf 103d a6e9 b0bd eb48 75bd
000001a0: a534 75bd 5ad0 27bd 98a7 b23d 5521 33bd
000001b0: 434c c2bc 7df9 863d f5c0 843c 8b69 9e3d
000001c0: ba93 6dbd f4e6 383d d98c 42bd 66cc cf3d
000001d0: ddbb dbbd 1fbd 26bc 6c45 d0bd c4fe e2bd
000001e0: 4f9a a2bc ecbd 7fbd d5c1 56bb afe7 f6bc
000001f0: fe92 95bc d322 a73d de82 1a3e 054b f7bd
00000200: 2753 7bbb 4829 86bd ad01 ba3b a440 d73c
00000210: 8aa7 f33c d462 0aba 1ff9 7abd 1318 debd
00000220: 649d 0bbd 544d 9ebd 90ce 213c a8a9 06bd
00000230: 3127 96bd f2e1 efbc a332 aebd 9532 a0bd
00000240: 34dd b83b df1d a73c 2d8a 303d 7bc7 b03d
00000250: 0802 0dbd 291a 473d 3f83 8cbc e53a d83d
00000260: 448e ccbd 79ea a6bd ea7d ee3d f5c7 cabc
00000270: ac36 fdbd 518f 9c3c 5ed1 8abd 17f6 273d
00000280: f9b8 803d 245b 463d 561f bd3c e559 1c3d
00000290: 1d9f 7c3d cc0c 923d e2ef 52bc 8c59 97bd
000002a0: 24d5 653d 70de bb3d 8c98 393d d38f 88bd
000002b0: ae40 4f3d ba49 c1ba 8f0e 2abd a716 b33d
000002c0: 2f3f c93d 90e5 88bc 7feb df3d 179a cd3c
000002d0: f781 943d 45fd c23d d94a e7bc da47 97bd
000002e0: 7f13 5abd 83b7 1fbc 9ee5 f33d 329b 03bd
000002f0: bf8c 6ebd 41dc 5abc ed60 693d 3044 d93d
00000300: 3603 c8bd 797b 97bb aeeb af3b 6537 13be
00000310: 9c93 d43d b482 d6bd 7e33 7a3d 1622 e63d
00000320: ffd9 b93d d141 32bd df4c 84bd 8264 da3b
00000330: 849f a2bc 4524 98bd dc68 09bd 1ee0 883c
00000340: 3792 29bd 7e63 33bd 4d18 b83c 6769 c4bd
00000350: 28df a83d ae08 81bd d4ae b6bd ee5f 92bd
00000360: 7733 ab3b 52ca 71bd 9e3b 9ebd 1fa7 cfbd
00000370: 0f01 993c 2edd c7bc d8a6 e03d d143 893d
00000380: cdf4 863b 077f 1bbd 3392 61bc e0ac a5bd
00000390: 58de d33b 8243 20bb d13a 97bd c6d1 c9bc
000003a0: a3a9 16bd f2b6 363c a379 163d 1887 513c
000003b0: 2631 213c 724a 87bc b49b bd3d c5a0 bebd
000003c0: 42d6 47bd a7c0 6abb d9bd acbc dcb8 bcbd
000003d0: a53a aabd 2c83 1a3d 5c86 2ebd 809c 6cbd
000003e0: 3eb9 e63d 4c1e afbc 63fb 7dbd 2f54 a03d
000003f0: ad2d d33c 67d3 9fbc 819d 74bd 2731 e9bd

network_body._body_endoder.seq_layers.0.bias f4 [128]
0.12297305 0.0054814355 0.06976109 -0.011526387 0.04063637 -0.05783189 -0.091317005 -0.019318832
0.029795416 0.006737061 0.0054832706 0.010118514 0.0014191463 0.07134226 0.08862387 0.02243319
0.051375307 0.045984797 -0.00032475806 0.082511455 0.10181683 0.08667626 -0.108219445 -0.1331352
-0.0037763487 0.09092575 -0.032243993 0.051400766 0.08913205 -0.03324063 0.04533634 -0.020739801
-0.03652415 -0.020995408 0.08841226 0.12090457 -0.015872007 -0.04320267 0.03564152 0.0943916
0.0114320405 0.07879743 -0.008224418 -0.10317797 -0.08878397 -0.0054147528 -0.04353236 -0.027992096
-0.037614554 0.05873057 -0.061536714 -0.07172716 0.06014934 0.04240175 0.027646279 -0.11320498
-0.003148087 -0.045294758 0.06259757 0.0011229832 -0.10037336 -0.020064091 0.14394093 -0.028866692
-0.020411642 -0.033452675 -0.026500951 -0.018261842 0.13151252 0.10347859 -0.015386131 0.059966527
0.003889752 0.029349308 -0.06765159 -0.049379997 -0.07720947 0.05827549 0.032420132 -0.014327297
-0.059146643 0.035147555 0.08215458 -0.0067996336 0.040146854 0.10782199 -0.008341036 -0.08016697
0.055694737 -0.012867433 0.04376521 0.09244522 -0.087477215 -0.012699136 0.0883273 -0.037493486
0.10880236 0.016556472 -0.024701986 -0.1370215 -0.009042054 0.079984345 -0.018148525 -0.12786953
0.012992366 -0.0003150001 0.035656232 0.01343359 -0.06970934 -0.023026293 0.014803139 0.08204393
0.016172314 -0.057096478 -0.07294736 0.12336287 -0.038897052 -0.01602369 -0.01951843 0.024139054
0.0012764023 -0.06656187 0.054130252 0.053423498 0.0062280027 0.014195148 -0.050600115 -0.06132306
00000000: 4bd9 fb3d 9d9d b33b e7de 8e3d 2cd9 3cbc
00000010: 5372 263d 22e1 6cbd 6904 bbbd 8742 9ebc
00000020: 8415 f43c 90c2 dc3b 02ad b33b 20c8 253c
00000030: a602 ba3a e41b 923d 6e80 b53d cfc5 b73c
00000040: ea6e 523d 8e5a 3c3d 4a44 aab9 c4fb a83d
00000050: 5885 d03d 5383 b13d 28a2 ddbd 9854 08be
00000060: 9e7c 77bb 4837 ba3d 4712 04bd 9c89 523d
00000070: dd8a b63d 5427 08bd 99b2 393d 84e6 a9bc
00000080: 599a 15bd 90fe abbc 7d11 b53d d19c f73d
00000090: 0306 82bc 48f5 30bd d8fc 113d 6250 c13d
000000a0: 744d 3b3c 8c60 a13d b6bf 06bc f94e d3bd
000000b0: 5fd4 b5bd 3d6e b1bb fd4e 32bd ae4f e5bc
000000c0: b811 1abd 778f 703d ec0d 7cbd b0e5 92bd
000000d0: 285f 763d 75ad 2d3d 737a e23c 03d8 e7bd
000000e0: 2350 4ebb ff86 39bd 2833 803d 1031 933a
000000f0: 8c90 cdbd 735d a4bc 4065 133e d779 ecbc
00000100: 5136 a7bc ac05 09bd 8618 d9bc dc99 95bc
00000110: 38ab 063e 95ec d33d 1c16 7cbc 769f 753d
00000120: 36eb 7e3b f66d f03c eb8c 8abd ae42 4abd
00000130: 0020 9ebd 48b2 6e3d f9ca 043d 0abd 6abc
00000140: c043 72bd e2f6 0f3d a940 a83d 76cf debb
00000150: 0771 243d c7d1 dc3d d7a8 08bc 952e a4bd
00000160: 2a20 643d edd1 52bc 2643 333d eb53 bd3d
00000170: 4127 b3bd 0910 50bc f2e4 b43d c592 19bd
00000180: c6d3 de3d 70a1 873c d25b cabc 5d4f 0cbe
00000190: 2025 14bc d5ce a33d 37ac 94bc 3bf0 02be
000001a0: efdd 543c 9926 a5b9 450c 123d 8f18 5c3c
000001b0: c5c3 8ebd a3a1 bcbc dd88 723c a606 a83d
000001c0: cd7b 843c ffdd 69bd 6d65 95bd aca5 fc3d
000001d0: 8452 1fbd 1d44 83bc 1de5 9fbc 44bf c53c
000001e0: f44c a73a 9751 88bd afb7 5d3d 99d2 5a3d
000001f0: 4614 cc3b c492 683c 1142 4fbd e42d 7bbd

network_body._body_endoder.seq_layers.0.weight f4 [128, 6]
-0.35430187 -0.5230955 0.4339541 0.4959743 0.05357421 0.015450186 -0.25996903 0.6250355
0.2956146 0.3678947 0.8064042 -0.9112123 -0.7836042 -0.08776934 0.101887815 -0.019100385
0.5531461 0.35762334 0.1622516 -0.026488299 -0.19173765 -0.8955267 0.40274772 0.23203179
0.115029424 -0.7584985 -0.038642474 -0.6169007 -0.69502413 -0.77843004 0.08742903 0.49432683
0.9880407 -0.39339003 -0.07358785 -0.31020612 0.10978316 0.59937006 0.3068106 -0.36659753
0.33104753 0.37075222 -0.5839824 0.1152767 -0.7115721 -0.40903717 -0.01401213 0.20471554
0.6679503 -0.009958481 0.14301446 0.44677898 0.19857477 -0.15651357 0.48316658 -0.030209005
-0.18179569 0.20608886 -0.54553676 -0.33717746 -0.20163979 -0.4996062 -0.56797004 -0.40278846
-0.8527369 -0.17193878 -0.51878643 -0.30127943 0.12635571 -0.331197 0.62379897 -0.23520212
0.05852184 0.86417824 -0.5331494 -0.39347276 -0.31185484 0.15141112 0.33791682 -0.22432108
0.9452565 0.9988153 0.20305292 -0.6855781 -0.20145038 -0.24983855 0.41897172 0.565597
-0.1643628 0.00034514503 0.33042952 0.1396543 -0.49241433 0.14410426 -0.60316074 -0.045975365
-0.21461543 -0.28251317 0.14449841 0.38478795 0.041911434 0.3886251 0.2259268 -0.12872836
1.0017251 -0.24838771 0.076207995 0.8196674 -0.051321525 0.58623177 -0.698906 -0.7810943
-0.052248873 -0.38477314 -0.1428895 -0.71291226 0.13016458 -0.39580494 0.6647838 0.2903936
0.13895242 -0.5457136 0.51760393 0.4786161 -0.06194032 -0.19489473 0.24739645 -0.5193564
-0.30101722 0.61936754 -0.20171136 -0.6008729 0.41028523 0.6952164 0.17547318 0.036182046
0.41720995 -0.27041343 0.14150406 0.46378633 0.27767327 0.5378988 0.18583122 1.0273026
0.22975981 -0.25218222 -0.317059 -0.40897536 0.07020806 -0.7075843 -0.32842058 -0.38825247
-0.2537765 0.7808677 0.29200757 0.40553036 -0.27013454 -0.17344494 -0.6385404 -0.42758647
-0.2748574 0.8960871 0.3425694 -0.064323485 0.00078685733 0.23206665 -0.11129836 0.6481597
0.07059704 -0.8672057 -0.7232596 0.13773736 0.4923206 -0.08766644 -0.24476852 0.5923677
-0.17635427 -0.312246 -0.24300365 0.07005997 0.39670715 -0.09430928 -0.07801701 0.4173385
0.05074981 -0.59004474 0.25780424 -0.056996882 -0.61687034 0.13211186 -0.726565 0.34632513
-0.2974218 0.23231624 -0.91391075 -0.41571033 0.19584642 -0.3686308 0.3753924 0.17592125
-0.103949964 -0.65032256 0.34977165 -0.28356212 -0.46368197 0.21199685 0.61741155 0.29942402
0.2274805 -0.2337217 0.3037018 -0.855063 0.11389941 0.30053347 -0.038296442 0.7006505
-0.0506062 0.18557358 -0.12187147 -0.33978823 0.13937092 -0.65453804 -0.32175493 0.45893407
-0.7536031 -0.087677464 0.09818961 -0.23206261 0.073422536 0.42695692 -0.45886073 0.4959333
0.4547258 0.006379506 0.25999364 -0.59764737 -0.19858252 0.16854891 0.10453469 0.47175977
-0.40224335 -0.48529786 -0.4510502 0.092688896 -0.51367754 -0.1931945 -0.24929452 -0.37401736
-0.23464158 0.50470275 0.6320447 -0.643857 0.09170086 0.6024115 0.5605689 -0.22542928
00000000: 0e67 b5be 96e9 05bf 3b2f de3e 58f0 fd3e
00000010: a170 5b3d c722 7d3c a91a 85be 5402 203f
00000020: cc5a 973e b25c bc3e 8170 4e3f 3645 69bf
00000030: 499a 48bf 69c0 b3bd 8faa d03d 6978 9cbc
00000040: fc9a 0d3f 681a b73e 4925 263e fdfd d8bc
00000050: e056 44be 3d41 65bf f334 ce3e be99 6d3e
00000060: 8c94 eb3d f52c 42bf 9247 1ebd 34ed 1dbf
00000070: 1aed 31bf 3147 47bf fe0d b33d 6818 fd3e
00000080: 3cf0 7c3f 6b6a c9be 3ab5 96bd 56d3 9ebe
00000090: fed5 e03d 5170 193f 4716 9d3e acb2 bbbe
000000a0: 107f a93e 3cd3 bd3e df7f 15bf 3116 ec3d
000000b0: 9729 36bf 526d d1be 2293 65bc f3a0 513e
000000c0: cafe 2a3f e628 23bc 6272 123e 37c0 e43e
000000d0: 2f57 4b3e 1845 20be 9c61 f73e e078 f7bc
000000e0: a628 3abe f508 533e 4ca8 0bbf 86a2 acbe
000000f0: a97a 4ebe 62cc ffbe 7c66 11bf 4a3a cebe
00000100: f74c 5abf b810 30be 30cf 04bf 4c41 9abe
00000110: 6463 013e a792 a9be 4ab1 1f3f d3d8 70be
00000120: 99b4 6f3d c93a 5d3f 7b7c 08bf 4375 c9be
00000130: 70ab 9fbe 840b 1b3e 6f03 ad3e 6db4 65be
00000140: 54fc 713f 5cb2 7f3f 1bed 4f3e 0c82 2fbf
00000150: 0249 4ebe add5 7fbe 7683 d63e f7ca 103f
00000160: b94e 28be 95f4 b439 0f2e a93e 8901 0f3e
00000170: bb1d fcbe 1190 133e be68 1abf aa50 3cbd
00000180: 26c4 5bbe 91a5 90be 64f7 133e ed02 c53e
00000190: 53ab 2b3d def9 c63e 5b59 673e 5ed1 03be
000001a0: 8738 803f 5959 7ebe f012 9c3d b9d5 513f
000001b0: 8536 52bd 4913 163f 81eb 32bf ccf5 47bf
000001c0: ea02 56bd fc00 c5be a051 12be 6b81 36bf
000001d0: dd49 053e f2a6 cabe 452f 2a3f 78ae 943e
000001e0: 8b49 0e3e e3b3 0bbf b181 043f 2b0d f53e
000001f0: 22b5 7dbd 7c92 47be 7f55 7d3e 8bf4 04bf
00000200: ee1e 9abe df8e 1e3f 6c8d 4ebe ced2 19bf
00000210: e810 d23e b4f9 313f 3eaf 333e a033 143d
00000220: 8b9c d53e a173 8abe 71e6 103e 6775 ed3e
00000230: 312b 8e3e bcb3 093f 8a4a 3e3e a77e 833f
00000240: 2846 6b3e 071e 81be 8f55 a2be 3865 d1be
00000250: 3ec9 8f3d 3f24 35bf be26 a8be 07c9 c6be
00000260: feee 81be f2e6 473f 0482 953e ada1 cf3e
00000270: 134f 8abe 8d9b 31be 6277 23bf 9dec dabe
00000280: 1cba 8cbe f765 653f 4265 af3e 08bc 83bd
00000290: 1a45 4e3a e1a2 6d3e 65f0 e3bd cbed 253f
000002a0: 2e95 903d 3101 5ebf 8b27 39bf 060b 0d3e
000002b0: 7211 fc3e 768a b3bd 99a4 7abe 69a5 173f
000002c0: 3796 34be b5de 9fbe f3d5 78be 9a7b 8f3d
000002d0: 331d cb3e 3925 c1bd 62c7 9fbd 64ad d53e
000002e0: 08df 4f3d 2c0d 17bf ebfe 833e 9075 69bd
000002f0: 37eb 1dbf 5548 073e 2a00 3abf 8751 b13e
00000300: ac47 98be 4fe4 6d3e 0ef6 69bf fcd7 d4be
00000310: f78b 483e 2dbd bcbe 6f33 c03e b324 343e
00000320: b8e3 d4bd 8a7b 26bf 4515 b33e 0e2f 91be
00000330: b967 edbe b415 593e af0e 1e3f 1b4e 993e
00000340: a6f0 683e be54 6fbe cd7e 9b3e 69e5 5abf
00000350: 1844 e93d 86df 993e bbdc 1cbd d55d 333f
00000360: 7248 4fbd 0007 3e3e c097 f9bd b9f8 adbe
00000370: 40b7 0e3e ce8f 27bf 10bd a4be 68f9 ea3e
00000380: 22ec 40bf 3e90 b3bd a217 c93d d2a1 6dbe
00000390: 8e5e 963d 199a da3e cbef eabe f8ea fd3e
000003a0: d2d1 e83e 2d0b d13b e31d 853e 6bff 18bf
000003b0: 3759 4bbe 1698 2c3e 4916 d63d 7f8a f13e
000003c0: d7f2 cdbe f678 f8be 0df0 e6be add3 bd3d
000003d0: 5f80 03bf c7d4 45be 1047 7fbe 347f bfbe
000003e0: e245 70be 3334 013f aecd 213f d0d3 24bf
000003f0: a9cd bb3d a437 1a3f 7281 0f3f efd6 66be

network_body._body_endoder.seq_layers.2.bias f4 [128]
0.022951642 0.11510465 0.011480351 0.008056809 -0.064847514 -0.0280078 0.09712899 0.09093261
0.016273268 0.10998256 -0.02470382 0.045965772 0.108614914 0.10721958 0.13560422 0.13575175
-0.021772135 0.024822224 -0.036859274 -0.0031406297 0.087249756 -0.011194422 0.015381275 -0.018112341
0.11454382 0.10896594 -0.0015238082 0.025865288 0.14562026 0.007370331 0.087439455 -0.06979153
-0.052889496 -0.0068624653 -0.07391077 -0.04901457 -0.06459391 -0.026371632 -0.0053332793 0.13749939
-0.06016918 -0.04057745 -0.01449165 0.11775264 -0.0020004313 -0.017682256 0.019414313 -0.011622919
-0.054920986 0.01268406 -0.021693362 -0.07515139 -0.016749384 -0.007944322 0.04151449 0.14067563
0.13224295 0.02253921 0.0012337578 0.04177717 0.046141338 -0.0064547756 -0.0412193 -0.014849947
0.09295215 0.03759163 -0.03422992 0.16124012 -0.010509862 0.15439145 -0.036684625 -0.0022807417
-0.02333056 0.02578357 0.1078424 -0.054924846 0.016861027 0.14313512 0.055865027 -0.08144098
0.060088646 0.037791822 -0.027258782 0.1421474 -0.029891012 0.08462203 0.13930978 0.10285131
-0.009152659 0.07342241 0.09501291 0.13162702 -0.04677026 0.062352244 0.017980132 -0.05259096
0.10289384 0.10697917 0.05186018 0.14845632 0.0032013156 -0.02413788 0.12407336 0.059934452
0.075385876 -0.07449173 -0.023687692 -0.036182046 -0.049102668 0.021003678 -0.040781386 0.08650567
0.110907264 0.004662932 0.0487387 0.1063926 0.11108237 -0.06714046 0.0794374 0.107180886
-0.02488383 0.07186941 0.088913105 -0.012460266 -0.077462465 0.007814008 0.08072432 0.156941
00000000: 1505 bc3c fdbb eb3d 1518 3c3c b500 043c
00000010: c6ce 84bd 9d70 e5bc 90eb c63d e03a ba3d
00000020: 844f 853c 893e e13d aa5f cabc 9b46 3c3d
00000030: 7f71 de3d f095 db3d d5db 0a3e 8202 0b3e
00000040: 7a5b b2bc fa57 cb3c c0f9 16bd 06d3 4dbb
00000050: 00b0 b23d cf68 37bc be01 7c3c 5560 94bc
00000060: f395 ea3d 8929 df3d 85ba c7ba 71e3 d33c
00000070: 7a1d 153e d182 f13b 7513 b33d ddee 8ebd
00000080: a8a2 58bd 88de e0bb 885e 97bd 80c3 48bd
00000090: d049 84bd 5209 d8bc cac2 aebb a4cc 0c3e
000000a0: f573 76bd 8a34 26bd 636e 6dbc 4c28 f13d
000000b0: ab19 03bb 61da 90bc c40a 9f3c 0e6e 3ebc
000000c0: d4f4 60bd ced0 4f3c 47b6 b1bc f9e8 99bd
000000d0: 0136 89bc e728 02bc 190b 2a3d 460d 103e
000000e0: b26a 073e 26a4 b83c 0bb6 a13a 8a1e 2b3d
000000f0: b3fe 3c3d 9582 d3bb 92d5 28bd 314d 73bc
00000100: b25d be3d aef9 193d ac34 0cbd 211c 253e
00000110: 8e31 2cbc cb18 1e3e 9e42 16bd 7f78 15bb
00000120: bb1f bfbc 1138 d33c 7adc dc3d e0f8 60bd
00000130: 2320 8a3c 0392 123e bad2 643d 87ca a6bd
00000140: 831f 763d 99cb 1a3d cf4d dfbc 178f 113e
00000150: ffdd f4bc 514e ad3d 39a7 0e3e b5a3 d23d
00000160: 09f5 15bc 7d5e 963d 2196 c23d 3cc9 063e
00000170: 2c92 3fbd 1165 7f3d 124b 933c 9e69 57bd
00000180: 01ba d23d e517 db3d 576b 543d ef04 183e
00000190: 2acd 513b cebc c5bc 2c1a fe3d d47d 753d
000001a0: e963 9a3d 1f8f 98bd b10c c2bc a033 14bd
000001b0: e11f 49bd e80f ac3c 620a 27bd e229 b13d
000001c0: 5923 e33d 82cb 983b 3ba2 473d 5de4 d93d
000001d0: 277f e33d f080 89bd 13b0 a23d a781 db3d
000001e0: 2dd9 cbbc 4530 933d 1318 b63d 2526 4cbc
000001f0: a4a4 9ebd 5306 003c cb52 a53d 24b5 203e

network_body._body_endoder.seq_layers.2.weight f4 [128, 128]
0.08896888 0.07927385 0.21790026 -0.04812575 -0.13150008 -0.107633 -0.18431018 -0.043429162
0.04987006 0.06722027 -0.014107416 0.25955215 -0.028101426 0.08834756 0.07400973 0.052291967
-0.17673442 -0.034422353 -0.041005086 0.07107167 0.004512231 -0.09719087 0.07969853 -0.112659715
-0.046755556 -0.046738427 -0.009406456 -0.027284218 -0.107307434 -0.02312887 -0.22883543 -0.12916231
0.04323969 -0.02155927 0.1793025 -0.15967928 -0.0014851188 0.17272867 0.04401672 -0.08189087
-0.01516235 0.110819176 0.14462383 0.025717666 0.09796691 -0.0374468 0.0068016336 0.13944814
0.07335882 0.007870833 0.07635473 -0.13893121 -0.065045536 -0.03612104 -0.16545673 0.049029823
-0.02406495 0.119838886 -0.015447262 0.06993858 0.060320005 -0.017286386 -0.068559244 -0.036159426
0.111008205 0.025087895 0.029291192 0.20987107 0.04403645 -0.10635348 0.032952398 -0.006808272
-0.026911408 0.050816983 0.118894 -0.1947979 -0.03066337 0.040423162 0.13623446 -0.10205833
-0.014359497 -0.25928438 0.04916761 0.08272002 0.09688819 0.064402595 0.10075191 0.17246087
0.06791123 -0.03448686 0.1276641 0.047624517 0.030294415 0.035526697 -0.08219918 -0.0015306666
0.06534546 0.018267047 -0.108638786 -0.036695838 0.058791835 -0.07192683 0.005255734 0.14438434
-0.06104959 -0.004247746 0.09622889 -0.007840911 0.040663317 -0.017504135 0.006921141 0.050585628
-0.009171281 -0.11454095 -0.012106811 0.08823758 -0.15395269 -0.04734415 0.09611867 -0.07388728
0.040090676 -0.00277263 -0.22091004 0.06973621 0.18064658 0.031940814 -0.10264057 -0.0037808844
0.105365135 0.089135855 0.17243063 0.033574063 -0.10948653 0.05200292 0.057294343 0.15958484
0.026059635 -0.17968176 -0.07416564 0.09994959 -0.0949641 0.00048933626 0.047947094 -0.13250183
0.1759492 -0.0016671238 -0.045732915 -0.06786587 0.00781511 -0.110486045 -0.029329529 -0.05093499
0.032290284 -0.02964755 0.186482 0.043898605 0.030655423 0.076141864 -0.08792477 -0.23355998
0.10576921 -0.15859422 0.21258466 0.053953797 -0.110115044 0.04593077 -0.097854696 -0.06585371
0.018439587 -0.0072540445 -0.05796969 0.039457563 -0.04882882 -0.040660184 -0.16889784 -0.048465345
0.041737147 -0.04716487 0.012555406 -0.035516914 -0.2925201 0.10817659 0.093619354 0.06600144
-0.0028743716 0.05581543 0.17849725 0.105582856 0.04506371 -0.19224635 0.06253613 0.034680255
-0.008107765 -0.03497797 -0.20621711 0.031364482 0.0927493 -0.16757661 -0.26582152 0.1648843
0.10780239 0.10130846 -0.03363961 -0.09489598 -0.073524155 0.01621743 0.0030790372 -0.044311456
-0.042023893 -0.03402016 0.0022811703 -0.034553133 0.07042664 0.036827747 -0.13345668 -0.056073878
-0.058574233 -0.01816358 0.08748674 -0.018464096 -0.023569511 -0.22218673 -0.09709194 -0.047214773
-0.00765334 -0.16090529 -0.1907703 -0.1060523 -0.066386856 -0.01810899 -0.21572955 -0.0426148
-0.18319806 -0.107834764 0.098427966 -0.013384128 -0.1212639 0.075089216 -0.0014527324 -0.082435034
-0.12490297 0.115494594 0.096854836 0.16795717 0.08793929 -0.18123421 -0.09626737 0.06681412
0.03242334 0.00083696627 -0.13998629 0.14335464 0.07434631 0.121073164 -0.01557639 -0.21900208
00000000: 5135 b63d 545a a23d 3f21 5f3e 821f 45bd
00000010: f5a7 06be b16e dcbd cfbb 3cbe c7e2 31bd
00000020: 8c44 4c3d c8aa 893d cb22 67bc 05e4 843e
00000030: f634 e6bc 91ef b43d 6a92 973d 1a30 563d
00000040: def9 34be 74fe 0cbd f3f4 27bd 068e 913d
00000050: 56db 933b 020c c7bd fc38 a33d 23ba e6bd
00000060: c182 3fbd cb70 3fbd 891d 1abc 2783 dfbc
00000070: 00c4 dbbd c278 bdbc d653 6abe 2043 04be
00000080: 1a1c 313d 119d b0bc 139b 373e f782 23be
00000090: 51a8 c2ba c9df 303e e04a 343d 67b6 a7bd
000000a0: 816b 78bc 2af5 e23d 4518 143e dbad d23c
000000b0: e0a2 c83d d161 19bd 3de0 de3b 7ecb 0e3e
000000c0: 263d 963d abf4 003c de5f 9c3d fc43 0ebe
000000d0: 9836 85bd a8f3 13bd 7d6d 29be 7fd3 483d
000000e0: dc23 c5bc 176e f53d 8316 7dbc f53b 8f3d
000000f0: 1c12 773d 2e9c 8dbc ca68 8cbd e81b 14bd
00000100: 4558 e33d 2185 cd3c 15f4 ef3c 71e8 563e
00000110: 915f 343d dacf d9bd 18f9 063d ed17 dfbb
00000120: 5075 dcbc 7825 503d b37e f33d 1a79 47be
00000130: bf31 fbbc c292 253d 0c81 0b3e f503 d1bd
00000140: 1944 6bbc ecc0 84be fa63 493d 1d69 a93d
00000150: 516d c63d 82e5 833d 0457 ce3d 9599 303e
00000160: 0b15 8b3d 1842 0dbd 61ba 023e ed11 433d
00000170: fe2b f83c 7184 113d 0b58 a8bd a6a0 c8ba
00000180: d7d3 853d c6a4 953c 037e debd 604e 16bd
00000190: b5cf 703d 604e 93bd 4b38 ac3b 7dd9 133e
000001a0: 230f 7abd ad30 8bbb a713 c53d 2a77 00bc
000001b0: 948e 263d d564 8fbc bdca e23b e032 4f3d
000001c0: 2443 16bc 7294 eabd a55b 46bc e8b5 b43d
000001d0: c6a5 1dbe f0eb 41bd ded9 c43d 3752 97bd
000001e0: 1f36 243d 03b5 35bb 3e36 62be dcd1 8e3d
000001f0: 6bfb 383e 5fd4 023d 3835 d2bd b7c8 77bb
00000200: adc9 d73d dc8c b63d a891 303e f584 093d
00000210: 793a e0bd 0401 553d 79ad 6a3d 356a 233e
00000220: 047b d53c 7ffe 37be 28e4 97bd 5fb2 cc3d
00000230: 8a7c c2bd cd46 003a 2c64 443d 8fae 07be
00000240: 072c 343e 6483 daba 7052 3bbd 43fd 8abd
00000250: f20a 003c 8246 e2bd 7b44 f0bc 35a1 50bd
00000260: d142 043d 6bdf f2bc 23f5 3e3e 06cf 333d
00000270: 1521 fb3c 44f0 9b3d e711 b4bd 592a 6fbe
00000280: 879d d83d 8666 22be cbaf 593e a8fe 5c3d
00000290: ff83 e1bd e721 3c3d 0b68 c8bd 4fde 86bd
000002a0: 9e0e 973c 56b3 edbb a071 6dbd 419e 213d
000002b0: bb00 48bd 4b8b 26bd 8ef3 2cbe 9983 46bd
000002c0: 92f4 2a3d f32f 41bd 31b5 4d3c 2f7a 11bd
000002d0: 32c5 95be b08b dd3d 81bb bf3d c32b 873d
000002e0: f45f 3cbb b89e 643d fcc7 363e d33b d83d
000002f0: ba94 383d 3adc 44be f112 803d e20c 0e3d
00000300: 6ed6 04bc 0f45 0fbd 942a 53be 0b78 003d
00000310: 58f3 bd3d 3499 2bbe c219 88be 6ed7 283e
00000320: 80c7 dc3d cf7a cf3d b0c9 09bd d358 c2bd
00000330: d593 96bd 6ada 843c acc9 493b ee7f 35bd
00000340: 3f21 2cbd b958 0bbd b07f 153b 9687 0dbd
00000350: d83b 903d b1d8 163d dea8 08be b9ad 65bd
00000360: 89eb 6fbd cacb 94bc 3f2c b33d 0442 97bc
00000370: d914 c1bc eb84 63be 24d8 c6bd 4764 41bd
00000380: dfc8 fabb 5bc4 24be 4a59 43be f331 d9bd
00000390: d5f5 87bd 4e59 94bc 35e8 5cbe db8c 2ebd
000003a0: 4698 3bbe 79d8 dcbd 9a94 c93d 1a49 5bbc
000003b0: 3559 f8bd 60c8 993d 9c69 beba b3d3 a8bd
000003c0: 21cd ffbd 6e88 ec3d d45b c63d f7fc 2b3e
000003d0: 8419 b43d 7695 39be d427 c5bd d7d5 883d
000003e0: 56ce 043d db67 5b3a 9158 0fbe 8fcb 123e
000003f0: e142 983d 35f5 f73d 1d34 7fbc 1542 60be

network_body.observation_encoder.processors.0.normalizer.running_mean f4 [6]
-0.18429263 -0.1916656 -0.062419493 0.0472862 0.14118259 0.39569512
00000000: 35b7 3cbe fd43 44be 95ab 7fbd 2daf 413d
00000010: 2b92 103e 8d98 ca3e
